libdc1394 error: Failed to initialize libdc1394
WARNING: Logging before InitGoogleLogging() is written to STDERR
I0906 06:52:39.124655  1655 net.cpp:50] Initializing net from parameters: 
name: "makesetnopretrain"
input: "data"
input_dim: 1
input_dim: 3
input_dim: 224
input_dim: 224
state {
  phase: TEST
}
layer {
  name: "conv1/7x7_s2"
  type: "Convolution"
  bottom: "data"
  top: "conv1/7x7_s2"
  param {
    lr_mult: 1
    decay_mult: 1
  }
  param {
    lr_mult: 2
    decay_mult: 0
  }
  convolution_param {
    num_output: 64
    pad: 3
    kernel_size: 7
    stride: 2
    weight_filler {
      type: "xavier"
      std: 0.1
    }
    bias_filler {
      type: "constant"
      value: 0.2
    }
  }
}
layer {
  name: "conv1/relu_7x7"
  type: "ReLU"
  bottom: "conv1/7x7_s2"
  top: "conv1/7x7_s2"
}
layer {
  name: "pool1/3x3_s2"
  type: "Pooling"
  bottom: "conv1/7x7_s2"
  top: "pool1/3x3_s2"
  pooling_param {
    pool: MAX
    kernel_size: 3
    stride: 2
  }
}
layer {
  name: "pool1/norm1"
  type: "LRN"
  bottom: "pool1/3x3_s2"
  top: "pool1/norm1"
  lrn_param {
    local_size: 5
    alpha: 0.0001
    beta: 0.75
  }
}
layer {
  name: "conv2/3x3_reduce"
  type: "Convolution"
  bottom: "pool1/norm1"
  top: "conv2/3x3_reduce"
  param {
    lr_mult: 1
    decay_mult: 1
  }
  param {
    lr_mult: 2
    decay_mult: 0
  }
  convolution_param {
    num_output: 64
    kernel_size: 1
    weight_filler {
      type: "xavier"
      std: 0.1
    }
    bias_filler {
      type: "constant"
      value: 0.2
    }
  }
}
layer {
  name: "conv2/relu_3x3_reduce"
  type: "ReLU"
  bottom: "conv2/3x3_reduce"
  top: "conv2/3x3_reduce"
}
layer {
  name: "conv2/3x3"
  type: "Convolution"
  bottom: "conv2/3x3_reduce"
  top: "conv2/3x3"
  param {
    lr_mult: 1
    decay_mult: 1
  }
  param {
    lr_mult: 2
    decay_mult: 0
  }
  convolution_param {
    num_output: 192
    pad: 1
    kernel_size: 3
    weight_filler {
      type: "xavier"
      std: 0.03
    }
    bias_filler {
      type: "constant"
      value: 0.2
    }
  }
}
layer {
  name: "conv2/relu_3x3"
  type: "ReLU"
  bottom: "conv2/3x3"
  top: "conv2/3x3"
}
layer {
  name: "conv2/norm2"
  type: "LRN"
  bottom: "conv2/3x3"
  top: "conv2/norm2"
  lrn_param {
    local_size: 5
    alpha: 0.0001
    beta: 0.75
  }
}
layer {
  name: "pool2/3x3_s2"
  type: "Pooling"
  bottom: "conv2/norm2"
  top: "pool2/3x3_s2"
  pooling_param {
    pool: MAX
    kernel_size: 3
    stride: 2
  }
}
layer {
  name: "inception_3a/1x1"
  type: "Convolution"
  bottom: "pool2/3x3_s2"
  top: "inception_3a/1x1"
  param {
    lr_mult: 1
    decay_mult: 1
  }
  param {
    lr_mult: 2
    decay_mult: 0
  }
  convolution_param {
    num_output: 64
    kernel_size: 1
    weight_filler {
      type: "xavier"
      std: 0.03
    }
    bias_filler {
      type: "constant"
      value: 0.2
    }
  }
}
layer {
  name: "inception_3a/relu_1x1"
  type: "ReLU"
  bottom: "inception_3a/1x1"
  top: "inception_3a/1x1"
}
layer {
  name: "inception_3a/3x3_reduce"
  type: "Convolution"
  bottom: "pool2/3x3_s2"
  top: "inception_3a/3x3_reduce"
  param {
    lr_mult: 1
    decay_mult: 1
  }
  param {
    lr_mult: 2
    decay_mult: 0
  }
  convolution_param {
    num_output: 96
    kernel_size: 1
    weight_filler {
      type: "xavier"
      std: 0.09
    }
    bias_filler {
      type: "constant"
      value: 0.2
    }
  }
}
layer {
  name: "inception_3a/relu_3x3_reduce"
  type: "ReLU"
  bottom: "inception_3a/3x3_reduce"
  top: "inception_3a/3x3_reduce"
}
layer {
  name: "inception_3a/3x3"
  type: "Convolution"
  bottom: "inception_3a/3x3_reduce"
  top: "inception_3a/3x3"
  param {
    lr_mult: 1
    decay_mult: 1
  }
  param {
    lr_mult: 2
    decay_mult: 0
  }
  convolution_param {
    num_output: 128
    pad: 1
    kernel_size: 3
    weight_filler {
      type: "xavier"
      std: 0.03
    }
    bias_filler {
      type: "constant"
      value: 0.2
    }
  }
}
layer {
  name: "inception_3a/relu_3x3"
  type: "ReLU"
  bottom: "inception_3a/3x3"
  top: "inception_3a/3x3"
}
layer {
  name: "inception_3a/5x5_reduce"
  type: "Convolution"
  bottom: "pool2/3x3_s2"
  top: "inception_3a/5x5_reduce"
  param {
    lr_mult: 1
    decay_mult: 1
  }
  param {
    lr_mult: 2
    decay_mult: 0
  }
  convolution_param {
    num_output: 16
    kernel_size: 1
    weight_filler {
      type: "xavier"
      std: 0.2
    }
    bias_filler {
      type: "constant"
      value: 0.2
    }
  }
}
layer {
  name: "inception_3a/relu_5x5_reduce"
  type: "ReLU"
  bottom: "inception_3a/5x5_reduce"
  top: "inception_3a/5x5_reduce"
}
layer {
  name: "inception_3a/5x5"
  type: "Convolution"
  bottom: "inception_3a/5x5_reduce"
  top: "inception_3a/5x5"
  param {
    lr_mult: 1
    decay_mult: 1
  }
  param {
    lr_mult: 2
    decay_mult: 0
  }
  convolution_param {
    num_output: 32
    pad: 2
    kernel_size: 5
    weight_filler {
      type: "xavier"
      std: 0.03
    }
    bias_filler {
      type: "constant"
      value: 0.2
    }
  }
}
layer {
  name: "inception_3a/relu_5x5"
  type: "ReLU"
  bottom: "inception_3a/5x5"
  top: "inception_3a/5x5"
}
layer {
  name: "inception_3a/pool"
  type: "Pooling"
  bottom: "pool2/3x3_s2"
  top: "inception_3a/pool"
  pooling_param {
    pool: MAX
    kernel_size: 3
    stride: 1
    pad: 1
  }
}
layer {
  name: "inception_3a/pool_proj"
  type: "Convolution"
  bottom: "inception_3a/pool"
  top: "inception_3a/pool_proj"
  param {
    lr_mult: 1
    decay_mult: 1
  }
  param {
    lr_mult: 2
    decay_mult: 0
  }
  convolution_param {
    num_output: 32
    kernel_size: 1
    weight_filler {
      type: "xavier"
      std: 0.1
    }
    bias_filler {
      type: "constant"
      value: 0.2
    }
  }
}
layer {
  name: "inception_3a/relu_pool_proj"
  type: "ReLU"
  bottom: "inception_3a/pool_proj"
  top: "inception_3a/pool_proj"
}
layer {
  name: "inception_3a/output"
  type: "Concat"
  bottom: "inception_3a/1x1"
  bottom: "inception_3a/3x3"
  bottom: "inception_3a/5x5"
  bottom: "inception_3a/pool_proj"
  top: "inception_3a/output"
}
layer {
  name: "inception_3b/1x1"
  type: "Convolution"
  bottom: "inception_3a/output"
  top: "inception_3b/1x1"
  param {
    lr_mult: 1
    decay_mult: 1
  }
  param {
    lr_mult: 2
    decay_mult: 0
  }
  convolution_param {
    num_output: 128
    kernel_size: 1
    weight_filler {
      type: "xavier"
      std: 0.03
    }
    bias_filler {
      type: "constant"
      value: 0.2
    }
  }
}
layer {
  name: "inception_3b/relu_1x1"
  type: "ReLU"
  bottom: "inception_3b/1x1"
  top: "inception_3b/1x1"
}
layer {
  name: "inception_3b/3x3_reduce"
  type: "Convolution"
  bottom: "inception_3a/output"
  top: "inception_3b/3x3_reduce"
  param {
    lr_mult: 1
    decay_mult: 1
  }
  param {
    lr_mult: 2
    decay_mult: 0
  }
  convolution_param {
    num_output: 128
    kernel_size: 1
    weight_filler {
      type: "xavier"
      std: 0.09
    }
    bias_filler {
      type: "constant"
      value: 0.2
    }
  }
}
layer {
  name: "inception_3b/relu_3x3_reduce"
  type: "ReLU"
  bottom: "inception_3b/3x3_reduce"
  top: "inception_3b/3x3_reduce"
}
layer {
  name: "inception_3b/3x3"
  type: "Convolution"
  bottom: "inception_3b/3x3_reduce"
  top: "inception_3b/3x3"
  param {
    lr_mult: 1
    decay_mult: 1
  }
  param {
    lr_mult: 2
    decay_mult: 0
  }
  convolution_param {
    num_output: 192
    pad: 1
    kernel_size: 3
    weight_filler {
      type: "xavier"
      std: 0.03
    }
    bias_filler {
      type: "constant"
      value: 0.2
    }
  }
}
layer {
  name: "inception_3b/relu_3x3"
  type: "ReLU"
  bottom: "inception_3b/3x3"
  top: "inception_3b/3x3"
}
layer {
  name: "inception_3b/5x5_reduce"
  type: "Convolution"
  bottom: "inception_3a/output"
  top: "inception_3b/5x5_reduce"
  param {
    lr_mult: 1
    decay_mult: 1
  }
  param {
    lr_mult: 2
    decay_mult: 0
  }
  convolution_param {
    num_output: 32
    kernel_size: 1
    weight_filler {
      type: "xavier"
      std: 0.2
    }
    bias_filler {
      type: "constant"
      value: 0.2
    }
  }
}
layer {
  name: "inception_3b/relu_5x5_reduce"
  type: "ReLU"
  bottom: "inception_3b/5x5_reduce"
  top: "inception_3b/5x5_reduce"
}
layer {
  name: "inception_3b/5x5"
  type: "Convolution"
  bottom: "inception_3b/5x5_reduce"
  top: "inception_3b/5x5"
  param {
    lr_mult: 1
    decay_mult: 1
  }
  param {
    lr_mult: 2
    decay_mult: 0
  }
  convolution_param {
    num_output: 96
    pad: 2
    kernel_size: 5
    weight_filler {
      type: "xavier"
      std: 0.03
    }
    bias_filler {
      type: "constant"
      value: 0.2
    }
  }
}
layer {
  name: "inception_3b/relu_5x5"
  type: "ReLU"
  bottom: "inception_3b/5x5"
  top: "inception_3b/5x5"
}
layer {
  name: "inception_3b/pool"
  type: "Pooling"
  bottom: "inception_3a/output"
  top: "inception_3b/pool"
  pooling_param {
    pool: MAX
    kernel_size: 3
    stride: 1
    pad: 1
  }
}
layer {
  name: "inception_3b/pool_proj"
  type: "Convolution"
  bottom: "inception_3b/pool"
  top: "inception_3b/pool_proj"
  param {
    lr_mult: 1
    decay_mult: 1
  }
  param {
    lr_mult: 2
    decay_mult: 0
  }
  convolution_param {
    num_output: 64
    kernel_size: 1
    weight_filler {
      type: "xavier"
      std: 0.1
    }
    bias_filler {
      type: "constant"
      value: 0.2
    }
  }
}
layer {
  name: "inception_3b/relu_pool_proj"
  type: "ReLU"
  bottom: "inception_3b/pool_proj"
  top: "inception_3b/pool_proj"
}
layer {
  name: "inception_3b/output"
  type: "Concat"
  bottom: "inception_3b/1x1"
  bottom: "inception_3b/3x3"
  bottom: "inception_3b/5x5"
  bottom: "inception_3b/pool_proj"
  top: "inception_3b/output"
}
layer {
  name: "pool3/3x3_s2"
  type: "Pooling"
  bottom: "inception_3b/output"
  top: "pool3/3x3_s2"
  pooling_param {
    pool: MAX
    kernel_size: 3
    stride: 2
  }
}
layer {
  name: "inception_4a/1x1"
  type: "Convolution"
  bottom: "pool3/3x3_s2"
  top: "inception_4a/1x1"
  param {
    lr_mult: 1
    decay_mult: 1
  }
  param {
    lr_mult: 2
    decay_mult: 0
  }
  convolution_param {
    num_output: 192
    kernel_size: 1
    weight_filler {
      type: "xavier"
      std: 0.03
    }
    bias_filler {
      type: "constant"
      value: 0.2
    }
  }
}
layer {
  name: "inception_4a/relu_1x1"
  type: "ReLU"
  bottom: "inception_4a/1x1"
  top: "inception_4a/1x1"
}
layer {
  name: "inception_4a/3x3_reduce"
  type: "Convolution"
  bottom: "pool3/3x3_s2"
  top: "inception_4a/3x3_reduce"
  param {
    lr_mult: 1
    decay_mult: 1
  }
  param {
    lr_mult: 2
    decay_mult: 0
  }
  convolution_param {
    num_output: 96
    kernel_size: 1
    weight_filler {
      type: "xavier"
      std: 0.09
    }
    bias_filler {
      type: "constant"
      value: 0.2
    }
  }
}
layer {
  name: "inception_4a/relu_3x3_reduce"
  type: "ReLU"
  bottom: "inception_4a/3x3_reduce"
  top: "inception_4a/3x3_reduce"
}
layer {
  name: "inception_4a/3x3"
  type: "Convolution"
  bottom: "inception_4a/3x3_reduce"
  top: "inception_4a/3x3"
  param {
    lr_mult: 1
    decay_mult: 1
  }
  param {
    lr_mult: 2
    decay_mult: 0
  }
  convolution_param {
    num_output: 208
    pad: 1
    kernel_size: 3
    weight_filler {
      type: "xavier"
      std: 0.03
    }
    bias_filler {
      type: "constant"
      value: 0.2
    }
  }
}
layer {
  name: "inception_4a/relu_3x3"
  type: "ReLU"
  bottom: "inception_4a/3x3"
  top: "inception_4a/3x3"
}
layer {
  name: "inception_4a/5x5_reduce"
  type: "Convolution"
  bottom: "pool3/3x3_s2"
  top: "inception_4a/5x5_reduce"
  param {
    lr_mult: 1
    decay_mult: 1
  }
  param {
    lr_mult: 2
    decay_mult: 0
  }
  convolution_param {
    num_output: 16
    kernel_size: 1
    weight_filler {
      type: "xavier"
      std: 0.2
    }
    bias_filler {
      type: "constant"
      value: 0.2
    }
  }
}
layer {
  name: "inception_4a/relu_5x5_reduce"
  type: "ReLU"
  bottom: "inception_4a/5x5_reduce"
  top: "inception_4a/5x5_reduce"
}
layer {
  name: "inception_4a/5x5"
  type: "Convolution"
  bottom: "inception_4a/5x5_reduce"
  top: "inception_4a/5x5"
  param {
    lr_mult: 1
    decay_mult: 1
  }
  param {
    lr_mult: 2
    decay_mult: 0
  }
  convolution_param {
    num_output: 48
    pad: 2
    kernel_size: 5
    weight_filler {
      type: "xavier"
      std: 0.03
    }
    bias_filler {
      type: "constant"
      value: 0.2
    }
  }
}
layer {
  name: "inception_4a/relu_5x5"
  type: "ReLU"
  bottom: "inception_4a/5x5"
  top: "inception_4a/5x5"
}
layer {
  name: "inception_4a/pool"
  type: "Pooling"
  bottom: "pool3/3x3_s2"
  top: "inception_4a/pool"
  pooling_param {
    pool: MAX
    kernel_size: 3
    stride: 1
    pad: 1
  }
}
layer {
  name: "inception_4a/pool_proj"
  type: "Convolution"
  bottom: "inception_4a/pool"
  top: "inception_4a/pool_proj"
  param {
    lr_mult: 1
    decay_mult: 1
  }
  param {
    lr_mult: 2
    decay_mult: 0
  }
  convolution_param {
    num_output: 64
    kernel_size: 1
    weight_filler {
      type: "xavier"
      std: 0.1
    }
    bias_filler {
      type: "constant"
      value: 0.2
    }
  }
}
layer {
  name: "inception_4a/relu_pool_proj"
  type: "ReLU"
  bottom: "inception_4a/pool_proj"
  top: "inception_4a/pool_proj"
}
layer {
  name: "inception_4a/output"
  type: "Concat"
  bottom: "inception_4a/1x1"
  bottom: "inception_4a/3x3"
  bottom: "inception_4a/5x5"
  bottom: "inception_4a/pool_proj"
  top: "inception_4a/output"
}
layer {
  name: "inception_4b/1x1"
  type: "Convolution"
  bottom: "inception_4a/output"
  top: "inception_4b/1x1"
  param {
    lr_mult: 1
    decay_mult: 1
  }
  param {
    lr_mult: 2
    decay_mult: 0
  }
  convolution_param {
    num_output: 160
    kernel_size: 1
    weight_filler {
      type: "xavier"
      std: 0.03
    }
    bias_filler {
      type: "constant"
      value: 0.2
    }
  }
}
layer {
  name: "inception_4b/relu_1x1"
  type: "ReLU"
  bottom: "inception_4b/1x1"
  top: "inception_4b/1x1"
}
layer {
  name: "inception_4b/3x3_reduce"
  type: "Convolution"
  bottom: "inception_4a/output"
  top: "inception_4b/3x3_reduce"
  param {
    lr_mult: 1
    decay_mult: 1
  }
  param {
    lr_mult: 2
    decay_mult: 0
  }
  convolution_param {
    num_output: 112
    kernel_size: 1
    weight_filler {
      type: "xavier"
      std: 0.09
    }
    bias_filler {
      type: "constant"
      value: 0.2
    }
  }
}
layer {
  name: "inception_4b/relu_3x3_reduce"
  type: "ReLU"
  bottom: "inception_4b/3x3_reduce"
  top: "inception_4b/3x3_reduce"
}
layer {
  name: "inception_4b/3x3"
  type: "Convolution"
  bottom: "inception_4b/3x3_reduce"
  top: "inception_4b/3x3"
  param {
    lr_mult: 1
    decay_mult: 1
  }
  param {
    lr_mult: 2
    decay_mult: 0
  }
  convolution_param {
    num_output: 224
    pad: 1
    kernel_size: 3
    weight_filler {
      type: "xavier"
      std: 0.03
    }
    bias_filler {
      type: "constant"
      value: 0.2
    }
  }
}
layer {
  name: "inception_4b/relu_3x3"
  type: "ReLU"
  bottom: "inception_4b/3x3"
  top: "inception_4b/3x3"
}
layer {
  name: "inception_4b/5x5_reduce"
  type: "Convolution"
  bottom: "inception_4a/output"
  top: "inception_4b/5x5_reduce"
  param {
    lr_mult: 1
    decay_mult: 1
  }
  param {
    lr_mult: 2
    decay_mult: 0
  }
  convolution_param {
    num_output: 24
    kernel_size: 1
    weight_filler {
      type: "xavier"
      std: 0.2
    }
    bias_filler {
      type: "constant"
      value: 0.2
    }
  }
}
layer {
  name: "inception_4b/relu_5x5_reduce"
  type: "ReLU"
  bottom: "inception_4b/5x5_reduce"
  top: "inception_4b/5x5_reduce"
}
layer {
  name: "inception_4b/5x5"
  type: "Convolution"
  bottom: "inception_4b/5x5_reduce"
  top: "inception_4b/5x5"
  param {
    lr_mult: 1
    decay_mult: 1
  }
  param {
    lr_mult: 2
    decay_mult: 0
  }
  convolution_param {
    num_output: 64
    pad: 2
    kernel_size: 5
    weight_filler {
      type: "xavier"
      std: 0.03
    }
    bias_filler {
      type: "constant"
      value: 0.2
    }
  }
}
layer {
  name: "inception_4b/relu_5x5"
  type: "ReLU"
  bottom: "inception_4b/5x5"
  top: "inception_4b/5x5"
}
layer {
  name: "inception_4b/pool"
  type: "Pooling"
  bottom: "inception_4a/output"
  top: "inception_4b/pool"
  pooling_param {
    pool: MAX
    kernel_size: 3
    stride: 1
    pad: 1
  }
}
layer {
  name: "inception_4b/pool_proj"
  type: "Convolution"
  bottom: "inception_4b/pool"
  top: "inception_4b/pool_proj"
  param {
    lr_mult: 1
    decay_mult: 1
  }
  param {
    lr_mult: 2
    decay_mult: 0
  }
  convolution_param {
    num_output: 64
    kernel_size: 1
    weight_filler {
      type: "xavier"
      std: 0.1
    }
    bias_filler {
      type: "constant"
      value: 0.2
    }
  }
}
layer {
  name: "inception_4b/relu_pool_proj"
  type: "ReLU"
  bottom: "inception_4b/pool_proj"
  top: "inception_4b/pool_proj"
}
layer {
  name: "inception_4b/output"
  type: "Concat"
  bottom: "inception_4b/1x1"
  bottom: "inception_4b/3x3"
  bottom: "inception_4b/5x5"
  bottom: "inception_4b/pool_proj"
  top: "inception_4b/output"
}
layer {
  name: "inception_4c/1x1"
  type: "Convolution"
  bottom: "inception_4b/output"
  top: "inception_4c/1x1"
  param {
    lr_mult: 1
    decay_mult: 1
  }
  param {
    lr_mult: 2
    decay_mult: 0
  }
  convolution_param {
    num_output: 128
    kernel_size: 1
    weight_filler {
      type: "xavier"
      std: 0.03
    }
    bias_filler {
      type: "constant"
      value: 0.2
    }
  }
}
layer {
  name: "inception_4c/relu_1x1"
  type: "ReLU"
  bottom: "inception_4c/1x1"
  top: "inception_4c/1x1"
}
layer {
  name: "inception_4c/3x3_reduce"
  type: "Convolution"
  bottom: "inception_4b/output"
  top: "inception_4c/3x3_reduce"
  param {
    lr_mult: 1
    decay_mult: 1
  }
  param {
    lr_mult: 2
    decay_mult: 0
  }
  convolution_param {
    num_output: 128
    kernel_size: 1
    weight_filler {
      type: "xavier"
      std: 0.09
    }
    bias_filler {
      type: "constant"
      value: 0.2
    }
  }
}
layer {
  name: "inception_4c/relu_3x3_reduce"
  type: "ReLU"
  bottom: "inception_4c/3x3_reduce"
  top: "inception_4c/3x3_reduce"
}
layer {
  name: "inception_4c/3x3"
  type: "Convolution"
  bottom: "inception_4c/3x3_reduce"
  top: "inception_4c/3x3"
  param {
    lr_mult: 1
    decay_mult: 1
  }
  param {
    lr_mult: 2
    decay_mult: 0
  }
  convolution_param {
    num_output: 256
    pad: 1
    kernel_size: 3
    weight_filler {
      type: "xavier"
      std: 0.03
    }
    bias_filler {
      type: "constant"
      value: 0.2
    }
  }
}
layer {
  name: "inception_4c/relu_3x3"
  type: "ReLU"
  bottom: "inception_4c/3x3"
  top: "inception_4c/3x3"
}
layer {
  name: "inception_4c/5x5_reduce"
  type: "Convolution"
  bottom: "inception_4b/output"
  top: "inception_4c/5x5_reduce"
  param {
    lr_mult: 1
    decay_mult: 1
  }
  param {
    lr_mult: 2
    decay_mult: 0
  }
  convolution_param {
    num_output: 24
    kernel_size: 1
    weight_filler {
      type: "xavier"
      std: 0.2
    }
    bias_filler {
      type: "constant"
      value: 0.2
    }
  }
}
layer {
  name: "inception_4c/relu_5x5_reduce"
  type: "ReLU"
  bottom: "inception_4c/5x5_reduce"
  top: "inception_4c/5x5_reduce"
}
layer {
  name: "inception_4c/5x5"
  type: "Convolution"
  bottom: "inception_4c/5x5_reduce"
  top: "inception_4c/5x5"
  param {
    lr_mult: 1
    decay_mult: 1
  }
  param {
    lr_mult: 2
    decay_mult: 0
  }
  convolution_param {
    num_output: 64
    pad: 2
    kernel_size: 5
    weight_filler {
      type: "xavier"
      std: 0.03
    }
    bias_filler {
      type: "constant"
      value: 0.2
    }
  }
}
layer {
  name: "inception_4c/relu_5x5"
  type: "ReLU"
  bottom: "inception_4c/5x5"
  top: "inception_4c/5x5"
}
layer {
  name: "inception_4c/pool"
  type: "Pooling"
  bottom: "inception_4b/output"
  top: "inception_4c/pool"
  pooling_param {
    pool: MAX
    kernel_size: 3
    stride: 1
    pad: 1
  }
}
layer {
  name: "inception_4c/pool_proj"
  type: "Convolution"
  bottom: "inception_4c/pool"
  top: "inception_4c/pool_proj"
  param {
    lr_mult: 1
    decay_mult: 1
  }
  param {
    lr_mult: 2
    decay_mult: 0
  }
  convolution_param {
    num_output: 64
    kernel_size: 1
    weight_filler {
      type: "xavier"
      std: 0.1
    }
    bias_filler {
      type: "constant"
      value: 0.2
    }
  }
}
layer {
  name: "inception_4c/relu_pool_proj"
  type: "ReLU"
  bottom: "inception_4c/pool_proj"
  top: "inception_4c/pool_proj"
}
layer {
  name: "inception_4c/output"
  type: "Concat"
  bottom: "inception_4c/1x1"
  bottom: "inception_4c/3x3"
  bottom: "inception_4c/5x5"
  bottom: "inception_4c/pool_proj"
  top: "inception_4c/output"
}
layer {
  name: "inception_4d/1x1"
  type: "Convolution"
  bottom: "inception_4c/output"
  top: "inception_4d/1x1"
  param {
    lr_mult: 1
    decay_mult: 1
  }
  param {
    lr_mult: 2
    decay_mult: 0
  }
  convolution_param {
    num_output: 112
    kernel_size: 1
    weight_filler {
      type: "xavier"
      std: 0.03
    }
    bias_filler {
      type: "constant"
      value: 0.2
    }
  }
}
layer {
  name: "inception_4d/relu_1x1"
  type: "ReLU"
  bottom: "inception_4d/1x1"
  top: "inception_4d/1x1"
}
layer {
  name: "inception_4d/3x3_reduce"
  type: "Convolution"
  bottom: "inception_4c/output"
  top: "inception_4d/3x3_reduce"
  param {
    lr_mult: 1
    decay_mult: 1
  }
  param {
    lr_mult: 2
    decay_mult: 0
  }
  convolution_param {
    num_output: 144
    kernel_size: 1
    weight_filler {
      type: "xavier"
      std: 0.09
    }
    bias_filler {
      type: "constant"
      value: 0.2
    }
  }
}
layer {
  name: "inception_4d/relu_3x3_reduce"
  type: "ReLU"
  bottom: "inception_4d/3x3_reduce"
  top: "inception_4d/3x3_reduce"
}
layer {
  name: "inception_4d/3x3"
  type: "Convolution"
  bottom: "inception_4d/3x3_reduce"
  top: "inception_4d/3x3"
  param {
    lr_mult: 1
    decay_mult: 1
  }
  param {
    lr_mult: 2
    decay_mult: 0
  }
  convolution_param {
    num_output: 288
    pad: 1
    kernel_size: 3
    weight_filler {
      type: "xavier"
      std: 0.03
    }
    bias_filler {
      type: "constant"
      value: 0.2
    }
  }
}
layer {
  name: "inception_4d/relu_3x3"
  type: "ReLU"
  bottom: "inception_4d/3x3"
  top: "inception_4d/3x3"
}
layer {
  name: "inception_4d/5x5_reduce"
  type: "Convolution"
  bottom: "inception_4c/output"
  top: "inception_4d/5x5_reduce"
  param {
    lr_mult: 1
    decay_mult: 1
  }
  param {
    lr_mult: 2
    decay_mult: 0
  }
  convolution_param {
    num_output: 32
    kernel_size: 1
    weight_filler {
      type: "xavier"
      std: 0.2
    }
    bias_filler {
      type: "constant"
      value: 0.2
    }
  }
}
layer {
  name: "inception_4d/relu_5x5_reduce"
  type: "ReLU"
  bottom: "inception_4d/5x5_reduce"
  top: "inception_4d/5x5_reduce"
}
layer {
  name: "inception_4d/5x5"
  type: "Convolution"
  bottom: "inception_4d/5x5_reduce"
  top: "inception_4d/5x5"
  param {
    lr_mult: 1
    decay_mult: 1
  }
  param {
    lr_mult: 2
    decay_mult: 0
  }
  convolution_param {
    num_output: 64
    pad: 2
    kernel_size: 5
    weight_filler {
      type: "xavier"
      std: 0.03
    }
    bias_filler {
      type: "constant"
      value: 0.2
    }
  }
}
layer {
  name: "inception_4d/relu_5x5"
  type: "ReLU"
  bottom: "inception_4d/5x5"
  top: "inception_4d/5x5"
}
layer {
  name: "inception_4d/pool"
  type: "Pooling"
  bottom: "inception_4c/output"
  top: "inception_4d/pool"
  pooling_param {
    pool: MAX
    kernel_size: 3
    stride: 1
    pad: 1
  }
}
layer {
  name: "inception_4d/pool_proj"
  type: "Convolution"
  bottom: "inception_4d/pool"
  top: "inception_4d/pool_proj"
  param {
    lr_mult: 1
    decay_mult: 1
  }
  param {
    lr_mult: 2
    decay_mult: 0
  }
  convolution_param {
    num_output: 64
    kernel_size: 1
    weight_filler {
      type: "xavier"
      std: 0.1
    }
    bias_filler {
      type: "constant"
      value: 0.2
    }
  }
}
layer {
  name: "inception_4d/relu_pool_proj"
  type: "ReLU"
  bottom: "inception_4d/pool_proj"
  top: "inception_4d/pool_proj"
}
layer {
  name: "inception_4d/output"
  type: "Concat"
  bottom: "inception_4d/1x1"
  bottom: "inception_4d/3x3"
  bottom: "inception_4d/5x5"
  bottom: "inception_4d/pool_proj"
  top: "inception_4d/output"
}
layer {
  name: "inception_4e/1x1"
  type: "Convolution"
  bottom: "inception_4d/output"
  top: "inception_4e/1x1"
  param {
    lr_mult: 1
    decay_mult: 1
  }
  param {
    lr_mult: 2
    decay_mult: 0
  }
  convolution_param {
    num_output: 256
    kernel_size: 1
    weight_filler {
      type: "xavier"
      std: 0.03
    }
    bias_filler {
      type: "constant"
      value: 0.2
    }
  }
}
layer {
  name: "inception_4e/relu_1x1"
  type: "ReLU"
  bottom: "inception_4e/1x1"
  top: "inception_4e/1x1"
}
layer {
  name: "inception_4e/3x3_reduce"
  type: "Convolution"
  bottom: "inception_4d/output"
  top: "inception_4e/3x3_reduce"
  param {
    lr_mult: 1
    decay_mult: 1
  }
  param {
    lr_mult: 2
    decay_mult: 0
  }
  convolution_param {
    num_output: 160
    kernel_size: 1
    weight_filler {
      type: "xavier"
      std: 0.09
    }
    bias_filler {
      type: "constant"
      value: 0.2
    }
  }
}
layer {
  name: "inception_4e/relu_3x3_reduce"
  type: "ReLU"
  bottom: "inception_4e/3x3_reduce"
  top: "inception_4e/3x3_reduce"
}
layer {
  name: "inception_4e/3x3"
  type: "Convolution"
  bottom: "inception_4e/3x3_reduce"
  top: "inception_4e/3x3"
  param {
    lr_mult: 1
    decay_mult: 1
  }
  param {
    lr_mult: 2
    decay_mult: 0
  }
  convolution_param {
    num_output: 320
    pad: 1
    kernel_size: 3
    weight_filler {
      type: "xavier"
      std: 0.03
    }
    bias_filler {
      type: "constant"
      value: 0.2
    }
  }
}
layer {
  name: "inception_4e/relu_3x3"
  type: "ReLU"
  bottom: "inception_4e/3x3"
  top: "inception_4e/3x3"
}
layer {
  name: "inception_4e/5x5_reduce"
  type: "Convolution"
  bottom: "inception_4d/output"
  top: "inception_4e/5x5_reduce"
  param {
    lr_mult: 1
    decay_mult: 1
  }
  param {
    lr_mult: 2
    decay_mult: 0
  }
  convolution_param {
    num_output: 32
    kernel_size: 1
    weight_filler {
      type: "xavier"
      std: 0.2
    }
    bias_filler {
      type: "constant"
      value: 0.2
    }
  }
}
layer {
  name: "inception_4e/relu_5x5_reduce"
  type: "ReLU"
  bottom: "inception_4e/5x5_reduce"
  top: "inception_4e/5x5_reduce"
}
layer {
  name: "inception_4e/5x5"
  type: "Convolution"
  bottom: "inception_4e/5x5_reduce"
  top: "inception_4e/5x5"
  param {
    lr_mult: 1
    decay_mult: 1
  }
  param {
    lr_mult: 2
    decay_mult: 0
  }
  convolution_param {
    num_output: 128
    pad: 2
    kernel_size: 5
    weight_filler {
      type: "xavier"
      std: 0.03
    }
    bias_filler {
      type: "constant"
      value: 0.2
    }
  }
}
layer {
  name: "inception_4e/relu_5x5"
  type: "ReLU"
  bottom: "inception_4e/5x5"
  top: "inception_4e/5x5"
}
layer {
  name: "inception_4e/pool"
  type: "Pooling"
  bottom: "inception_4d/output"
  top: "inception_4e/pool"
  pooling_param {
    pool: MAX
    kernel_size: 3
    stride: 1
    pad: 1
  }
}
layer {
  name: "inception_4e/pool_proj"
  type: "Convolution"
  bottom: "inception_4e/pool"
  top: "inception_4e/pool_proj"
  param {
    lr_mult: 1
    decay_mult: 1
  }
  param {
    lr_mult: 2
    decay_mult: 0
  }
  convolution_param {
    num_output: 128
    kernel_size: 1
    weight_filler {
      type: "xavier"
      std: 0.1
    }
    bias_filler {
      type: "constant"
      value: 0.2
    }
  }
}
layer {
  name: "inception_4e/relu_pool_proj"
  type: "ReLU"
  bottom: "inception_4e/pool_proj"
  top: "inception_4e/pool_proj"
}
layer {
  name: "inception_4e/output"
  type: "Concat"
  bottom: "inception_4e/1x1"
  bottom: "inception_4e/3x3"
  bottom: "inception_4e/5x5"
  bottom: "inception_4e/pool_proj"
  top: "inception_4e/output"
}
layer {
  name: "pool4/3x3_s2"
  type: "Pooling"
  bottom: "inception_4e/output"
  top: "pool4/3x3_s2"
  pooling_param {
    pool: MAX
    kernel_size: 3
    stride: 2
  }
}
layer {
  name: "inception_5a/1x1"
  type: "Convolution"
  bottom: "pool4/3x3_s2"
  top: "inception_5a/1x1"
  param {
    lr_mult: 1
    decay_mult: 1
  }
  param {
    lr_mult: 2
    decay_mult: 0
  }
  convolution_param {
    num_output: 256
    kernel_size: 1
    weight_filler {
      type: "xavier"
      std: 0.03
    }
    bias_filler {
      type: "constant"
      value: 0.2
    }
  }
}
layer {
  name: "inception_5a/relu_1x1"
  type: "ReLU"
  bottom: "inception_5a/1x1"
  top: "inception_5a/1x1"
}
layer {
  name: "inception_5a/3x3_reduce"
  type: "Convolution"
  bottom: "pool4/3x3_s2"
  top: "inception_5a/3x3_reduce"
  param {
    lr_mult: 1
    decay_mult: 1
  }
  param {
    lr_mult: 2
    decay_mult: 0
  }
  convolution_param {
    num_output: 160
    kernel_size: 1
    weight_filler {
      type: "xavier"
      std: 0.09
    }
    bias_filler {
      type: "constant"
      value: 0.2
    }
  }
}
layer {
  name: "inception_5a/relu_3x3_reduce"
  type: "ReLU"
  bottom: "inception_5a/3x3_reduce"
  top: "inception_5a/3x3_reduce"
}
layer {
  name: "inception_5a/3x3"
  type: "Convolution"
  bottom: "inception_5a/3x3_reduce"
  top: "inception_5a/3x3"
  param {
    lr_mult: 1
    decay_mult: 1
  }
  param {
    lr_mult: 2
    decay_mult: 0
  }
  convolution_param {
    num_output: 320
    pad: 1
    kernel_size: 3
    weight_filler {
      type: "xavier"
      std: 0.03
    }
    bias_filler {
      type: "constant"
      value: 0.2
    }
  }
}
layer {
  name: "inception_5a/relu_3x3"
  type: "ReLU"
  bottom: "inception_5a/3x3"
  top: "inception_5a/3x3"
}
layer {
  name: "inception_5a/5x5_reduce"
  type: "Convolution"
  bottom: "pool4/3x3_s2"
  top: "inception_5a/5x5_reduce"
  param {
    lr_mult: 1
    decay_mult: 1
  }
  param {
    lr_mult: 2
    decay_mult: 0
  }
  convolution_param {
    num_output: 32
    kernel_size: 1
    weight_filler {
      type: "xavier"
      std: 0.2
    }
    bias_filler {
      type: "constant"
      value: 0.2
    }
  }
}
layer {
  name: "inception_5a/relu_5x5_reduce"
  type: "ReLU"
  bo
I0906 06:52:39.125135  1655 net.cpp:434] Input 0 -> data
I0906 06:52:39.125171  1655 layer_factory.hpp:75] Creating layer conv1/7x7_s2
I0906 06:52:39.125182  1655 net.cpp:110] Creating Layer conv1/7x7_s2
I0906 06:52:39.125187  1655 net.cpp:476] conv1/7x7_s2 <- data
I0906 06:52:39.125192  1655 net.cpp:432] conv1/7x7_s2 -> conv1/7x7_s2
I0906 06:52:39.125711  1655 net.cpp:155] Setting up conv1/7x7_s2
I0906 06:52:39.125725  1655 net.cpp:163] Top shape: 1 64 112 112 (802816)
I0906 06:52:39.125738  1655 layer_factory.hpp:75] Creating layer conv1/relu_7x7
I0906 06:52:39.125746  1655 net.cpp:110] Creating Layer conv1/relu_7x7
I0906 06:52:39.125749  1655 net.cpp:476] conv1/relu_7x7 <- conv1/7x7_s2
I0906 06:52:39.125753  1655 net.cpp:419] conv1/relu_7x7 -> conv1/7x7_s2 (in-place)
I0906 06:52:39.125761  1655 net.cpp:155] Setting up conv1/relu_7x7
I0906 06:52:39.125764  1655 net.cpp:163] Top shape: 1 64 112 112 (802816)
I0906 06:52:39.125767  1655 layer_factory.hpp:75] Creating layer pool1/3x3_s2
I0906 06:52:39.125772  1655 net.cpp:110] Creating Layer pool1/3x3_s2
I0906 06:52:39.125776  1655 net.cpp:476] pool1/3x3_s2 <- conv1/7x7_s2
I0906 06:52:39.125782  1655 net.cpp:432] pool1/3x3_s2 -> pool1/3x3_s2
I0906 06:52:39.125792  1655 net.cpp:155] Setting up pool1/3x3_s2
I0906 06:52:39.125797  1655 net.cpp:163] Top shape: 1 64 56 56 (200704)
I0906 06:52:39.125799  1655 layer_factory.hpp:75] Creating layer pool1/norm1
I0906 06:52:39.125807  1655 net.cpp:110] Creating Layer pool1/norm1
I0906 06:52:39.125809  1655 net.cpp:476] pool1/norm1 <- pool1/3x3_s2
I0906 06:52:39.125814  1655 net.cpp:432] pool1/norm1 -> pool1/norm1
I0906 06:52:39.125821  1655 net.cpp:155] Setting up pool1/norm1
I0906 06:52:39.125825  1655 net.cpp:163] Top shape: 1 64 56 56 (200704)
I0906 06:52:39.125828  1655 layer_factory.hpp:75] Creating layer conv2/3x3_reduce
I0906 06:52:39.125835  1655 net.cpp:110] Creating Layer conv2/3x3_reduce
I0906 06:52:39.125838  1655 net.cpp:476] conv2/3x3_reduce <- pool1/norm1
I0906 06:52:39.125844  1655 net.cpp:432] conv2/3x3_reduce -> conv2/3x3_reduce
I0906 06:52:39.125887  1655 net.cpp:155] Setting up conv2/3x3_reduce
I0906 06:52:39.125893  1655 net.cpp:163] Top shape: 1 64 56 56 (200704)
I0906 06:52:39.125900  1655 layer_factory.hpp:75] Creating layer conv2/relu_3x3_reduce
I0906 06:52:39.125905  1655 net.cpp:110] Creating Layer conv2/relu_3x3_reduce
I0906 06:52:39.125908  1655 net.cpp:476] conv2/relu_3x3_reduce <- conv2/3x3_reduce
I0906 06:52:39.125912  1655 net.cpp:419] conv2/relu_3x3_reduce -> conv2/3x3_reduce (in-place)
I0906 06:52:39.125917  1655 net.cpp:155] Setting up conv2/relu_3x3_reduce
I0906 06:52:39.125921  1655 net.cpp:163] Top shape: 1 64 56 56 (200704)
I0906 06:52:39.125928  1655 layer_factory.hpp:75] Creating layer conv2/3x3
I0906 06:52:39.125934  1655 net.cpp:110] Creating Layer conv2/3x3
I0906 06:52:39.125938  1655 net.cpp:476] conv2/3x3 <- conv2/3x3_reduce
I0906 06:52:39.125942  1655 net.cpp:432] conv2/3x3 -> conv2/3x3
I0906 06:52:39.126749  1655 net.cpp:155] Setting up conv2/3x3
I0906 06:52:39.126756  1655 net.cpp:163] Top shape: 1 192 56 56 (602112)
I0906 06:52:39.126763  1655 layer_factory.hpp:75] Creating layer conv2/relu_3x3
I0906 06:52:39.126770  1655 net.cpp:110] Creating Layer conv2/relu_3x3
I0906 06:52:39.126773  1655 net.cpp:476] conv2/relu_3x3 <- conv2/3x3
I0906 06:52:39.126777  1655 net.cpp:419] conv2/relu_3x3 -> conv2/3x3 (in-place)
I0906 06:52:39.126781  1655 net.cpp:155] Setting up conv2/relu_3x3
I0906 06:52:39.126785  1655 net.cpp:163] Top shape: 1 192 56 56 (602112)
I0906 06:52:39.126788  1655 layer_factory.hpp:75] Creating layer conv2/norm2
I0906 06:52:39.126793  1655 net.cpp:110] Creating Layer conv2/norm2
I0906 06:52:39.126796  1655 net.cpp:476] conv2/norm2 <- conv2/3x3
I0906 06:52:39.126801  1655 net.cpp:432] conv2/norm2 -> conv2/norm2
I0906 06:52:39.126806  1655 net.cpp:155] Setting up conv2/norm2
I0906 06:52:39.126811  1655 net.cpp:163] Top shape: 1 192 56 56 (602112)
I0906 06:52:39.126813  1655 layer_factory.hpp:75] Creating layer pool2/3x3_s2
I0906 06:52:39.126817  1655 net.cpp:110] Creating Layer pool2/3x3_s2
I0906 06:52:39.126822  1655 net.cpp:476] pool2/3x3_s2 <- conv2/norm2
I0906 06:52:39.126827  1655 net.cpp:432] pool2/3x3_s2 -> pool2/3x3_s2
I0906 06:52:39.126832  1655 net.cpp:155] Setting up pool2/3x3_s2
I0906 06:52:39.126837  1655 net.cpp:163] Top shape: 1 192 28 28 (150528)
I0906 06:52:39.126839  1655 layer_factory.hpp:75] Creating layer pool2/3x3_s2_pool2/3x3_s2_0_split
I0906 06:52:39.126844  1655 net.cpp:110] Creating Layer pool2/3x3_s2_pool2/3x3_s2_0_split
I0906 06:52:39.126847  1655 net.cpp:476] pool2/3x3_s2_pool2/3x3_s2_0_split <- pool2/3x3_s2
I0906 06:52:39.126853  1655 net.cpp:432] pool2/3x3_s2_pool2/3x3_s2_0_split -> pool2/3x3_s2_pool2/3x3_s2_0_split_0
I0906 06:52:39.126859  1655 net.cpp:432] pool2/3x3_s2_pool2/3x3_s2_0_split -> pool2/3x3_s2_pool2/3x3_s2_0_split_1
I0906 06:52:39.126864  1655 net.cpp:432] pool2/3x3_s2_pool2/3x3_s2_0_split -> pool2/3x3_s2_pool2/3x3_s2_0_split_2
I0906 06:52:39.126868  1655 net.cpp:432] pool2/3x3_s2_pool2/3x3_s2_0_split -> pool2/3x3_s2_pool2/3x3_s2_0_split_3
I0906 06:52:39.126874  1655 net.cpp:155] Setting up pool2/3x3_s2_pool2/3x3_s2_0_split
I0906 06:52:39.126881  1655 net.cpp:163] Top shape: 1 192 28 28 (150528)
I0906 06:52:39.126886  1655 net.cpp:163] Top shape: 1 192 28 28 (150528)
I0906 06:52:39.126889  1655 net.cpp:163] Top shape: 1 192 28 28 (150528)
I0906 06:52:39.126893  1655 net.cpp:163] Top shape: 1 192 28 28 (150528)
I0906 06:52:39.126895  1655 layer_factory.hpp:75] Creating layer inception_3a/1x1
I0906 06:52:39.126900  1655 net.cpp:110] Creating Layer inception_3a/1x1
I0906 06:52:39.126904  1655 net.cpp:476] inception_3a/1x1 <- pool2/3x3_s2_pool2/3x3_s2_0_split_0
I0906 06:52:39.126910  1655 net.cpp:432] inception_3a/1x1 -> inception_3a/1x1
I0906 06:52:39.127007  1655 net.cpp:155] Setting up inception_3a/1x1
I0906 06:52:39.127012  1655 net.cpp:163] Top shape: 1 64 28 28 (50176)
I0906 06:52:39.127017  1655 layer_factory.hpp:75] Creating layer inception_3a/relu_1x1
I0906 06:52:39.127020  1655 net.cpp:110] Creating Layer inception_3a/relu_1x1
I0906 06:52:39.127023  1655 net.cpp:476] inception_3a/relu_1x1 <- inception_3a/1x1
I0906 06:52:39.127029  1655 net.cpp:419] inception_3a/relu_1x1 -> inception_3a/1x1 (in-place)
I0906 06:52:39.127033  1655 net.cpp:155] Setting up inception_3a/relu_1x1
I0906 06:52:39.127038  1655 net.cpp:163] Top shape: 1 64 28 28 (50176)
I0906 06:52:39.127040  1655 layer_factory.hpp:75] Creating layer inception_3a/3x3_reduce
I0906 06:52:39.127045  1655 net.cpp:110] Creating Layer inception_3a/3x3_reduce
I0906 06:52:39.127048  1655 net.cpp:476] inception_3a/3x3_reduce <- pool2/3x3_s2_pool2/3x3_s2_0_split_1
I0906 06:52:39.127056  1655 net.cpp:432] inception_3a/3x3_reduce -> inception_3a/3x3_reduce
I0906 06:52:39.127204  1655 net.cpp:155] Setting up inception_3a/3x3_reduce
I0906 06:52:39.127210  1655 net.cpp:163] Top shape: 1 96 28 28 (75264)
I0906 06:52:39.127218  1655 layer_factory.hpp:75] Creating layer inception_3a/relu_3x3_reduce
I0906 06:52:39.127221  1655 net.cpp:110] Creating Layer inception_3a/relu_3x3_reduce
I0906 06:52:39.127226  1655 net.cpp:476] inception_3a/relu_3x3_reduce <- inception_3a/3x3_reduce
I0906 06:52:39.127230  1655 net.cpp:419] inception_3a/relu_3x3_reduce -> inception_3a/3x3_reduce (in-place)
I0906 06:52:39.127235  1655 net.cpp:155] Setting up inception_3a/relu_3x3_reduce
I0906 06:52:39.127239  1655 net.cpp:163] Top shape: 1 96 28 28 (75264)
I0906 06:52:39.127243  1655 layer_factory.hpp:75] Creating layer inception_3a/3x3
I0906 06:52:39.127246  1655 net.cpp:110] Creating Layer inception_3a/3x3
I0906 06:52:39.127249  1655 net.cpp:476] inception_3a/3x3 <- inception_3a/3x3_reduce
I0906 06:52:39.127255  1655 net.cpp:432] inception_3a/3x3 -> inception_3a/3x3
I0906 06:52:39.128056  1655 net.cpp:155] Setting up inception_3a/3x3
I0906 06:52:39.128062  1655 net.cpp:163] Top shape: 1 128 28 28 (100352)
I0906 06:52:39.128067  1655 layer_factory.hpp:75] Creating layer inception_3a/relu_3x3
I0906 06:52:39.128074  1655 net.cpp:110] Creating Layer inception_3a/relu_3x3
I0906 06:52:39.128077  1655 net.cpp:476] inception_3a/relu_3x3 <- inception_3a/3x3
I0906 06:52:39.128082  1655 net.cpp:419] inception_3a/relu_3x3 -> inception_3a/3x3 (in-place)
I0906 06:52:39.128085  1655 net.cpp:155] Setting up inception_3a/relu_3x3
I0906 06:52:39.128089  1655 net.cpp:163] Top shape: 1 128 28 28 (100352)
I0906 06:52:39.128093  1655 layer_factory.hpp:75] Creating layer inception_3a/5x5_reduce
I0906 06:52:39.128098  1655 net.cpp:110] Creating Layer inception_3a/5x5_reduce
I0906 06:52:39.128100  1655 net.cpp:476] inception_3a/5x5_reduce <- pool2/3x3_s2_pool2/3x3_s2_0_split_2
I0906 06:52:39.128106  1655 net.cpp:432] inception_3a/5x5_reduce -> inception_3a/5x5_reduce
I0906 06:52:39.128142  1655 net.cpp:155] Setting up inception_3a/5x5_reduce
I0906 06:52:39.128147  1655 net.cpp:163] Top shape: 1 16 28 28 (12544)
I0906 06:52:39.128152  1655 layer_factory.hpp:75] Creating layer inception_3a/relu_5x5_reduce
I0906 06:52:39.128156  1655 net.cpp:110] Creating Layer inception_3a/relu_5x5_reduce
I0906 06:52:39.128160  1655 net.cpp:476] inception_3a/relu_5x5_reduce <- inception_3a/5x5_reduce
I0906 06:52:39.128165  1655 net.cpp:419] inception_3a/relu_5x5_reduce -> inception_3a/5x5_reduce (in-place)
I0906 06:52:39.128170  1655 net.cpp:155] Setting up inception_3a/relu_5x5_reduce
I0906 06:52:39.128175  1655 net.cpp:163] Top shape: 1 16 28 28 (12544)
I0906 06:52:39.128177  1655 layer_factory.hpp:75] Creating layer inception_3a/5x5
I0906 06:52:39.128181  1655 net.cpp:110] Creating Layer inception_3a/5x5
I0906 06:52:39.128185  1655 net.cpp:476] inception_3a/5x5 <- inception_3a/5x5_reduce
I0906 06:52:39.128190  1655 net.cpp:432] inception_3a/5x5 -> inception_3a/5x5
I0906 06:52:39.128288  1655 net.cpp:155] Setting up inception_3a/5x5
I0906 06:52:39.128294  1655 net.cpp:163] Top shape: 1 32 28 28 (25088)
I0906 06:52:39.128299  1655 layer_factory.hpp:75] Creating layer inception_3a/relu_5x5
I0906 06:52:39.128304  1655 net.cpp:110] Creating Layer inception_3a/relu_5x5
I0906 06:52:39.128306  1655 net.cpp:476] inception_3a/relu_5x5 <- inception_3a/5x5
I0906 06:52:39.128311  1655 net.cpp:419] inception_3a/relu_5x5 -> inception_3a/5x5 (in-place)
I0906 06:52:39.128316  1655 net.cpp:155] Setting up inception_3a/relu_5x5
I0906 06:52:39.128319  1655 net.cpp:163] Top shape: 1 32 28 28 (25088)
I0906 06:52:39.128322  1655 layer_factory.hpp:75] Creating layer inception_3a/pool
I0906 06:52:39.128326  1655 net.cpp:110] Creating Layer inception_3a/pool
I0906 06:52:39.128329  1655 net.cpp:476] inception_3a/pool <- pool2/3x3_s2_pool2/3x3_s2_0_split_3
I0906 06:52:39.128335  1655 net.cpp:432] inception_3a/pool -> inception_3a/pool
I0906 06:52:39.128342  1655 net.cpp:155] Setting up inception_3a/pool
I0906 06:52:39.128350  1655 net.cpp:163] Top shape: 1 192 28 28 (150528)
I0906 06:52:39.128353  1655 layer_factory.hpp:75] Creating layer inception_3a/pool_proj
I0906 06:52:39.128357  1655 net.cpp:110] Creating Layer inception_3a/pool_proj
I0906 06:52:39.128360  1655 net.cpp:476] inception_3a/pool_proj <- inception_3a/pool
I0906 06:52:39.128366  1655 net.cpp:432] inception_3a/pool_proj -> inception_3a/pool_proj
I0906 06:52:39.128424  1655 net.cpp:155] Setting up inception_3a/pool_proj
I0906 06:52:39.128430  1655 net.cpp:163] Top shape: 1 32 28 28 (25088)
I0906 06:52:39.128437  1655 layer_factory.hpp:75] Creating layer inception_3a/relu_pool_proj
I0906 06:52:39.128442  1655 net.cpp:110] Creating Layer inception_3a/relu_pool_proj
I0906 06:52:39.128444  1655 net.cpp:476] inception_3a/relu_pool_proj <- inception_3a/pool_proj
I0906 06:52:39.128448  1655 net.cpp:419] inception_3a/relu_pool_proj -> inception_3a/pool_proj (in-place)
I0906 06:52:39.128453  1655 net.cpp:155] Setting up inception_3a/relu_pool_proj
I0906 06:52:39.128456  1655 net.cpp:163] Top shape: 1 32 28 28 (25088)
I0906 06:52:39.128459  1655 layer_factory.hpp:75] Creating layer inception_3a/output
I0906 06:52:39.128465  1655 net.cpp:110] Creating Layer inception_3a/output
I0906 06:52:39.128468  1655 net.cpp:476] inception_3a/output <- inception_3a/1x1
I0906 06:52:39.128473  1655 net.cpp:476] inception_3a/output <- inception_3a/3x3
I0906 06:52:39.128475  1655 net.cpp:476] inception_3a/output <- inception_3a/5x5
I0906 06:52:39.128479  1655 net.cpp:476] inception_3a/output <- inception_3a/pool_proj
I0906 06:52:39.128484  1655 net.cpp:432] inception_3a/output -> inception_3a/output
I0906 06:52:39.128492  1655 net.cpp:155] Setting up inception_3a/output
I0906 06:52:39.128496  1655 net.cpp:163] Top shape: 1 256 28 28 (200704)
I0906 06:52:39.128499  1655 layer_factory.hpp:75] Creating layer inception_3a/output_inception_3a/output_0_split
I0906 06:52:39.128504  1655 net.cpp:110] Creating Layer inception_3a/output_inception_3a/output_0_split
I0906 06:52:39.128507  1655 net.cpp:476] inception_3a/output_inception_3a/output_0_split <- inception_3a/output
I0906 06:52:39.128514  1655 net.cpp:432] inception_3a/output_inception_3a/output_0_split -> inception_3a/output_inception_3a/output_0_split_0
I0906 06:52:39.128518  1655 net.cpp:432] inception_3a/output_inception_3a/output_0_split -> inception_3a/output_inception_3a/output_0_split_1
I0906 06:52:39.128523  1655 net.cpp:432] inception_3a/output_inception_3a/output_0_split -> inception_3a/output_inception_3a/output_0_split_2
I0906 06:52:39.128527  1655 net.cpp:432] inception_3a/output_inception_3a/output_0_split -> inception_3a/output_inception_3a/output_0_split_3
I0906 06:52:39.128532  1655 net.cpp:155] Setting up inception_3a/output_inception_3a/output_0_split
I0906 06:52:39.128536  1655 net.cpp:163] Top shape: 1 256 28 28 (200704)
I0906 06:52:39.128540  1655 net.cpp:163] Top shape: 1 256 28 28 (200704)
I0906 06:52:39.128543  1655 net.cpp:163] Top shape: 1 256 28 28 (200704)
I0906 06:52:39.128547  1655 net.cpp:163] Top shape: 1 256 28 28 (200704)
I0906 06:52:39.128551  1655 layer_factory.hpp:75] Creating layer inception_3b/1x1
I0906 06:52:39.128556  1655 net.cpp:110] Creating Layer inception_3b/1x1
I0906 06:52:39.128559  1655 net.cpp:476] inception_3b/1x1 <- inception_3a/output_inception_3a/output_0_split_0
I0906 06:52:39.128563  1655 net.cpp:432] inception_3b/1x1 -> inception_3b/1x1
I0906 06:52:39.128809  1655 net.cpp:155] Setting up inception_3b/1x1
I0906 06:52:39.128815  1655 net.cpp:163] Top shape: 1 128 28 28 (100352)
I0906 06:52:39.128821  1655 layer_factory.hpp:75] Creating layer inception_3b/relu_1x1
I0906 06:52:39.128825  1655 net.cpp:110] Creating Layer inception_3b/relu_1x1
I0906 06:52:39.128829  1655 net.cpp:476] inception_3b/relu_1x1 <- inception_3b/1x1
I0906 06:52:39.128832  1655 net.cpp:419] inception_3b/relu_1x1 -> inception_3b/1x1 (in-place)
I0906 06:52:39.128837  1655 net.cpp:155] Setting up inception_3b/relu_1x1
I0906 06:52:39.128840  1655 net.cpp:163] Top shape: 1 128 28 28 (100352)
I0906 06:52:39.128844  1655 layer_factory.hpp:75] Creating layer inception_3b/3x3_reduce
I0906 06:52:39.128854  1655 net.cpp:110] Creating Layer inception_3b/3x3_reduce
I0906 06:52:39.128857  1655 net.cpp:476] inception_3b/3x3_reduce <- inception_3a/output_inception_3a/output_0_split_1
I0906 06:52:39.128861  1655 net.cpp:432] inception_3b/3x3_reduce -> inception_3b/3x3_reduce
I0906 06:52:39.129108  1655 net.cpp:155] Setting up inception_3b/3x3_reduce
I0906 06:52:39.129114  1655 net.cpp:163] Top shape: 1 128 28 28 (100352)
I0906 06:52:39.129119  1655 layer_factory.hpp:75] Creating layer inception_3b/relu_3x3_reduce
I0906 06:52:39.129123  1655 net.cpp:110] Creating Layer inception_3b/relu_3x3_reduce
I0906 06:52:39.129127  1655 net.cpp:476] inception_3b/relu_3x3_reduce <- inception_3b/3x3_reduce
I0906 06:52:39.129132  1655 net.cpp:419] inception_3b/relu_3x3_reduce -> inception_3b/3x3_reduce (in-place)
I0906 06:52:39.129135  1655 net.cpp:155] Setting up inception_3b/relu_3x3_reduce
I0906 06:52:39.129138  1655 net.cpp:163] Top shape: 1 128 28 28 (100352)
I0906 06:52:39.129142  1655 layer_factory.hpp:75] Creating layer inception_3b/3x3
I0906 06:52:39.129148  1655 net.cpp:110] Creating Layer inception_3b/3x3
I0906 06:52:39.129150  1655 net.cpp:476] inception_3b/3x3 <- inception_3b/3x3_reduce
I0906 06:52:39.129155  1655 net.cpp:432] inception_3b/3x3 -> inception_3b/3x3
I0906 06:52:39.130779  1655 net.cpp:155] Setting up inception_3b/3x3
I0906 06:52:39.130789  1655 net.cpp:163] Top shape: 1 192 28 28 (150528)
I0906 06:52:39.130795  1655 layer_factory.hpp:75] Creating layer inception_3b/relu_3x3
I0906 06:52:39.130800  1655 net.cpp:110] Creating Layer inception_3b/relu_3x3
I0906 06:52:39.130803  1655 net.cpp:476] inception_3b/relu_3x3 <- inception_3b/3x3
I0906 06:52:39.130807  1655 net.cpp:419] inception_3b/relu_3x3 -> inception_3b/3x3 (in-place)
I0906 06:52:39.130812  1655 net.cpp:155] Setting up inception_3b/relu_3x3
I0906 06:52:39.130816  1655 net.cpp:163] Top shape: 1 192 28 28 (150528)
I0906 06:52:39.130820  1655 layer_factory.hpp:75] Creating layer inception_3b/5x5_reduce
I0906 06:52:39.130827  1655 net.cpp:110] Creating Layer inception_3b/5x5_reduce
I0906 06:52:39.130831  1655 net.cpp:476] inception_3b/5x5_reduce <- inception_3a/output_inception_3a/output_0_split_2
I0906 06:52:39.130837  1655 net.cpp:432] inception_3b/5x5_reduce -> inception_3b/5x5_reduce
I0906 06:52:39.130903  1655 net.cpp:155] Setting up inception_3b/5x5_reduce
I0906 06:52:39.130908  1655 net.cpp:163] Top shape: 1 32 28 28 (25088)
I0906 06:52:39.130913  1655 layer_factory.hpp:75] Creating layer inception_3b/relu_5x5_reduce
I0906 06:52:39.130916  1655 net.cpp:110] Creating Layer inception_3b/relu_5x5_reduce
I0906 06:52:39.130919  1655 net.cpp:476] inception_3b/relu_5x5_reduce <- inception_3b/5x5_reduce
I0906 06:52:39.130924  1655 net.cpp:419] inception_3b/relu_5x5_reduce -> inception_3b/5x5_reduce (in-place)
I0906 06:52:39.130929  1655 net.cpp:155] Setting up inception_3b/relu_5x5_reduce
I0906 06:52:39.130933  1655 net.cpp:163] Top shape: 1 32 28 28 (25088)
I0906 06:52:39.130935  1655 layer_factory.hpp:75] Creating layer inception_3b/5x5
I0906 06:52:39.130940  1655 net.cpp:110] Creating Layer inception_3b/5x5
I0906 06:52:39.130942  1655 net.cpp:476] inception_3b/5x5 <- inception_3b/5x5_reduce
I0906 06:52:39.130949  1655 net.cpp:432] inception_3b/5x5 -> inception_3b/5x5
I0906 06:52:39.131510  1655 net.cpp:155] Setting up inception_3b/5x5
I0906 06:52:39.131516  1655 net.cpp:163] Top shape: 1 96 28 28 (75264)
I0906 06:52:39.131521  1655 layer_factory.hpp:75] Creating layer inception_3b/relu_5x5
I0906 06:52:39.131525  1655 net.cpp:110] Creating Layer inception_3b/relu_5x5
I0906 06:52:39.131528  1655 net.cpp:476] inception_3b/relu_5x5 <- inception_3b/5x5
I0906 06:52:39.131532  1655 net.cpp:419] inception_3b/relu_5x5 -> inception_3b/5x5 (in-place)
I0906 06:52:39.131537  1655 net.cpp:155] Setting up inception_3b/relu_5x5
I0906 06:52:39.131541  1655 net.cpp:163] Top shape: 1 96 28 28 (75264)
I0906 06:52:39.131543  1655 layer_factory.hpp:75] Creating layer inception_3b/pool
I0906 06:52:39.131549  1655 net.cpp:110] Creating Layer inception_3b/pool
I0906 06:52:39.131561  1655 net.cpp:476] inception_3b/pool <- inception_3a/output_inception_3a/output_0_split_3
I0906 06:52:39.131567  1655 net.cpp:432] inception_3b/pool -> inception_3b/pool
I0906 06:52:39.131573  1655 net.cpp:155] Setting up inception_3b/pool
I0906 06:52:39.131579  1655 net.cpp:163] Top shape: 1 256 28 28 (200704)
I0906 06:52:39.131582  1655 layer_factory.hpp:75] Creating layer inception_3b/pool_proj
I0906 06:52:39.131587  1655 net.cpp:110] Creating Layer inception_3b/pool_proj
I0906 06:52:39.131589  1655 net.cpp:476] inception_3b/pool_proj <- inception_3b/pool
I0906 06:52:39.131595  1655 net.cpp:432] inception_3b/pool_proj -> inception_3b/pool_proj
I0906 06:52:39.131721  1655 net.cpp:155] Setting up inception_3b/pool_proj
I0906 06:52:39.131727  1655 net.cpp:163] Top shape: 1 64 28 28 (50176)
I0906 06:52:39.131732  1655 layer_factory.hpp:75] Creating layer inception_3b/relu_pool_proj
I0906 06:52:39.131736  1655 net.cpp:110] Creating Layer inception_3b/relu_pool_proj
I0906 06:52:39.131739  1655 net.cpp:476] inception_3b/relu_pool_proj <- inception_3b/pool_proj
I0906 06:52:39.131744  1655 net.cpp:419] inception_3b/relu_pool_proj -> inception_3b/pool_proj (in-place)
I0906 06:52:39.131749  1655 net.cpp:155] Setting up inception_3b/relu_pool_proj
I0906 06:52:39.131753  1655 net.cpp:163] Top shape: 1 64 28 28 (50176)
I0906 06:52:39.131757  1655 layer_factory.hpp:75] Creating layer inception_3b/output
I0906 06:52:39.131759  1655 net.cpp:110] Creating Layer inception_3b/output
I0906 06:52:39.131762  1655 net.cpp:476] inception_3b/output <- inception_3b/1x1
I0906 06:52:39.131767  1655 net.cpp:476] inception_3b/output <- inception_3b/3x3
I0906 06:52:39.131769  1655 net.cpp:476] inception_3b/output <- inception_3b/5x5
I0906 06:52:39.131772  1655 net.cpp:476] inception_3b/output <- inception_3b/pool_proj
I0906 06:52:39.131777  1655 net.cpp:432] inception_3b/output -> inception_3b/output
I0906 06:52:39.131783  1655 net.cpp:155] Setting up inception_3b/output
I0906 06:52:39.131786  1655 net.cpp:163] Top shape: 1 480 28 28 (376320)
I0906 06:52:39.131789  1655 layer_factory.hpp:75] Creating layer pool3/3x3_s2
I0906 06:52:39.131793  1655 net.cpp:110] Creating Layer pool3/3x3_s2
I0906 06:52:39.131796  1655 net.cpp:476] pool3/3x3_s2 <- inception_3b/output
I0906 06:52:39.131803  1655 net.cpp:432] pool3/3x3_s2 -> pool3/3x3_s2
I0906 06:52:39.131810  1655 net.cpp:155] Setting up pool3/3x3_s2
I0906 06:52:39.131816  1655 net.cpp:163] Top shape: 1 480 14 14 (94080)
I0906 06:52:39.131819  1655 layer_factory.hpp:75] Creating layer pool3/3x3_s2_pool3/3x3_s2_0_split
I0906 06:52:39.131824  1655 net.cpp:110] Creating Layer pool3/3x3_s2_pool3/3x3_s2_0_split
I0906 06:52:39.131827  1655 net.cpp:476] pool3/3x3_s2_pool3/3x3_s2_0_split <- pool3/3x3_s2
I0906 06:52:39.131831  1655 net.cpp:432] pool3/3x3_s2_pool3/3x3_s2_0_split -> pool3/3x3_s2_pool3/3x3_s2_0_split_0
I0906 06:52:39.131835  1655 net.cpp:432] pool3/3x3_s2_pool3/3x3_s2_0_split -> pool3/3x3_s2_pool3/3x3_s2_0_split_1
I0906 06:52:39.131840  1655 net.cpp:432] pool3/3x3_s2_pool3/3x3_s2_0_split -> pool3/3x3_s2_pool3/3x3_s2_0_split_2
I0906 06:52:39.131849  1655 net.cpp:432] pool3/3x3_s2_pool3/3x3_s2_0_split -> pool3/3x3_s2_pool3/3x3_s2_0_split_3
I0906 06:52:39.131855  1655 net.cpp:155] Setting up pool3/3x3_s2_pool3/3x3_s2_0_split
I0906 06:52:39.131858  1655 net.cpp:163] Top shape: 1 480 14 14 (94080)
I0906 06:52:39.131861  1655 net.cpp:163] Top shape: 1 480 14 14 (94080)
I0906 06:52:39.131865  1655 net.cpp:163] Top shape: 1 480 14 14 (94080)
I0906 06:52:39.131868  1655 net.cpp:163] Top shape: 1 480 14 14 (94080)
I0906 06:52:39.131871  1655 layer_factory.hpp:75] Creating layer inception_4a/1x1
I0906 06:52:39.131877  1655 net.cpp:110] Creating Layer inception_4a/1x1
I0906 06:52:39.131880  1655 net.cpp:476] inception_4a/1x1 <- pool3/3x3_s2_pool3/3x3_s2_0_split_0
I0906 06:52:39.131886  1655 net.cpp:432] inception_4a/1x1 -> inception_4a/1x1
I0906 06:52:39.132550  1655 net.cpp:155] Setting up inception_4a/1x1
I0906 06:52:39.132558  1655 net.cpp:163] Top shape: 1 192 14 14 (37632)
I0906 06:52:39.132567  1655 layer_factory.hpp:75] Creating layer inception_4a/relu_1x1
I0906 06:52:39.132572  1655 net.cpp:110] Creating Layer inception_4a/relu_1x1
I0906 06:52:39.132575  1655 net.cpp:476] inception_4a/relu_1x1 <- inception_4a/1x1
I0906 06:52:39.132580  1655 net.cpp:419] inception_4a/relu_1x1 -> inception_4a/1x1 (in-place)
I0906 06:52:39.132585  1655 net.cpp:155] Setting up inception_4a/relu_1x1
I0906 06:52:39.132587  1655 net.cpp:163] Top shape: 1 192 14 14 (37632)
I0906 06:52:39.132591  1655 layer_factory.hpp:75] Creating layer inception_4a/3x3_reduce
I0906 06:52:39.132596  1655 net.cpp:110] Creating Layer inception_4a/3x3_reduce
I0906 06:52:39.132598  1655 net.cpp:476] inception_4a/3x3_reduce <- pool3/3x3_s2_pool3/3x3_s2_0_split_1
I0906 06:52:39.132604  1655 net.cpp:432] inception_4a/3x3_reduce -> inception_4a/3x3_reduce
I0906 06:52:39.132946  1655 net.cpp:155] Setting up inception_4a/3x3_reduce
I0906 06:52:39.132953  1655 net.cpp:163] Top shape: 1 96 14 14 (18816)
I0906 06:52:39.132964  1655 layer_factory.hpp:75] Creating layer inception_4a/relu_3x3_reduce
I0906 06:52:39.132968  1655 net.cpp:110] Creating Layer inception_4a/relu_3x3_reduce
I0906 06:52:39.132972  1655 net.cpp:476] inception_4a/relu_3x3_reduce <- inception_4a/3x3_reduce
I0906 06:52:39.132977  1655 net.cpp:419] inception_4a/relu_3x3_reduce -> inception_4a/3x3_reduce (in-place)
I0906 06:52:39.132982  1655 net.cpp:155] Setting up inception_4a/relu_3x3_reduce
I0906 06:52:39.132984  1655 net.cpp:163] Top shape: 1 96 14 14 (18816)
I0906 06:52:39.132987  1655 layer_factory.hpp:75] Creating layer inception_4a/3x3
I0906 06:52:39.132992  1655 net.cpp:110] Creating Layer inception_4a/3x3
I0906 06:52:39.132994  1655 net.cpp:476] inception_4a/3x3 <- inception_4a/3x3_reduce
I0906 06:52:39.133000  1655 net.cpp:432] inception_4a/3x3 -> inception_4a/3x3
I0906 06:52:39.134315  1655 net.cpp:155] Setting up inception_4a/3x3
I0906 06:52:39.134325  1655 net.cpp:163] Top shape: 1 208 14 14 (40768)
I0906 06:52:39.134330  1655 layer_factory.hpp:75] Creating layer inception_4a/relu_3x3
I0906 06:52:39.134335  1655 net.cpp:110] Creating Layer inception_4a/relu_3x3
I0906 06:52:39.134340  1655 net.cpp:476] inception_4a/relu_3x3 <- inception_4a/3x3
I0906 06:52:39.134344  1655 net.cpp:419] inception_4a/relu_3x3 -> inception_4a/3x3 (in-place)
I0906 06:52:39.134351  1655 net.cpp:155] Setting up inception_4a/relu_3x3
I0906 06:52:39.134354  1655 net.cpp:163] Top shape: 1 208 14 14 (40768)
I0906 06:52:39.134357  1655 layer_factory.hpp:75] Creating layer inception_4a/5x5_reduce
I0906 06:52:39.134361  1655 net.cpp:110] Creating Layer inception_4a/5x5_reduce
I0906 06:52:39.134364  1655 net.cpp:476] inception_4a/5x5_reduce <- pool3/3x3_s2_pool3/3x3_s2_0_split_2
I0906 06:52:39.134371  1655 net.cpp:432] inception_4a/5x5_reduce -> inception_4a/5x5_reduce
I0906 06:52:39.134435  1655 net.cpp:155] Setting up inception_4a/5x5_reduce
I0906 06:52:39.134440  1655 net.cpp:163] Top shape: 1 16 14 14 (3136)
I0906 06:52:39.134445  1655 layer_factory.hpp:75] Creating layer inception_4a/relu_5x5_reduce
I0906 06:52:39.134449  1655 net.cpp:110] Creating Layer inception_4a/relu_5x5_reduce
I0906 06:52:39.134451  1655 net.cpp:476] inception_4a/relu_5x5_reduce <- inception_4a/5x5_reduce
I0906 06:52:39.134455  1655 net.cpp:419] inception_4a/relu_5x5_reduce -> inception_4a/5x5_reduce (in-place)
I0906 06:52:39.134464  1655 net.cpp:155] Setting up inception_4a/relu_5x5_reduce
I0906 06:52:39.134467  1655 net.cpp:163] Top shape: 1 16 14 14 (3136)
I0906 06:52:39.134469  1655 layer_factory.hpp:75] Creating layer inception_4a/5x5
I0906 06:52:39.134474  1655 net.cpp:110] Creating Layer inception_4a/5x5
I0906 06:52:39.134477  1655 net.cpp:476] inception_4a/5x5 <- inception_4a/5x5_reduce
I0906 06:52:39.134481  1655 net.cpp:432] inception_4a/5x5 -> inception_4a/5x5
I0906 06:52:39.134629  1655 net.cpp:155] Setting up inception_4a/5x5
I0906 06:52:39.134634  1655 net.cpp:163] Top shape: 1 48 14 14 (9408)
I0906 06:52:39.134639  1655 layer_factory.hpp:75] Creating layer inception_4a/relu_5x5
I0906 06:52:39.134647  1655 net.cpp:110] Creating Layer inception_4a/relu_5x5
I0906 06:52:39.134651  1655 net.cpp:476] inception_4a/relu_5x5 <- inception_4a/5x5
I0906 06:52:39.134656  1655 net.cpp:419] inception_4a/relu_5x5 -> inception_4a/5x5 (in-place)
I0906 06:52:39.134661  1655 net.cpp:155] Setting up inception_4a/relu_5x5
I0906 06:52:39.134665  1655 net.cpp:163] Top shape: 1 48 14 14 (9408)
I0906 06:52:39.134668  1655 layer_factory.hpp:75] Creating layer inception_4a/pool
I0906 06:52:39.134672  1655 net.cpp:110] Creating Layer inception_4a/pool
I0906 06:52:39.134675  1655 net.cpp:476] inception_4a/pool <- pool3/3x3_s2_pool3/3x3_s2_0_split_3
I0906 06:52:39.134680  1655 net.cpp:432] inception_4a/pool -> inception_4a/pool
I0906 06:52:39.134686  1655 net.cpp:155] Setting up inception_4a/pool
I0906 06:52:39.134690  1655 net.cpp:163] Top shape: 1 480 14 14 (94080)
I0906 06:52:39.134693  1655 layer_factory.hpp:75] Creating layer inception_4a/pool_proj
I0906 06:52:39.134699  1655 net.cpp:110] Creating Layer inception_4a/pool_proj
I0906 06:52:39.134702  1655 net.cpp:476] inception_4a/pool_proj <- inception_4a/pool
I0906 06:52:39.134708  1655 net.cpp:432] inception_4a/pool_proj -> inception_4a/pool_proj
I0906 06:52:39.134938  1655 net.cpp:155] Setting up inception_4a/pool_proj
I0906 06:52:39.134944  1655 net.cpp:163] Top shape: 1 64 14 14 (12544)
I0906 06:52:39.134949  1655 layer_factory.hpp:75] Creating layer inception_4a/relu_pool_proj
I0906 06:52:39.134953  1655 net.cpp:110] Creating Layer inception_4a/relu_pool_proj
I0906 06:52:39.134956  1655 net.cpp:476] inception_4a/relu_pool_proj <- inception_4a/pool_proj
I0906 06:52:39.134959  1655 net.cpp:419] inception_4a/relu_pool_proj -> inception_4a/pool_proj (in-place)
I0906 06:52:39.134964  1655 net.cpp:155] Setting up inception_4a/relu_pool_proj
I0906 06:52:39.134968  1655 net.cpp:163] Top shape: 1 64 14 14 (12544)
I0906 06:52:39.134971  1655 layer_factory.hpp:75] Creating layer inception_4a/output
I0906 06:52:39.134976  1655 net.cpp:110] Creating Layer inception_4a/output
I0906 06:52:39.134979  1655 net.cpp:476] inception_4a/output <- inception_4a/1x1
I0906 06:52:39.134984  1655 net.cpp:476] inception_4a/output <- inception_4a/3x3
I0906 06:52:39.134986  1655 net.cpp:476] inception_4a/output <- inception_4a/5x5
I0906 06:52:39.134989  1655 net.cpp:476] inception_4a/output <- inception_4a/pool_proj
I0906 06:52:39.134994  1655 net.cpp:432] inception_4a/output -> inception_4a/output
I0906 06:52:39.134999  1655 net.cpp:155] Setting up inception_4a/output
I0906 06:52:39.135004  1655 net.cpp:163] Top shape: 1 512 14 14 (100352)
I0906 06:52:39.135006  1655 layer_factory.hpp:75] Creating layer inception_4a/output_inception_4a/output_0_split
I0906 06:52:39.135010  1655 net.cpp:110] Creating Layer inception_4a/output_inception_4a/output_0_split
I0906 06:52:39.135013  1655 net.cpp:476] inception_4a/output_inception_4a/output_0_split <- inception_4a/output
I0906 06:52:39.135020  1655 net.cpp:432] inception_4a/output_inception_4a/output_0_split -> inception_4a/output_inception_4a/output_0_split_0
I0906 06:52:39.135026  1655 net.cpp:432] inception_4a/output_inception_4a/output_0_split -> inception_4a/output_inception_4a/output_0_split_1
I0906 06:52:39.135031  1655 net.cpp:432] inception_4a/output_inception_4a/output_0_split -> inception_4a/output_inception_4a/output_0_split_2
I0906 06:52:39.135036  1655 net.cpp:432] inception_4a/output_inception_4a/output_0_split -> inception_4a/output_inception_4a/output_0_split_3
I0906 06:52:39.135041  1655 net.cpp:155] Setting up inception_4a/output_inception_4a/output_0_split
I0906 06:52:39.135046  1655 net.cpp:163] Top shape: 1 512 14 14 (100352)
I0906 06:52:39.135049  1655 net.cpp:163] Top shape: 1 512 14 14 (100352)
I0906 06:52:39.135052  1655 net.cpp:163] Top shape: 1 512 14 14 (100352)
I0906 06:52:39.135056  1655 net.cpp:163] Top shape: 1 512 14 14 (100352)
I0906 06:52:39.135058  1655 layer_factory.hpp:75] Creating layer inception_4b/1x1
I0906 06:52:39.135064  1655 net.cpp:110] Creating Layer inception_4b/1x1
I0906 06:52:39.135067  1655 net.cpp:476] inception_4b/1x1 <- inception_4a/output_inception_4a/output_0_split_0
I0906 06:52:39.135078  1655 net.cpp:432] inception_4b/1x1 -> inception_4b/1x1
I0906 06:52:39.135670  1655 net.cpp:155] Setting up inception_4b/1x1
I0906 06:52:39.135676  1655 net.cpp:163] Top shape: 1 160 14 14 (31360)
I0906 06:52:39.135681  1655 layer_factory.hpp:75] Creating layer inception_4b/relu_1x1
I0906 06:52:39.135686  1655 net.cpp:110] Creating Layer inception_4b/relu_1x1
I0906 06:52:39.135689  1655 net.cpp:476] inception_4b/relu_1x1 <- inception_4b/1x1
I0906 06:52:39.135694  1655 net.cpp:419] inception_4b/relu_1x1 -> inception_4b/1x1 (in-place)
I0906 06:52:39.135697  1655 net.cpp:155] Setting up inception_4b/relu_1x1
I0906 06:52:39.135701  1655 net.cpp:163] Top shape: 1 160 14 14 (31360)
I0906 06:52:39.135704  1655 layer_factory.hpp:75] Creating layer inception_4b/3x3_reduce
I0906 06:52:39.135710  1655 net.cpp:110] Creating Layer inception_4b/3x3_reduce
I0906 06:52:39.135713  1655 net.cpp:476] inception_4b/3x3_reduce <- inception_4a/output_inception_4a/output_0_split_1
I0906 06:52:39.135720  1655 net.cpp:432] inception_4b/3x3_reduce -> inception_4b/3x3_reduce
I0906 06:52:39.136142  1655 net.cpp:155] Setting up inception_4b/3x3_reduce
I0906 06:52:39.136153  1655 net.cpp:163] Top shape: 1 112 14 14 (21952)
I0906 06:52:39.136162  1655 layer_factory.hpp:75] Creating layer inception_4b/relu_3x3_reduce
I0906 06:52:39.136173  1655 net.cpp:110] Creating Layer inception_4b/relu_3x3_reduce
I0906 06:52:39.136179  1655 net.cpp:476] inception_4b/relu_3x3_reduce <- inception_4b/3x3_reduce
I0906 06:52:39.136183  1655 net.cpp:419] inception_4b/relu_3x3_reduce -> inception_4b/3x3_reduce (in-place)
I0906 06:52:39.136188  1655 net.cpp:155] Setting up inception_4b/relu_3x3_reduce
I0906 06:52:39.136193  1655 net.cpp:163] Top shape: 1 112 14 14 (21952)
I0906 06:52:39.136196  1655 layer_factory.hpp:75] Creating layer inception_4b/3x3
I0906 06:52:39.136203  1655 net.cpp:110] Creating Layer inception_4b/3x3
I0906 06:52:39.136205  1655 net.cpp:476] inception_4b/3x3 <- inception_4b/3x3_reduce
I0906 06:52:39.136210  1655 net.cpp:432] inception_4b/3x3 -> inception_4b/3x3
I0906 06:52:39.137847  1655 net.cpp:155] Setting up inception_4b/3x3
I0906 06:52:39.137856  1655 net.cpp:163] Top shape: 1 224 14 14 (43904)
I0906 06:52:39.137861  1655 layer_factory.hpp:75] Creating layer inception_4b/relu_3x3
I0906 06:52:39.137866  1655 net.cpp:110] Creating Layer inception_4b/relu_3x3
I0906 06:52:39.137869  1655 net.cpp:476] inception_4b/relu_3x3 <- inception_4b/3x3
I0906 06:52:39.137873  1655 net.cpp:419] inception_4b/relu_3x3 -> inception_4b/3x3 (in-place)
I0906 06:52:39.137877  1655 net.cpp:155] Setting up inception_4b/relu_3x3
I0906 06:52:39.137881  1655 net.cpp:163] Top shape: 1 224 14 14 (43904)
I0906 06:52:39.137884  1655 layer_factory.hpp:75] Creating layer inception_4b/5x5_reduce
I0906 06:52:39.137890  1655 net.cpp:110] Creating Layer inception_4b/5x5_reduce
I0906 06:52:39.137893  1655 net.cpp:476] inception_4b/5x5_reduce <- inception_4a/output_inception_4a/output_0_split_2
I0906 06:52:39.137899  1655 net.cpp:432] inception_4b/5x5_reduce -> inception_4b/5x5_reduce
I0906 06:52:39.137995  1655 net.cpp:155] Setting up inception_4b/5x5_reduce
I0906 06:52:39.138000  1655 net.cpp:163] Top shape: 1 24 14 14 (4704)
I0906 06:52:39.138005  1655 layer_factory.hpp:75] Creating layer inception_4b/relu_5x5_reduce
I0906 06:52:39.138015  1655 net.cpp:110] Creating Layer inception_4b/relu_5x5_reduce
I0906 06:52:39.138020  1655 net.cpp:476] inception_4b/relu_5x5_reduce <- inception_4b/5x5_reduce
I0906 06:52:39.138023  1655 net.cpp:419] inception_4b/relu_5x5_reduce -> inception_4b/5x5_reduce (in-place)
I0906 06:52:39.138027  1655 net.cpp:155] Setting up inception_4b/relu_5x5_reduce
I0906 06:52:39.138031  1655 net.cpp:163] Top shape: 1 24 14 14 (4704)
I0906 06:52:39.138034  1655 layer_factory.hpp:75] Creating layer inception_4b/5x5
I0906 06:52:39.138039  1655 net.cpp:110] Creating Layer inception_4b/5x5
I0906 06:52:39.138042  1655 net.cpp:476] inception_4b/5x5 <- inception_4b/5x5_reduce
I0906 06:52:39.138052  1655 net.cpp:432] inception_4b/5x5 -> inception_4b/5x5
I0906 06:52:39.138337  1655 net.cpp:155] Setting up inception_4b/5x5
I0906 06:52:39.138345  1655 net.cpp:163] Top shape: 1 64 14 14 (12544)
I0906 06:52:39.138350  1655 layer_factory.hpp:75] Creating layer inception_4b/relu_5x5
I0906 06:52:39.138353  1655 net.cpp:110] Creating Layer inception_4b/relu_5x5
I0906 06:52:39.138356  1655 net.cpp:476] inception_4b/relu_5x5 <- inception_4b/5x5
I0906 06:52:39.138361  1655 net.cpp:419] inception_4b/relu_5x5 -> inception_4b/5x5 (in-place)
I0906 06:52:39.138366  1655 net.cpp:155] Setting up inception_4b/relu_5x5
I0906 06:52:39.138370  1655 net.cpp:163] Top shape: 1 64 14 14 (12544)
I0906 06:52:39.138373  1655 layer_factory.hpp:75] Creating layer inception_4b/pool
I0906 06:52:39.138377  1655 net.cpp:110] Creating Layer inception_4b/pool
I0906 06:52:39.138381  1655 net.cpp:476] inception_4b/pool <- inception_4a/output_inception_4a/output_0_split_3
I0906 06:52:39.138386  1655 net.cpp:432] inception_4b/pool -> inception_4b/pool
I0906 06:52:39.138391  1655 net.cpp:155] Setting up inception_4b/pool
I0906 06:52:39.138396  1655 net.cpp:163] Top shape: 1 512 14 14 (100352)
I0906 06:52:39.138398  1655 layer_factory.hpp:75] Creating layer inception_4b/pool_proj
I0906 06:52:39.138404  1655 net.cpp:110] Creating Layer inception_4b/pool_proj
I0906 06:52:39.138407  1655 net.cpp:476] inception_4b/pool_proj <- inception_4b/pool
I0906 06:52:39.138413  1655 net.cpp:432] inception_4b/pool_proj -> inception_4b/pool_proj
I0906 06:52:39.138658  1655 net.cpp:155] Setting up inception_4b/pool_proj
I0906 06:52:39.138664  1655 net.cpp:163] Top shape: 1 64 14 14 (12544)
I0906 06:52:39.138669  1655 layer_factory.hpp:75] Creating layer inception_4b/relu_pool_proj
I0906 06:52:39.138675  1655 net.cpp:110] Creating Layer inception_4b/relu_pool_proj
I0906 06:52:39.138679  1655 net.cpp:476] inception_4b/relu_pool_proj <- inception_4b/pool_proj
I0906 06:52:39.138682  1655 net.cpp:419] inception_4b/relu_pool_proj -> inception_4b/pool_proj (in-place)
I0906 06:52:39.138686  1655 net.cpp:155] Setting up inception_4b/relu_pool_proj
I0906 06:52:39.138690  1655 net.cpp:163] Top shape: 1 64 14 14 (12544)
I0906 06:52:39.138694  1655 layer_factory.hpp:75] Creating layer inception_4b/output
I0906 06:52:39.138700  1655 net.cpp:110] Creating Layer inception_4b/output
I0906 06:52:39.138703  1655 net.cpp:476] inception_4b/output <- inception_4b/1x1
I0906 06:52:39.138706  1655 net.cpp:476] inception_4b/output <- inception_4b/3x3
I0906 06:52:39.138710  1655 net.cpp:476] inception_4b/output <- inception_4b/5x5
I0906 06:52:39.138713  1655 net.cpp:476] inception_4b/output <- inception_4b/pool_proj
I0906 06:52:39.138717  1655 net.cpp:432] inception_4b/output -> inception_4b/output
I0906 06:52:39.138722  1655 net.cpp:155] Setting up inception_4b/output
I0906 06:52:39.138726  1655 net.cpp:163] Top shape: 1 512 14 14 (100352)
I0906 06:52:39.138730  1655 layer_factory.hpp:75] Creating layer inception_4b/output_inception_4b/output_0_split
I0906 06:52:39.138733  1655 net.cpp:110] Creating Layer inception_4b/output_inception_4b/output_0_split
I0906 06:52:39.138736  1655 net.cpp:476] inception_4b/output_inception_4b/output_0_split <- inception_4b/output
I0906 06:52:39.138742  1655 net.cpp:432] inception_4b/output_inception_4b/output_0_split -> inception_4b/output_inception_4b/output_0_split_0
I0906 06:52:39.138747  1655 net.cpp:432] inception_4b/output_inception_4b/output_0_split -> inception_4b/output_inception_4b/output_0_split_1
I0906 06:52:39.138752  1655 net.cpp:432] inception_4b/output_inception_4b/output_0_split -> inception_4b/output_inception_4b/output_0_split_2
I0906 06:52:39.138757  1655 net.cpp:432] inception_4b/output_inception_4b/output_0_split -> inception_4b/output_inception_4b/output_0_split_3
I0906 06:52:39.138762  1655 net.cpp:155] Setting up inception_4b/output_inception_4b/output_0_split
I0906 06:52:39.138767  1655 net.cpp:163] Top shape: 1 512 14 14 (100352)
I0906 06:52:39.138769  1655 net.cpp:163] Top shape: 1 512 14 14 (100352)
I0906 06:52:39.138777  1655 net.cpp:163] Top shape: 1 512 14 14 (100352)
I0906 06:52:39.138780  1655 net.cpp:163] Top shape: 1 512 14 14 (100352)
I0906 06:52:39.138783  1655 layer_factory.hpp:75] Creating layer inception_4c/1x1
I0906 06:52:39.138789  1655 net.cpp:110] Creating Layer inception_4c/1x1
I0906 06:52:39.138792  1655 net.cpp:476] inception_4c/1x1 <- inception_4b/output_inception_4b/output_0_split_0
I0906 06:52:39.138797  1655 net.cpp:432] inception_4c/1x1 -> inception_4c/1x1
I0906 06:52:39.139273  1655 net.cpp:155] Setting up inception_4c/1x1
I0906 06:52:39.139281  1655 net.cpp:163] Top shape: 1 128 14 14 (25088)
I0906 06:52:39.139286  1655 layer_factory.hpp:75] Creating layer inception_4c/relu_1x1
I0906 06:52:39.139289  1655 net.cpp:110] Creating Layer inception_4c/relu_1x1
I0906 06:52:39.139292  1655 net.cpp:476] inception_4c/relu_1x1 <- inception_4c/1x1
I0906 06:52:39.139297  1655 net.cpp:419] inception_4c/relu_1x1 -> inception_4c/1x1 (in-place)
I0906 06:52:39.139302  1655 net.cpp:155] Setting up inception_4c/relu_1x1
I0906 06:52:39.139304  1655 net.cpp:163] Top shape: 1 128 14 14 (25088)
I0906 06:52:39.139307  1655 layer_factory.hpp:75] Creating layer inception_4c/3x3_reduce
I0906 06:52:39.139313  1655 net.cpp:110] Creating Layer inception_4c/3x3_reduce
I0906 06:52:39.139317  1655 net.cpp:476] inception_4c/3x3_reduce <- inception_4b/output_inception_4b/output_0_split_1
I0906 06:52:39.139322  1655 net.cpp:432] inception_4c/3x3_reduce -> inception_4c/3x3_reduce
I0906 06:52:39.139801  1655 net.cpp:155] Setting up inception_4c/3x3_reduce
I0906 06:52:39.139808  1655 net.cpp:163] Top shape: 1 128 14 14 (25088)
I0906 06:52:39.139813  1655 layer_factory.hpp:75] Creating layer inception_4c/relu_3x3_reduce
I0906 06:52:39.139819  1655 net.cpp:110] Creating Layer inception_4c/relu_3x3_reduce
I0906 06:52:39.139822  1655 net.cpp:476] inception_4c/relu_3x3_reduce <- inception_4c/3x3_reduce
I0906 06:52:39.139827  1655 net.cpp:419] inception_4c/relu_3x3_reduce -> inception_4c/3x3_reduce (in-place)
I0906 06:52:39.139830  1655 net.cpp:155] Setting up inception_4c/relu_3x3_reduce
I0906 06:52:39.139834  1655 net.cpp:163] Top shape: 1 128 14 14 (25088)
I0906 06:52:39.139837  1655 layer_factory.hpp:75] Creating layer inception_4c/3x3
I0906 06:52:39.139845  1655 net.cpp:110] Creating Layer inception_4c/3x3
I0906 06:52:39.139848  1655 net.cpp:476] inception_4c/3x3 <- inception_4c/3x3_reduce
I0906 06:52:39.139853  1655 net.cpp:432] inception_4c/3x3 -> inception_4c/3x3
I0906 06:52:39.141983  1655 net.cpp:155] Setting up inception_4c/3x3
I0906 06:52:39.141991  1655 net.cpp:163] Top shape: 1 256 14 14 (50176)
I0906 06:52:39.141996  1655 layer_factory.hpp:75] Creating layer inception_4c/relu_3x3
I0906 06:52:39.142000  1655 net.cpp:110] Creating Layer inception_4c/relu_3x3
I0906 06:52:39.142004  1655 net.cpp:476] inception_4c/relu_3x3 <- inception_4c/3x3
I0906 06:52:39.142009  1655 net.cpp:419] inception_4c/relu_3x3 -> inception_4c/3x3 (in-place)
I0906 06:52:39.142012  1655 net.cpp:155] Setting up inception_4c/relu_3x3
I0906 06:52:39.142016  1655 net.cpp:163] Top shape: 1 256 14 14 (50176)
I0906 06:52:39.142019  1655 layer_factory.hpp:75] Creating layer inception_4c/5x5_reduce
I0906 06:52:39.142025  1655 net.cpp:110] Creating Layer inception_4c/5x5_reduce
I0906 06:52:39.142029  1655 net.cpp:476] inception_4c/5x5_reduce <- inception_4b/output_inception_4b/output_0_split_2
I0906 06:52:39.142034  1655 net.cpp:432] inception_4c/5x5_reduce -> inception_4c/5x5_reduce
I0906 06:52:39.142132  1655 net.cpp:155] Setting up inception_4c/5x5_reduce
I0906 06:52:39.142138  1655 net.cpp:163] Top shape: 1 24 14 14 (4704)
I0906 06:52:39.142143  1655 layer_factory.hpp:75] Creating layer inception_4c/relu_5x5_reduce
I0906 06:52:39.142148  1655 net.cpp:110] Creating Layer inception_4c/relu_5x5_reduce
I0906 06:52:39.142153  1655 net.cpp:476] inception_4c/relu_5x5_reduce <- inception_4c/5x5_reduce
I0906 06:52:39.142156  1655 net.cpp:419] inception_4c/relu_5x5_reduce -> inception_4c/5x5_reduce (in-place)
I0906 06:52:39.142160  1655 net.cpp:155] Setting up inception_4c/relu_5x5_reduce
I0906 06:52:39.142168  1655 net.cpp:163] Top shape: 1 24 14 14 (4704)
I0906 06:52:39.142171  1655 layer_factory.hpp:75] Creating layer inception_4c/5x5
I0906 06:52:39.142175  1655 net.cpp:110] Creating Layer inception_4c/5x5
I0906 06:52:39.142179  1655 net.cpp:476] inception_4c/5x5 <- inception_4c/5x5_reduce
I0906 06:52:39.142184  1655 net.cpp:432] inception_4c/5x5 -> inception_4c/5x5
I0906 06:52:39.142472  1655 net.cpp:155] Setting up inception_4c/5x5
I0906 06:52:39.142478  1655 net.cpp:163] Top shape: 1 64 14 14 (12544)
I0906 06:52:39.142483  1655 layer_factory.hpp:75] Creating layer inception_4c/relu_5x5
I0906 06:52:39.142488  1655 net.cpp:110] Creating Layer inception_4c/relu_5x5
I0906 06:52:39.142490  1655 net.cpp:476] inception_4c/relu_5x5 <- inception_4c/5x5
I0906 06:52:39.142496  1655 net.cpp:419] inception_4c/relu_5x5 -> inception_4c/5x5 (in-place)
I0906 06:52:39.142503  1655 net.cpp:155] Setting up inception_4c/relu_5x5
I0906 06:52:39.142505  1655 net.cpp:163] Top shape: 1 64 14 14 (12544)
I0906 06:52:39.142508  1655 layer_factory.hpp:75] Creating layer inception_4c/pool
I0906 06:52:39.142513  1655 net.cpp:110] Creating Layer inception_4c/pool
I0906 06:52:39.142516  1655 net.cpp:476] inception_4c/pool <- inception_4b/output_inception_4b/output_0_split_3
I0906 06:52:39.142520  1655 net.cpp:432] inception_4c/pool -> inception_4c/pool
I0906 06:52:39.142526  1655 net.cpp:155] Setting up inception_4c/pool
I0906 06:52:39.142530  1655 net.cpp:163] Top shape: 1 512 14 14 (100352)
I0906 06:52:39.142534  1655 layer_factory.hpp:75] Creating layer inception_4c/pool_proj
I0906 06:52:39.142539  1655 net.cpp:110] Creating Layer inception_4c/pool_proj
I0906 06:52:39.142542  1655 net.cpp:476] inception_4c/pool_proj <- inception_4c/pool
I0906 06:52:39.142549  1655 net.cpp:432] inception_4c/pool_proj -> inception_4c/pool_proj
I0906 06:52:39.142791  1655 net.cpp:155] Setting up inception_4c/pool_proj
I0906 06:52:39.142798  1655 net.cpp:163] Top shape: 1 64 14 14 (12544)
I0906 06:52:39.142812  1655 layer_factory.hpp:75] Creating layer inception_4c/relu_pool_proj
I0906 06:52:39.142817  1655 net.cpp:110] Creating Layer inception_4c/relu_pool_proj
I0906 06:52:39.142820  1655 net.cpp:476] inception_4c/relu_pool_proj <- inception_4c/pool_proj
I0906 06:52:39.142824  1655 net.cpp:419] inception_4c/relu_pool_proj -> inception_4c/pool_proj (in-place)
I0906 06:52:39.142829  1655 net.cpp:155] Setting up inception_4c/relu_pool_proj
I0906 06:52:39.142833  1655 net.cpp:163] Top shape: 1 64 14 14 (12544)
I0906 06:52:39.142837  1655 layer_factory.hpp:75] Creating layer inception_4c/output
I0906 06:52:39.142840  1655 net.cpp:110] Creating Layer inception_4c/output
I0906 06:52:39.142845  1655 net.cpp:476] inception_4c/output <- inception_4c/1x1
I0906 06:52:39.142849  1655 net.cpp:476] inception_4c/output <- inception_4c/3x3
I0906 06:52:39.142853  1655 net.cpp:476] inception_4c/output <- inception_4c/5x5
I0906 06:52:39.142855  1655 net.cpp:476] inception_4c/output <- inception_4c/pool_proj
I0906 06:52:39.142859  1655 net.cpp:432] inception_4c/output -> inception_4c/output
I0906 06:52:39.142865  1655 net.cpp:155] Setting up inception_4c/output
I0906 06:52:39.142869  1655 net.cpp:163] Top shape: 1 512 14 14 (100352)
I0906 06:52:39.142873  1655 layer_factory.hpp:75] Creating layer inception_4c/output_inception_4c/output_0_split
I0906 06:52:39.142876  1655 net.cpp:110] Creating Layer inception_4c/output_inception_4c/output_0_split
I0906 06:52:39.142879  1655 net.cpp:476] inception_4c/output_inception_4c/output_0_split <- inception_4c/output
I0906 06:52:39.142884  1655 net.cpp:432] inception_4c/output_inception_4c/output_0_split -> inception_4c/output_inception_4c/output_0_split_0
I0906 06:52:39.142890  1655 net.cpp:432] inception_4c/output_inception_4c/output_0_split -> inception_4c/output_inception_4c/output_0_split_1
I0906 06:52:39.142895  1655 net.cpp:432] inception_4c/output_inception_4c/output_0_split -> inception_4c/output_inception_4c/output_0_split_2
I0906 06:52:39.142900  1655 net.cpp:432] inception_4c/output_inception_4c/output_0_split -> inception_4c/output_inception_4c/output_0_split_3
I0906 06:52:39.142910  1655 net.cpp:155] Setting up inception_4c/output_inception_4c/output_0_split
I0906 06:52:39.142913  1655 net.cpp:163] Top shape: 1 512 14 14 (100352)
I0906 06:52:39.142917  1655 net.cpp:163] Top shape: 1 512 14 14 (100352)
I0906 06:52:39.142921  1655 net.cpp:163] Top shape: 1 512 14 14 (100352)
I0906 06:52:39.142925  1655 net.cpp:163] Top shape: 1 512 14 14 (100352)
I0906 06:52:39.142927  1655 layer_factory.hpp:75] Creating layer inception_4d/1x1
I0906 06:52:39.142933  1655 net.cpp:110] Creating Layer inception_4d/1x1
I0906 06:52:39.142936  1655 net.cpp:476] inception_4d/1x1 <- inception_4c/output_inception_4c/output_0_split_0
I0906 06:52:39.142941  1655 net.cpp:432] inception_4d/1x1 -> inception_4d/1x1
I0906 06:52:39.143369  1655 net.cpp:155] Setting up inception_4d/1x1
I0906 06:52:39.143380  1655 net.cpp:163] Top shape: 1 112 14 14 (21952)
I0906 06:52:39.143385  1655 layer_factory.hpp:75] Creating layer inception_4d/relu_1x1
I0906 06:52:39.143390  1655 net.cpp:110] Creating Layer inception_4d/relu_1x1
I0906 06:52:39.143393  1655 net.cpp:476] inception_4d/relu_1x1 <- inception_4d/1x1
I0906 06:52:39.143399  1655 net.cpp:419] inception_4d/relu_1x1 -> inception_4d/1x1 (in-place)
I0906 06:52:39.143403  1655 net.cpp:155] Setting up inception_4d/relu_1x1
I0906 06:52:39.143406  1655 net.cpp:163] Top shape: 1 112 14 14 (21952)
I0906 06:52:39.143409  1655 layer_factory.hpp:75] Creating layer inception_4d/3x3_reduce
I0906 06:52:39.143414  1655 net.cpp:110] Creating Layer inception_4d/3x3_reduce
I0906 06:52:39.143417  1655 net.cpp:476] inception_4d/3x3_reduce <- inception_4c/output_inception_4c/output_0_split_1
I0906 06:52:39.143424  1655 net.cpp:432] inception_4d/3x3_reduce -> inception_4d/3x3_reduce
I0906 06:52:39.143961  1655 net.cpp:155] Setting up inception_4d/3x3_reduce
I0906 06:52:39.143968  1655 net.cpp:163] Top shape: 1 144 14 14 (28224)
I0906 06:52:39.143973  1655 layer_factory.hpp:75] Creating layer inception_4d/relu_3x3_reduce
I0906 06:52:39.143977  1655 net.cpp:110] Creating Layer inception_4d/relu_3x3_reduce
I0906 06:52:39.143980  1655 net.cpp:476] inception_4d/relu_3x3_reduce <- inception_4d/3x3_reduce
I0906 06:52:39.143987  1655 net.cpp:419] inception_4d/relu_3x3_reduce -> inception_4d/3x3_reduce (in-place)
I0906 06:52:39.143992  1655 net.cpp:155] Setting up inception_4d/relu_3x3_reduce
I0906 06:52:39.143996  1655 net.cpp:163] Top shape: 1 144 14 14 (28224)
I0906 06:52:39.144000  1655 layer_factory.hpp:75] Creating layer inception_4d/3x3
I0906 06:52:39.144006  1655 net.cpp:110] Creating Layer inception_4d/3x3
I0906 06:52:39.144008  1655 net.cpp:476] inception_4d/3x3 <- inception_4d/3x3_reduce
I0906 06:52:39.144012  1655 net.cpp:432] inception_4d/3x3 -> inception_4d/3x3
I0906 06:52:39.146702  1655 net.cpp:155] Setting up inception_4d/3x3
I0906 06:52:39.146710  1655 net.cpp:163] Top shape: 1 288 14 14 (56448)
I0906 06:52:39.146715  1655 layer_factory.hpp:75] Creating layer inception_4d/relu_3x3
I0906 06:52:39.146720  1655 net.cpp:110] Creating Layer inception_4d/relu_3x3
I0906 06:52:39.146724  1655 net.cpp:476] inception_4d/relu_3x3 <- inception_4d/3x3
I0906 06:52:39.146728  1655 net.cpp:419] inception_4d/relu_3x3 -> inception_4d/3x3 (in-place)
I0906 06:52:39.146733  1655 net.cpp:155] Setting up inception_4d/relu_3x3
I0906 06:52:39.146736  1655 net.cpp:163] Top shape: 1 288 14 14 (56448)
I0906 06:52:39.146739  1655 layer_factory.hpp:75] Creating layer inception_4d/5x5_reduce
I0906 06:52:39.146745  1655 net.cpp:110] Creating Layer inception_4d/5x5_reduce
I0906 06:52:39.146749  1655 net.cpp:476] inception_4d/5x5_reduce <- inception_4c/output_inception_4c/output_0_split_2
I0906 06:52:39.146754  1655 net.cpp:432] inception_4d/5x5_reduce -> inception_4d/5x5_reduce
I0906 06:52:39.146878  1655 net.cpp:155] Setting up inception_4d/5x5_reduce
I0906 06:52:39.146883  1655 net.cpp:163] Top shape: 1 32 14 14 (6272)
I0906 06:52:39.146888  1655 layer_factory.hpp:75] Creating layer inception_4d/relu_5x5_reduce
I0906 06:52:39.146891  1655 net.cpp:110] Creating Layer inception_4d/relu_5x5_reduce
I0906 06:52:39.146898  1655 net.cpp:476] inception_4d/relu_5x5_reduce <- inception_4d/5x5_reduce
I0906 06:52:39.146904  1655 net.cpp:419] inception_4d/relu_5x5_reduce -> inception_4d/5x5_reduce (in-place)
I0906 06:52:39.146909  1655 net.cpp:155] Setting up inception_4d/relu_5x5_reduce
I0906 06:52:39.146914  1655 net.cpp:163] Top shape: 1 32 14 14 (6272)
I0906 06:52:39.146916  1655 layer_factory.hpp:75] Creating layer inception_4d/5x5
I0906 06:52:39.146920  1655 net.cpp:110] Creating Layer inception_4d/5x5
I0906 06:52:39.146924  1655 net.cpp:476] inception_4d/5x5 <- inception_4d/5x5_reduce
I0906 06:52:39.146929  1655 net.cpp:432] inception_4d/5x5 -> inception_4d/5x5
I0906 06:52:39.147305  1655 net.cpp:155] Setting up inception_4d/5x5
I0906 06:52:39.147311  1655 net.cpp:163] Top shape: 1 64 14 14 (12544)
I0906 06:52:39.147317  1655 layer_factory.hpp:75] Creating layer inception_4d/relu_5x5
I0906 06:52:39.147321  1655 net.cpp:110] Creating Layer inception_4d/relu_5x5
I0906 06:52:39.147325  1655 net.cpp:476] inception_4d/relu_5x5 <- inception_4d/5x5
I0906 06:52:39.147330  1655 net.cpp:419] inception_4d/relu_5x5 -> inception_4d/5x5 (in-place)
I0906 06:52:39.147336  1655 net.cpp:155] Setting up inception_4d/relu_5x5
I0906 06:52:39.147338  1655 net.cpp:163] Top shape: 1 64 14 14 (12544)
I0906 06:52:39.147341  1655 layer_factory.hpp:75] Creating layer inception_4d/pool
I0906 06:52:39.147346  1655 net.cpp:110] Creating Layer inception_4d/pool
I0906 06:52:39.147349  1655 net.cpp:476] inception_4d/pool <- inception_4c/output_inception_4c/output_0_split_3
I0906 06:52:39.147353  1655 net.cpp:432] inception_4d/pool -> inception_4d/pool
I0906 06:52:39.147359  1655 net.cpp:155] Setting up inception_4d/pool
I0906 06:52:39.147363  1655 net.cpp:163] Top shape: 1 512 14 14 (100352)
I0906 06:52:39.147367  1655 layer_factory.hpp:75] Creating layer inception_4d/pool_proj
I0906 06:52:39.147372  1655 net.cpp:110] Creating Layer inception_4d/pool_proj
I0906 06:52:39.147377  1655 net.cpp:476] inception_4d/pool_proj <- inception_4d/pool
I0906 06:52:39.147382  1655 net.cpp:432] inception_4d/pool_proj -> inception_4d/pool_proj
I0906 06:52:39.147626  1655 net.cpp:155] Setting up inception_4d/pool_proj
I0906 06:52:39.147634  1655 net.cpp:163] Top shape: 1 64 14 14 (12544)
I0906 06:52:39.147639  1655 layer_factory.hpp:75] Creating layer inception_4d/relu_pool_proj
I0906 06:52:39.147642  1655 net.cpp:110] Creating Layer inception_4d/relu_pool_proj
I0906 06:52:39.147645  1655 net.cpp:476] inception_4d/relu_pool_proj <- inception_4d/pool_proj
I0906 06:52:39.147650  1655 net.cpp:419] inception_4d/relu_pool_proj -> inception_4d/pool_proj (in-place)
I0906 06:52:39.147653  1655 net.cpp:155] Setting up inception_4d/relu_pool_proj
I0906 06:52:39.147657  1655 net.cpp:163] Top shape: 1 64 14 14 (12544)
I0906 06:52:39.147660  1655 layer_factory.hpp:75] Creating layer inception_4d/output
I0906 06:52:39.147666  1655 net.cpp:110] Creating Layer inception_4d/output
I0906 06:52:39.147670  1655 net.cpp:476] inception_4d/output <- inception_4d/1x1
I0906 06:52:39.147673  1655 net.cpp:476] inception_4d/output <- inception_4d/3x3
I0906 06:52:39.147676  1655 net.cpp:476] inception_4d/output <- inception_4d/5x5
I0906 06:52:39.147680  1655 net.cpp:476] inception_4d/output <- inception_4d/pool_proj
I0906 06:52:39.147685  1655 net.cpp:432] inception_4d/output -> inception_4d/output
I0906 06:52:39.147689  1655 net.cpp:155] Setting up inception_4d/output
I0906 06:52:39.147693  1655 net.cpp:163] Top shape: 1 528 14 14 (103488)
I0906 06:52:39.147696  1655 layer_factory.hpp:75] Creating layer inception_4d/output_inception_4d/output_0_split
I0906 06:52:39.147701  1655 net.cpp:110] Creating Layer inception_4d/output_inception_4d/output_0_split
I0906 06:52:39.147703  1655 net.cpp:476] inception_4d/output_inception_4d/output_0_split <- inception_4d/output
I0906 06:52:39.147709  1655 net.cpp:432] inception_4d/output_inception_4d/output_0_split -> inception_4d/output_inception_4d/output_0_split_0
I0906 06:52:39.147716  1655 net.cpp:432] inception_4d/output_inception_4d/output_0_split -> inception_4d/output_inception_4d/output_0_split_1
I0906 06:52:39.147723  1655 net.cpp:432] inception_4d/output_inception_4d/output_0_split -> inception_4d/output_inception_4d/output_0_split_2
I0906 06:52:39.147728  1655 net.cpp:432] inception_4d/output_inception_4d/output_0_split -> inception_4d/output_inception_4d/output_0_split_3
I0906 06:52:39.147734  1655 net.cpp:155] Setting up inception_4d/output_inception_4d/output_0_split
I0906 06:52:39.147738  1655 net.cpp:163] Top shape: 1 528 14 14 (103488)
I0906 06:52:39.147742  1655 net.cpp:163] Top shape: 1 528 14 14 (103488)
I0906 06:52:39.147744  1655 net.cpp:163] Top shape: 1 528 14 14 (103488)
I0906 06:52:39.147748  1655 net.cpp:163] Top shape: 1 528 14 14 (103488)
I0906 06:52:39.147752  1655 layer_factory.hpp:75] Creating layer inception_4e/1x1
I0906 06:52:39.147758  1655 net.cpp:110] Creating Layer inception_4e/1x1
I0906 06:52:39.147760  1655 net.cpp:476] inception_4e/1x1 <- inception_4d/output_inception_4d/output_0_split_0
I0906 06:52:39.147766  1655 net.cpp:432] inception_4e/1x1 -> inception_4e/1x1
I0906 06:52:39.148746  1655 net.cpp:155] Setting up inception_4e/1x1
I0906 06:52:39.148752  1655 net.cpp:163] Top shape: 1 256 14 14 (50176)
I0906 06:52:39.148757  1655 layer_factory.hpp:75] Creating layer inception_4e/relu_1x1
I0906 06:52:39.148761  1655 net.cpp:110] Creating Layer inception_4e/relu_1x1
I0906 06:52:39.148764  1655 net.cpp:476] inception_4e/relu_1x1 <- inception_4e/1x1
I0906 06:52:39.148768  1655 net.cpp:419] inception_4e/relu_1x1 -> inception_4e/1x1 (in-place)
I0906 06:52:39.148773  1655 net.cpp:155] Setting up inception_4e/relu_1x1
I0906 06:52:39.148777  1655 net.cpp:163] Top shape: 1 256 14 14 (50176)
I0906 06:52:39.148779  1655 layer_factory.hpp:75] Creating layer inception_4e/3x3_reduce
I0906 06:52:39.148787  1655 net.cpp:110] Creating Layer inception_4e/3x3_reduce
I0906 06:52:39.148789  1655 net.cpp:476] inception_4e/3x3_reduce <- inception_4d/output_inception_4d/output_0_split_1
I0906 06:52:39.148795  1655 net.cpp:432] inception_4e/3x3_reduce -> inception_4e/3x3_reduce
I0906 06:52:39.149408  1655 net.cpp:155] Setting up inception_4e/3x3_reduce
I0906 06:52:39.149415  1655 net.cpp:163] Top shape: 1 160 14 14 (31360)
I0906 06:52:39.149420  1655 layer_factory.hpp:75] Creating layer inception_4e/relu_3x3_reduce
I0906 06:52:39.149425  1655 net.cpp:110] Creating Layer inception_4e/relu_3x3_reduce
I0906 06:52:39.149427  1655 net.cpp:476] inception_4e/relu_3x3_reduce <- inception_4e/3x3_reduce
I0906 06:52:39.149431  1655 net.cpp:419] inception_4e/relu_3x3_reduce -> inception_4e/3x3_reduce (in-place)
I0906 06:52:39.149435  1655 net.cpp:155] Setting up inception_4e/relu_3x3_reduce
I0906 06:52:39.149440  1655 net.cpp:163] Top shape: 1 160 14 14 (31360)
I0906 06:52:39.149442  1655 layer_factory.hpp:75] Creating layer inception_4e/3x3
I0906 06:52:39.149449  1655 net.cpp:110] Creating Layer inception_4e/3x3
I0906 06:52:39.149452  1655 net.cpp:476] inception_4e/3x3 <- inception_4e/3x3_reduce
I0906 06:52:39.149457  1655 net.cpp:432] inception_4e/3x3 -> inception_4e/3x3
I0906 06:52:39.152768  1655 net.cpp:155] Setting up inception_4e/3x3
I0906 06:52:39.152777  1655 net.cpp:163] Top shape: 1 320 14 14 (62720)
I0906 06:52:39.152783  1655 layer_factory.hpp:75] Creating layer inception_4e/relu_3x3
I0906 06:52:39.152787  1655 net.cpp:110] Creating Layer inception_4e/relu_3x3
I0906 06:52:39.152793  1655 net.cpp:476] inception_4e/relu_3x3 <- inception_4e/3x3
I0906 06:52:39.152797  1655 net.cpp:419] inception_4e/relu_3x3 -> inception_4e/3x3 (in-place)
I0906 06:52:39.152802  1655 net.cpp:155] Setting up inception_4e/relu_3x3
I0906 06:52:39.152806  1655 net.cpp:163] Top shape: 1 320 14 14 (62720)
I0906 06:52:39.152809  1655 layer_factory.hpp:75] Creating layer inception_4e/5x5_reduce
I0906 06:52:39.152814  1655 net.cpp:110] Creating Layer inception_4e/5x5_reduce
I0906 06:52:39.152817  1655 net.cpp:476] inception_4e/5x5_reduce <- inception_4d/output_inception_4d/output_0_split_2
I0906 06:52:39.152823  1655 net.cpp:432] inception_4e/5x5_reduce -> inception_4e/5x5_reduce
I0906 06:52:39.152954  1655 net.cpp:155] Setting up inception_4e/5x5_reduce
I0906 06:52:39.152961  1655 net.cpp:163] Top shape: 1 32 14 14 (6272)
I0906 06:52:39.152966  1655 layer_factory.hpp:75] Creating layer inception_4e/relu_5x5_reduce
I0906 06:52:39.152969  1655 net.cpp:110] Creating Layer inception_4e/relu_5x5_reduce
I0906 06:52:39.152972  1655 net.cpp:476] inception_4e/relu_5x5_reduce <- inception_4e/5x5_reduce
I0906 06:52:39.152978  1655 net.cpp:419] inception_4e/relu_5x5_reduce -> inception_4e/5x5_reduce (in-place)
I0906 06:52:39.152983  1655 net.cpp:155] Setting up inception_4e/relu_5x5_reduce
I0906 06:52:39.152987  1655 net.cpp:163] Top shape: 1 32 14 14 (6272)
I0906 06:52:39.152990  1655 layer_factory.hpp:75] Creating layer inception_4e/5x5
I0906 06:52:39.152995  1655 net.cpp:110] Creating Layer inception_4e/5x5
I0906 06:52:39.152998  1655 net.cpp:476] inception_4e/5x5 <- inception_4e/5x5_reduce
I0906 06:52:39.153007  1655 net.cpp:432] inception_4e/5x5 -> inception_4e/5x5
I0906 06:52:39.153766  1655 net.cpp:155] Setting up inception_4e/5x5
I0906 06:52:39.153775  1655 net.cpp:163] Top shape: 1 128 14 14 (25088)
I0906 06:52:39.153781  1655 layer_factory.hpp:75] Creating layer inception_4e/relu_5x5
I0906 06:52:39.153786  1655 net.cpp:110] Creating Layer inception_4e/relu_5x5
I0906 06:52:39.153789  1655 net.cpp:476] inception_4e/relu_5x5 <- inception_4e/5x5
I0906 06:52:39.153794  1655 net.cpp:419] inception_4e/relu_5x5 -> inception_4e/5x5 (in-place)
I0906 06:52:39.153798  1655 net.cpp:155] Setting up inception_4e/relu_5x5
I0906 06:52:39.153802  1655 net.cpp:163] Top shape: 1 128 14 14 (25088)
I0906 06:52:39.153805  1655 layer_factory.hpp:75] Creating layer inception_4e/pool
I0906 06:52:39.153811  1655 net.cpp:110] Creating Layer inception_4e/pool
I0906 06:52:39.153815  1655 net.cpp:476] inception_4e/pool <- inception_4d/output_inception_4d/output_0_split_3
I0906 06:52:39.153820  1655 net.cpp:432] inception_4e/pool -> inception_4e/pool
I0906 06:52:39.153825  1655 net.cpp:155] Setting up inception_4e/pool
I0906 06:52:39.153830  1655 net.cpp:163] Top shape: 1 528 14 14 (103488)
I0906 06:52:39.153832  1655 layer_factory.hpp:75] Creating layer inception_4e/pool_proj
I0906 06:52:39.153839  1655 net.cpp:110] Creating Layer inception_4e/pool_proj
I0906 06:52:39.153843  1655 net.cpp:476] inception_4e/pool_proj <- inception_4e/pool
I0906 06:52:39.153847  1655 net.cpp:432] inception_4e/pool_proj -> inception_4e/pool_proj
I0906 06:52:39.154341  1655 net.cpp:155] Setting up inception_4e/pool_proj
I0906 06:52:39.154348  1655 net.cpp:163] Top shape: 1 128 14 14 (25088)
I0906 06:52:39.154353  1655 layer_factory.hpp:75] Creating layer inception_4e/relu_pool_proj
I0906 06:52:39.154357  1655 net.cpp:110] Creating Layer inception_4e/relu_pool_proj
I0906 06:52:39.154361  1655 net.cpp:476] inception_4e/relu_pool_proj <- inception_4e/pool_proj
I0906 06:52:39.154364  1655 net.cpp:419] inception_4e/relu_pool_proj -> inception_4e/pool_proj (in-place)
I0906 06:52:39.154369  1655 net.cpp:155] Setting up inception_4e/relu_pool_proj
I0906 06:52:39.154373  1655 net.cpp:163] Top shape: 1 128 14 14 (25088)
I0906 06:52:39.154376  1655 layer_factory.hpp:75] Creating layer inception_4e/output
I0906 06:52:39.154381  1655 net.cpp:110] Creating Layer inception_4e/output
I0906 06:52:39.154383  1655 net.cpp:476] inception_4e/output <- inception_4e/1x1
I0906 06:52:39.154387  1655 net.cpp:476] inception_4e/output <- inception_4e/3x3
I0906 06:52:39.154391  1655 net.cpp:476] inception_4e/output <- inception_4e/5x5
I0906 06:52:39.154393  1655 net.cpp:476] inception_4e/output <- inception_4e/pool_proj
I0906 06:52:39.154399  1655 net.cpp:432] inception_4e/output -> inception_4e/output
I0906 06:52:39.154405  1655 net.cpp:155] Setting up inception_4e/output
I0906 06:52:39.154409  1655 net.cpp:163] Top shape: 1 832 14 14 (163072)
I0906 06:52:39.154412  1655 layer_factory.hpp:75] Creating layer pool4/3x3_s2
I0906 06:52:39.154417  1655 net.cpp:110] Creating Layer pool4/3x3_s2
I0906 06:52:39.154420  1655 net.cpp:476] pool4/3x3_s2 <- inception_4e/output
I0906 06:52:39.154430  1655 net.cpp:432] pool4/3x3_s2 -> pool4/3x3_s2
I0906 06:52:39.154436  1655 net.cpp:155] Setting up pool4/3x3_s2
I0906 06:52:39.154440  1655 net.cpp:163] Top shape: 1 832 7 7 (40768)
I0906 06:52:39.154444  1655 layer_factory.hpp:75] Creating layer pool4/3x3_s2_pool4/3x3_s2_0_split
I0906 06:52:39.154448  1655 net.cpp:110] Creating Layer pool4/3x3_s2_pool4/3x3_s2_0_split
I0906 06:52:39.154451  1655 net.cpp:476] pool4/3x3_s2_pool4/3x3_s2_0_split <- pool4/3x3_s2
I0906 06:52:39.154455  1655 net.cpp:432] pool4/3x3_s2_pool4/3x3_s2_0_split -> pool4/3x3_s2_pool4/3x3_s2_0_split_0
I0906 06:52:39.154461  1655 net.cpp:432] pool4/3x3_s2_pool4/3x3_s2_0_split -> pool4/3x3_s2_pool4/3x3_s2_0_split_1
I0906 06:52:39.154467  1655 net.cpp:432] pool4/3x3_s2_pool4/3x3_s2_0_split -> pool4/3x3_s2_pool4/3x3_s2_0_split_2
I0906 06:52:39.154472  1655 net.cpp:432] pool4/3x3_s2_pool4/3x3_s2_0_split -> pool4/3x3_s2_pool4/3x3_s2_0_split_3
I0906 06:52:39.154477  1655 net.cpp:155] Setting up pool4/3x3_s2_pool4/3x3_s2_0_split
I0906 06:52:39.154481  1655 net.cpp:163] Top shape: 1 832 7 7 (40768)
I0906 06:52:39.154484  1655 net.cpp:163] Top shape: 1 832 7 7 (40768)
I0906 06:52:39.154489  1655 net.cpp:163] Top shape: 1 832 7 7 (40768)
I0906 06:52:39.154491  1655 net.cpp:163] Top shape: 1 832 7 7 (40768)
I0906 06:52:39.154495  1655 layer_factory.hpp:75] Creating layer inception_5a/1x1
I0906 06:52:39.154501  1655 net.cpp:110] Creating Layer inception_5a/1x1
I0906 06:52:39.154505  1655 net.cpp:476] inception_5a/1x1 <- pool4/3x3_s2_pool4/3x3_s2_0_split_0
I0906 06:52:39.154508  1655 net.cpp:432] inception_5a/1x1 -> inception_5a/1x1
I0906 06:52:39.156044  1655 net.cpp:155] Setting up inception_5a/1x1
I0906 06:52:39.156052  1655 net.cpp:163] Top shape: 1 256 7 7 (12544)
I0906 06:52:39.156059  1655 layer_factory.hpp:75] Creating layer inception_5a/relu_1x1
I0906 06:52:39.156064  1655 net.cpp:110] Creating Layer inception_5a/relu_1x1
I0906 06:52:39.156066  1655 net.cpp:476] inception_5a/relu_1x1 <- inception_5a/1x1
I0906 06:52:39.156070  1655 net.cpp:419] inception_5a/relu_1x1 -> inception_5a/1x1 (in-place)
I0906 06:52:39.156075  1655 net.cpp:155] Setting up inception_5a/relu_1x1
I0906 06:52:39.156079  1655 net.cpp:163] Top shape: 1 256 7 7 (12544)
I0906 06:52:39.156082  1655 layer_factory.hpp:75] Creating layer inception_5a/3x3_reduce
I0906 06:52:39.156088  1655 net.cpp:110] Creating Layer inception_5a/3x3_reduce
I0906 06:52:39.156091  1655 net.cpp:476] inception_5a/3x3_reduce <- pool4/3x3_s2_pool4/3x3_s2_0_split_1
I0906 06:52:39.156096  1655 net.cpp:432] inception_5a/3x3_reduce -> inception_5a/3x3_reduce
I0906 06:52:39.157057  1655 net.cpp:155] Setting up inception_5a/3x3_reduce
I0906 06:52:39.157063  1655 net.cpp:163] Top shape: 1 160 7 7 (7840)
I0906 06:52:39.157068  1655 layer_factory.hpp:75] Creating layer inception_5a/relu_3x3_reduce
I0906 06:52:39.157073  1655 net.cpp:110] Creating Layer inception_5a/relu_3x3_reduce
I0906 06:52:39.157076  1655 net.cpp:476] inception_5a/relu_3x3_reduce <- inception_5a/3x3_reduce
I0906 06:52:39.157081  1655 net.cpp:419] inception_5a/relu_3x3_reduce -> inception_5a/3x3_reduce (in-place)
I0906 06:52:39.157086  1655 net.cpp:155] Setting up inception_5a/relu_3x3_reduce
I0906 06:52:39.157090  1655 net.cpp:163] Top shape: 1 160 7 7 (7840)
I0906 06:52:39.157094  1655 layer_factory.hpp:75] Creating layer inception_5a/3x3
I0906 06:52:39.157099  1655 net.cpp:110] Creating Layer inception_5a/3x3
I0906 06:52:39.157101  1655 net.cpp:476] inception_5a/3x3 <- inception_5a/3x3_reduce
I0906 06:52:39.157107  1655 net.cpp:432] inception_5a/3x3 -> inception_5a/3x3
I0906 06:52:39.160423  1655 net.cpp:155] Setting up inception_5a/3x3
I0906 06:52:39.160433  1655 net.cpp:163] Top shape: 1 320 7 7 (15680)
I0906 06:52:39.160437  1655 layer_factory.hpp:75] Creating layer inception_5a/relu_3x3
I0906 06:52:39.160442  1655 net.cpp:110] Creating Layer inception_5a/relu_3x3
I0906 06:52:39.160445  1655 net.cpp:476] inception_5a/relu_3x3 <- inception_5a/3x3
I0906 06:52:39.160451  1655 net.cpp:419] inception_5a/relu_3x3 -> inception_5a/3x3 (in-place)
I0906 06:52:39.160460  1655 net.cpp:155] Setting up inception_5a/relu_3x3
I0906 06:52:39.160465  1655 net.cpp:163] Top shape: 1 320 7 7 (15680)
I0906 06:52:39.160468  1655 layer_factory.hpp:75] Creating layer inception_5a/5x5_reduce
I0906 06:52:39.160473  1655 net.cpp:110] Creating Layer inception_5a/5x5_reduce
I0906 06:52:39.160476  1655 net.cpp:476] inception_5a/5x5_reduce <- pool4/3x3_s2_pool4/3x3_s2_0_split_2
I0906 06:52:39.160483  1655 net.cpp:432] inception_5a/5x5_reduce -> inception_5a/5x5_reduce
I0906 06:52:39.160679  1655 net.cpp:155] Setting up inception_5a/5x5_reduce
I0906 06:52:39.160689  1655 net.cpp:163] Top shape: 1 32 7 7 (1568)
I0906 06:52:39.160694  1655 layer_factory.hpp:75] Creating layer inception_5a/relu_5x5_reduce
I0906 06:52:39.160698  1655 net.cpp:110] Creating Layer inception_5a/relu_5x5_reduce
I0906 06:52:39.160702  1655 net.cpp:476] inception_5a/relu_5x5_reduce <- inception_5a/5x5_reduce
I0906 06:52:39.160706  1655 net.cpp:419] inception_5a/relu_5x5_reduce -> inception_5a/5x5_reduce (in-place)
I0906 06:52:39.160711  1655 net.cpp:155] Setting up inception_5a/relu_5x5_reduce
I0906 06:52:39.160714  1655 net.cpp:163] Top shape: 1 32 7 7 (1568)
I0906 06:52:39.160717  1655 layer_factory.hpp:75] Creating layer inception_5a/5x5
I0906 06:52:39.160724  1655 net.cpp:110] Creating Layer inception_5a/5x5
I0906 06:52:39.160727  1655 net.cpp:476] inception_5a/5x5 <- inception_5a/5x5_reduce
I0906 06:52:39.160732  1655 net.cpp:432] inception_5a/5x5 -> inception_5a/5x5
I0906 06:52:39.161473  1655 net.cpp:155] Setting up inception_5a/5x5
I0906 06:52:39.161479  1655 net.cpp:163] Top shape: 1 128 7 7 (6272)
I0906 06:52:39.161484  1655 layer_factory.hpp:75] Creating layer inception_5a/relu_5x5
I0906 06:52:39.161489  1655 net.cpp:110] Creating Layer inception_5a/relu_5x5
I0906 06:52:39.161491  1655 net.cpp:476] inception_5a/relu_5x5 <- inception_5a/5x5
I0906 06:52:39.161497  1655 net.cpp:419] inception_5a/relu_5x5 -> inception_5a/5x5 (in-place)
I0906 06:52:39.161502  1655 net.cpp:155] Setting up inception_5a/relu_5x5
I0906 06:52:39.161505  1655 net.cpp:163] Top shape: 1 128 7 7 (6272)
I0906 06:52:39.161509  1655 layer_factory.hpp:75] Creating layer inception_5a/pool
I0906 06:52:39.161525  1655 net.cpp:110] Creating Layer inception_5a/pool
I0906 06:52:39.161528  1655 net.cpp:476] inception_5a/pool <- pool4/3x3_s2_pool4/3x3_s2_0_split_3
I0906 06:52:39.161533  1655 net.cpp:432] inception_5a/pool -> inception_5a/pool
I0906 06:52:39.161540  1655 net.cpp:155] Setting up inception_5a/pool
I0906 06:52:39.161545  1655 net.cpp:163] Top shape: 1 832 7 7 (40768)
I0906 06:52:39.161547  1655 layer_factory.hpp:75] Creating layer inception_5a/pool_proj
I0906 06:52:39.161555  1655 net.cpp:110] Creating Layer inception_5a/pool_proj
I0906 06:52:39.161558  1655 net.cpp:476] inception_5a/pool_proj <- inception_5a/pool
I0906 06:52:39.161562  1655 net.cpp:432] inception_5a/pool_proj -> inception_5a/pool_proj
I0906 06:52:39.162341  1655 net.cpp:155] Setting up inception_5a/pool_proj
I0906 06:52:39.162349  1655 net.cpp:163] Top shape: 1 128 7 7 (6272)
I0906 06:52:39.162354  1655 layer_factory.hpp:75] Creating layer inception_5a/relu_pool_proj
I0906 06:52:39.162359  1655 net.cpp:110] Creating Layer inception_5a/relu_pool_proj
I0906 06:52:39.162364  1655 net.cpp:476] inception_5a/relu_pool_proj <- inception_5a/pool_proj
I0906 06:52:39.162369  1655 net.cpp:419] inception_5a/relu_pool_proj -> inception_5a/pool_proj (in-place)
I0906 06:52:39.162374  1655 net.cpp:155] Setting up inception_5a/relu_pool_proj
I0906 06:52:39.162377  1655 net.cpp:163] Top shape: 1 128 7 7 (6272)
I0906 06:52:39.162380  1655 layer_factory.hpp:75] Creating layer inception_5a/output
I0906 06:52:39.162385  1655 net.cpp:110] Creating Layer inception_5a/output
I0906 06:52:39.162389  1655 net.cpp:476] inception_5a/output <- inception_5a/1x1
I0906 06:52:39.162391  1655 net.cpp:476] inception_5a/output <- inception_5a/3x3
I0906 06:52:39.162395  1655 net.cpp:476] inception_5a/output <- inception_5a/5x5
I0906 06:52:39.162399  1655 net.cpp:476] inception_5a/output <- inception_5a/pool_proj
I0906 06:52:39.162406  1655 net.cpp:432] inception_5a/output -> inception_5a/output
I0906 06:52:39.162412  1655 net.cpp:155] Setting up inception_5a/output
I0906 06:52:39.162416  1655 net.cpp:163] Top shape: 1 832 7 7 (40768)
I0906 06:52:39.162420  1655 layer_factory.hpp:75] Creating layer inception_5a/output_inception_5a/output_0_split
I0906 06:52:39.162425  1655 net.cpp:110] Creating Layer inception_5a/output_inception_5a/output_0_split
I0906 06:52:39.162430  1655 net.cpp:476] inception_5a/output_inception_5a/output_0_split <- inception_5a/output
I0906 06:52:39.162433  1655 net.cpp:432] inception_5a/output_inception_5a/output_0_split -> inception_5a/output_inception_5a/output_0_split_0
I0906 06:52:39.162438  1655 net.cpp:432] inception_5a/output_inception_5a/output_0_split -> inception_5a/output_inception_5a/output_0_split_1
I0906 06:52:39.162446  1655 net.cpp:432] inception_5a/output_inception_5a/output_0_split -> inception_5a/output_inception_5a/output_0_split_2
I0906 06:52:39.162451  1655 net.cpp:432] inception_5a/output_inception_5a/output_0_split -> inception_5a/output_inception_5a/output_0_split_3
I0906 06:52:39.162456  1655 net.cpp:155] Setting up inception_5a/output_inception_5a/output_0_split
I0906 06:52:39.162461  1655 net.cpp:163] Top shape: 1 832 7 7 (40768)
I0906 06:52:39.162464  1655 net.cpp:163] Top shape: 1 832 7 7 (40768)
I0906 06:52:39.162467  1655 net.cpp:163] Top shape: 1 832 7 7 (40768)
I0906 06:52:39.162472  1655 net.cpp:163] Top shape: 1 832 7 7 (40768)
I0906 06:52:39.162474  1655 layer_factory.hpp:75] Creating layer inception_5b/1x1
I0906 06:52:39.162478  1655 net.cpp:110] Creating Layer inception_5b/1x1
I0906 06:52:39.162482  1655 net.cpp:476] inception_5b/1x1 <- inception_5a/output_inception_5a/output_0_split_0
I0906 06:52:39.162488  1655 net.cpp:432] inception_5b/1x1 -> inception_5b/1x1
I0906 06:52:39.164794  1655 net.cpp:155] Setting up inception_5b/1x1
I0906 06:52:39.164803  1655 net.cpp:163] Top shape: 1 384 7 7 (18816)
I0906 06:52:39.164809  1655 layer_factory.hpp:75] Creating layer inception_5b/relu_1x1
I0906 06:52:39.164819  1655 net.cpp:110] Creating Layer inception_5b/relu_1x1
I0906 06:52:39.164822  1655 net.cpp:476] inception_5b/relu_1x1 <- inception_5b/1x1
I0906 06:52:39.164826  1655 net.cpp:419] inception_5b/relu_1x1 -> inception_5b/1x1 (in-place)
I0906 06:52:39.164831  1655 net.cpp:155] Setting up inception_5b/relu_1x1
I0906 06:52:39.164835  1655 net.cpp:163] Top shape: 1 384 7 7 (18816)
I0906 06:52:39.164839  1655 layer_factory.hpp:75] Creating layer inception_5b/3x3_reduce
I0906 06:52:39.164845  1655 net.cpp:110] Creating Layer inception_5b/3x3_reduce
I0906 06:52:39.164849  1655 net.cpp:476] inception_5b/3x3_reduce <- inception_5a/output_inception_5a/output_0_split_1
I0906 06:52:39.164854  1655 net.cpp:432] inception_5b/3x3_reduce -> inception_5b/3x3_reduce
I0906 06:52:39.166009  1655 net.cpp:155] Setting up inception_5b/3x3_reduce
I0906 06:52:39.166018  1655 net.cpp:163] Top shape: 1 192 7 7 (9408)
I0906 06:52:39.166023  1655 layer_factory.hpp:75] Creating layer inception_5b/relu_3x3_reduce
I0906 06:52:39.166028  1655 net.cpp:110] Creating Layer inception_5b/relu_3x3_reduce
I0906 06:52:39.166030  1655 net.cpp:476] inception_5b/relu_3x3_reduce <- inception_5b/3x3_reduce
I0906 06:52:39.166038  1655 net.cpp:419] inception_5b/relu_3x3_reduce -> inception_5b/3x3_reduce (in-place)
I0906 06:52:39.166043  1655 net.cpp:155] Setting up inception_5b/relu_3x3_reduce
I0906 06:52:39.166048  1655 net.cpp:163] Top shape: 1 192 7 7 (9408)
I0906 06:52:39.166050  1655 layer_factory.hpp:75] Creating layer inception_5b/3x3
I0906 06:52:39.166055  1655 net.cpp:110] Creating Layer inception_5b/3x3
I0906 06:52:39.166059  1655 net.cpp:476] inception_5b/3x3 <- inception_5b/3x3_reduce
I0906 06:52:39.166064  1655 net.cpp:432] inception_5b/3x3 -> inception_5b/3x3
I0906 06:52:39.170833  1655 net.cpp:155] Setting up inception_5b/3x3
I0906 06:52:39.170845  1655 net.cpp:163] Top shape: 1 384 7 7 (18816)
I0906 06:52:39.170850  1655 layer_factory.hpp:75] Creating layer inception_5b/relu_3x3
I0906 06:52:39.170858  1655 net.cpp:110] Creating Layer inception_5b/relu_3x3
I0906 06:52:39.170862  1655 net.cpp:476] inception_5b/relu_3x3 <- inception_5b/3x3
I0906 06:52:39.170868  1655 net.cpp:419] inception_5b/relu_3x3 -> inception_5b/3x3 (in-place)
I0906 06:52:39.170874  1655 net.cpp:155] Setting up inception_5b/relu_3x3
I0906 06:52:39.170877  1655 net.cpp:163] Top shape: 1 384 7 7 (18816)
I0906 06:52:39.170881  1655 layer_factory.hpp:75] Creating layer inception_5b/5x5_reduce
I0906 06:52:39.170886  1655 net.cpp:110] Creating Layer inception_5b/5x5_reduce
I0906 06:52:39.170889  1655 net.cpp:476] inception_5b/5x5_reduce <- inception_5a/output_inception_5a/output_0_split_2
I0906 06:52:39.170896  1655 net.cpp:432] inception_5b/5x5_reduce -> inception_5b/5x5_reduce
I0906 06:52:39.171190  1655 net.cpp:155] Setting up inception_5b/5x5_reduce
I0906 06:52:39.171196  1655 net.cpp:163] Top shape: 1 48 7 7 (2352)
I0906 06:52:39.171201  1655 layer_factory.hpp:75] Creating layer inception_5b/relu_5x5_reduce
I0906 06:52:39.171208  1655 net.cpp:110] Creating Layer inception_5b/relu_5x5_reduce
I0906 06:52:39.171211  1655 net.cpp:476] inception_5b/relu_5x5_reduce <- inception_5b/5x5_reduce
I0906 06:52:39.171216  1655 net.cpp:419] inception_5b/relu_5x5_reduce -> inception_5b/5x5_reduce (in-place)
I0906 06:52:39.171221  1655 net.cpp:155] Setting up inception_5b/relu_5x5_reduce
I0906 06:52:39.171223  1655 net.cpp:163] Top shape: 1 48 7 7 (2352)
I0906 06:52:39.171226  1655 layer_factory.hpp:75] Creating layer inception_5b/5x5
I0906 06:52:39.171233  1655 net.cpp:110] Creating Layer inception_5b/5x5
I0906 06:52:39.171236  1655 net.cpp:476] inception_5b/5x5 <- inception_5b/5x5_reduce
I0906 06:52:39.171241  1655 net.cpp:432] inception_5b/5x5 -> inception_5b/5x5
I0906 06:52:39.172349  1655 net.cpp:155] Setting up inception_5b/5x5
I0906 06:52:39.172356  1655 net.cpp:163] Top shape: 1 128 7 7 (6272)
I0906 06:52:39.172361  1655 layer_factory.hpp:75] Creating layer inception_5b/relu_5x5
I0906 06:52:39.172368  1655 net.cpp:110] Creating Layer inception_5b/relu_5x5
I0906 06:52:39.172370  1655 net.cpp:476] inception_5b/relu_5x5 <- inception_5b/5x5
I0906 06:52:39.172374  1655 net.cpp:419] inception_5b/relu_5x5 -> inception_5b/5x5 (in-place)
I0906 06:52:39.172379  1655 net.cpp:155] Setting up inception_5b/relu_5x5
I0906 06:52:39.172382  1655 net.cpp:163] Top shape: 1 128 7 7 (6272)
I0906 06:52:39.172386  1655 layer_factory.hpp:75] Creating layer inception_5b/pool
I0906 06:52:39.172390  1655 net.cpp:110] Creating Layer inception_5b/pool
I0906 06:52:39.172394  1655 net.cpp:476] inception_5b/pool <- inception_5a/output_inception_5a/output_0_split_3
I0906 06:52:39.172399  1655 net.cpp:432] inception_5b/pool -> inception_5b/pool
I0906 06:52:39.172406  1655 net.cpp:155] Setting up inception_5b/pool
I0906 06:52:39.172410  1655 net.cpp:163] Top shape: 1 832 7 7 (40768)
I0906 06:52:39.172413  1655 layer_factory.hpp:75] Creating layer inception_5b/pool_proj
I0906 06:52:39.172418  1655 net.cpp:110] Creating Layer inception_5b/pool_proj
I0906 06:52:39.172422  1655 net.cpp:476] inception_5b/pool_proj <- inception_5b/pool
I0906 06:52:39.172428  1655 net.cpp:432] inception_5b/pool_proj -> inception_5b/pool_proj
I0906 06:52:39.173200  1655 net.cpp:155] Setting up inception_5b/pool_proj
I0906 06:52:39.173207  1655 net.cpp:163] Top shape: 1 128 7 7 (6272)
I0906 06:52:39.173212  1655 layer_factory.hpp:75] Creating layer inception_5b/relu_pool_proj
I0906 06:52:39.173216  1655 net.cpp:110] Creating Layer inception_5b/relu_pool_proj
I0906 06:52:39.173219  1655 net.cpp:476] inception_5b/relu_pool_proj <- inception_5b/pool_proj
I0906 06:52:39.173223  1655 net.cpp:419] inception_5b/relu_pool_proj -> inception_5b/pool_proj (in-place)
I0906 06:52:39.173229  1655 net.cpp:155] Setting up inception_5b/relu_pool_proj
I0906 06:52:39.173233  1655 net.cpp:163] Top shape: 1 128 7 7 (6272)
I0906 06:52:39.173236  1655 layer_factory.hpp:75] Creating layer inception_5b/output
I0906 06:52:39.173241  1655 net.cpp:110] Creating Layer inception_5b/output
I0906 06:52:39.173244  1655 net.cpp:476] inception_5b/output <- inception_5b/1x1
I0906 06:52:39.173251  1655 net.cpp:476] inception_5b/output <- inception_5b/3x3
I0906 06:52:39.173255  1655 net.cpp:476] inception_5b/output <- inception_5b/5x5
I0906 06:52:39.173259  1655 net.cpp:476] inception_5b/output <- inception_5b/pool_proj
I0906 06:52:39.173262  1655 net.cpp:432] inception_5b/output -> inception_5b/output
I0906 06:52:39.173267  1655 net.cpp:155] Setting up inception_5b/output
I0906 06:52:39.173272  1655 net.cpp:163] Top shape: 1 1024 7 7 (50176)
I0906 06:52:39.173275  1655 layer_factory.hpp:75] Creating layer pool5/7x7_s1
I0906 06:52:39.173280  1655 net.cpp:110] Creating Layer pool5/7x7_s1
I0906 06:52:39.173282  1655 net.cpp:476] pool5/7x7_s1 <- inception_5b/output
I0906 06:52:39.173288  1655 net.cpp:432] pool5/7x7_s1 -> pool5/7x7_s1
I0906 06:52:39.173295  1655 net.cpp:155] Setting up pool5/7x7_s1
I0906 06:52:39.173298  1655 net.cpp:163] Top shape: 1 1024 1 1 (1024)
I0906 06:52:39.173301  1655 layer_factory.hpp:75] Creating layer pool5/drop_7x7_s1
I0906 06:52:39.173308  1655 net.cpp:110] Creating Layer pool5/drop_7x7_s1
I0906 06:52:39.173311  1655 net.cpp:476] pool5/drop_7x7_s1 <- pool5/7x7_s1
I0906 06:52:39.173317  1655 net.cpp:419] pool5/drop_7x7_s1 -> pool5/7x7_s1 (in-place)
I0906 06:52:39.173324  1655 net.cpp:155] Setting up pool5/drop_7x7_s1
I0906 06:52:39.173328  1655 net.cpp:163] Top shape: 1 1024 1 1 (1024)
I0906 06:52:39.173331  1655 layer_factory.hpp:75] Creating layer loss3/classifier_g_ft
I0906 06:52:39.173337  1655 net.cpp:110] Creating Layer loss3/classifier_g_ft
I0906 06:52:39.173341  1655 net.cpp:476] loss3/classifier_g_ft <- pool5/7x7_s1
I0906 06:52:39.173346  1655 net.cpp:432] loss3/classifier_g_ft -> loss3/classifier_g_ft
I0906 06:52:39.173374  1655 net.cpp:155] Setting up loss3/classifier_g_ft
I0906 06:52:39.173380  1655 net.cpp:163] Top shape: 1 2 (2)
I0906 06:52:39.173384  1655 layer_factory.hpp:75] Creating layer prob
I0906 06:52:39.173391  1655 net.cpp:110] Creating Layer prob
I0906 06:52:39.173394  1655 net.cpp:476] prob <- loss3/classifier_g_ft
I0906 06:52:39.173398  1655 net.cpp:432] prob -> prob
I0906 06:52:39.173405  1655 net.cpp:155] Setting up prob
I0906 06:52:39.173409  1655 net.cpp:163] Top shape: 1 2 (2)
I0906 06:52:39.173413  1655 net.cpp:240] prob does not need backward computation.
I0906 06:52:39.173416  1655 net.cpp:240] loss3/classifier_g_ft does not need backward computation.
I0906 06:52:39.173419  1655 net.cpp:240] pool5/drop_7x7_s1 does not need backward computation.
I0906 06:52:39.173423  1655 net.cpp:240] pool5/7x7_s1 does not need backward computation.
I0906 06:52:39.173425  1655 net.cpp:240] inception_5b/output does not need backward computation.
…
