libdc1394 error: Failed to initialize libdc1394
WARNING: Logging before InitGoogleLogging() is written to STDERR
I0823 09:38:47.498631  1613 net.cpp:50] Initializing net from parameters: 
name: "makesetnopretrain"
input: "data"
input_dim: 1
input_dim: 3
input_dim: 224
input_dim: 224
state {
  phase: TEST
}
layer {
  name: "conv1/7x7_s2"
  type: "Convolution"
  bottom: "data"
  top: "conv1/7x7_s2"
  param {
    lr_mult: 1
    decay_mult: 1
  }
  param {
    lr_mult: 2
    decay_mult: 0
  }
  convolution_param {
    num_output: 64
    pad: 3
    kernel_size: 7
    stride: 2
    weight_filler {
      type: "xavier"
      std: 0.1
    }
    bias_filler {
      type: "constant"
      value: 0.2
    }
  }
}
layer {
  name: "conv1/relu_7x7"
  type: "ReLU"
  bottom: "conv1/7x7_s2"
  top: "conv1/7x7_s2"
}
layer {
  name: "pool1/3x3_s2"
  type: "Pooling"
  bottom: "conv1/7x7_s2"
  top: "pool1/3x3_s2"
  pooling_param {
    pool: MAX
    kernel_size: 3
    stride: 2
  }
}
layer {
  name: "pool1/norm1"
  type: "LRN"
  bottom: "pool1/3x3_s2"
  top: "pool1/norm1"
  lrn_param {
    local_size: 5
    alpha: 0.0001
    beta: 0.75
  }
}
layer {
  name: "conv2/3x3_reduce"
  type: "Convolution"
  bottom: "pool1/norm1"
  top: "conv2/3x3_reduce"
  param {
    lr_mult: 1
    decay_mult: 1
  }
  param {
    lr_mult: 2
    decay_mult: 0
  }
  convolution_param {
    num_output: 64
    kernel_size: 1
    weight_filler {
      type: "xavier"
      std: 0.1
    }
    bias_filler {
      type: "constant"
      value: 0.2
    }
  }
}
layer {
  name: "conv2/relu_3x3_reduce"
  type: "ReLU"
  bottom: "conv2/3x3_reduce"
  top: "conv2/3x3_reduce"
}
layer {
  name: "conv2/3x3"
  type: "Convolution"
  bottom: "conv2/3x3_reduce"
  top: "conv2/3x3"
  param {
    lr_mult: 1
    decay_mult: 1
  }
  param {
    lr_mult: 2
    decay_mult: 0
  }
  convolution_param {
    num_output: 192
    pad: 1
    kernel_size: 3
    weight_filler {
      type: "xavier"
      std: 0.03
    }
    bias_filler {
      type: "constant"
      value: 0.2
    }
  }
}
layer {
  name: "conv2/relu_3x3"
  type: "ReLU"
  bottom: "conv2/3x3"
  top: "conv2/3x3"
}
layer {
  name: "conv2/norm2"
  type: "LRN"
  bottom: "conv2/3x3"
  top: "conv2/norm2"
  lrn_param {
    local_size: 5
    alpha: 0.0001
    beta: 0.75
  }
}
layer {
  name: "pool2/3x3_s2"
  type: "Pooling"
  bottom: "conv2/norm2"
  top: "pool2/3x3_s2"
  pooling_param {
    pool: MAX
    kernel_size: 3
    stride: 2
  }
}
layer {
  name: "inception_3a/1x1"
  type: "Convolution"
  bottom: "pool2/3x3_s2"
  top: "inception_3a/1x1"
  param {
    lr_mult: 1
    decay_mult: 1
  }
  param {
    lr_mult: 2
    decay_mult: 0
  }
  convolution_param {
    num_output: 64
    kernel_size: 1
    weight_filler {
      type: "xavier"
      std: 0.03
    }
    bias_filler {
      type: "constant"
      value: 0.2
    }
  }
}
layer {
  name: "inception_3a/relu_1x1"
  type: "ReLU"
  bottom: "inception_3a/1x1"
  top: "inception_3a/1x1"
}
layer {
  name: "inception_3a/3x3_reduce"
  type: "Convolution"
  bottom: "pool2/3x3_s2"
  top: "inception_3a/3x3_reduce"
  param {
    lr_mult: 1
    decay_mult: 1
  }
  param {
    lr_mult: 2
    decay_mult: 0
  }
  convolution_param {
    num_output: 96
    kernel_size: 1
    weight_filler {
      type: "xavier"
      std: 0.09
    }
    bias_filler {
      type: "constant"
      value: 0.2
    }
  }
}
layer {
  name: "inception_3a/relu_3x3_reduce"
  type: "ReLU"
  bottom: "inception_3a/3x3_reduce"
  top: "inception_3a/3x3_reduce"
}
layer {
  name: "inception_3a/3x3"
  type: "Convolution"
  bottom: "inception_3a/3x3_reduce"
  top: "inception_3a/3x3"
  param {
    lr_mult: 1
    decay_mult: 1
  }
  param {
    lr_mult: 2
    decay_mult: 0
  }
  convolution_param {
    num_output: 128
    pad: 1
    kernel_size: 3
    weight_filler {
      type: "xavier"
      std: 0.03
    }
    bias_filler {
      type: "constant"
      value: 0.2
    }
  }
}
layer {
  name: "inception_3a/relu_3x3"
  type: "ReLU"
  bottom: "inception_3a/3x3"
  top: "inception_3a/3x3"
}
layer {
  name: "inception_3a/5x5_reduce"
  type: "Convolution"
  bottom: "pool2/3x3_s2"
  top: "inception_3a/5x5_reduce"
  param {
    lr_mult: 1
    decay_mult: 1
  }
  param {
    lr_mult: 2
    decay_mult: 0
  }
  convolution_param {
    num_output: 16
    kernel_size: 1
    weight_filler {
      type: "xavier"
      std: 0.2
    }
    bias_filler {
      type: "constant"
      value: 0.2
    }
  }
}
layer {
  name: "inception_3a/relu_5x5_reduce"
  type: "ReLU"
  bottom: "inception_3a/5x5_reduce"
  top: "inception_3a/5x5_reduce"
}
layer {
  name: "inception_3a/5x5"
  type: "Convolution"
  bottom: "inception_3a/5x5_reduce"
  top: "inception_3a/5x5"
  param {
    lr_mult: 1
    decay_mult: 1
  }
  param {
    lr_mult: 2
    decay_mult: 0
  }
  convolution_param {
    num_output: 32
    pad: 2
    kernel_size: 5
    weight_filler {
      type: "xavier"
      std: 0.03
    }
    bias_filler {
      type: "constant"
      value: 0.2
    }
  }
}
layer {
  name: "inception_3a/relu_5x5"
  type: "ReLU"
  bottom: "inception_3a/5x5"
  top: "inception_3a/5x5"
}
layer {
  name: "inception_3a/pool"
  type: "Pooling"
  bottom: "pool2/3x3_s2"
  top: "inception_3a/pool"
  pooling_param {
    pool: MAX
    kernel_size: 3
    stride: 1
    pad: 1
  }
}
layer {
  name: "inception_3a/pool_proj"
  type: "Convolution"
  bottom: "inception_3a/pool"
  top: "inception_3a/pool_proj"
  param {
    lr_mult: 1
    decay_mult: 1
  }
  param {
    lr_mult: 2
    decay_mult: 0
  }
  convolution_param {
    num_output: 32
    kernel_size: 1
    weight_filler {
      type: "xavier"
      std: 0.1
    }
    bias_filler {
      type: "constant"
      value: 0.2
    }
  }
}
layer {
  name: "inception_3a/relu_pool_proj"
  type: "ReLU"
  bottom: "inception_3a/pool_proj"
  top: "inception_3a/pool_proj"
}
layer {
  name: "inception_3a/output"
  type: "Concat"
  bottom: "inception_3a/1x1"
  bottom: "inception_3a/3x3"
  bottom: "inception_3a/5x5"
  bottom: "inception_3a/pool_proj"
  top: "inception_3a/output"
}
layer {
  name: "inception_3b/1x1"
  type: "Convolution"
  bottom: "inception_3a/output"
  top: "inception_3b/1x1"
  param {
    lr_mult: 1
    decay_mult: 1
  }
  param {
    lr_mult: 2
    decay_mult: 0
  }
  convolution_param {
    num_output: 128
    kernel_size: 1
    weight_filler {
      type: "xavier"
      std: 0.03
    }
    bias_filler {
      type: "constant"
      value: 0.2
    }
  }
}
layer {
  name: "inception_3b/relu_1x1"
  type: "ReLU"
  bottom: "inception_3b/1x1"
  top: "inception_3b/1x1"
}
layer {
  name: "inception_3b/3x3_reduce"
  type: "Convolution"
  bottom: "inception_3a/output"
  top: "inception_3b/3x3_reduce"
  param {
    lr_mult: 1
    decay_mult: 1
  }
  param {
    lr_mult: 2
    decay_mult: 0
  }
  convolution_param {
    num_output: 128
    kernel_size: 1
    weight_filler {
      type: "xavier"
      std: 0.09
    }
    bias_filler {
      type: "constant"
      value: 0.2
    }
  }
}
layer {
  name: "inception_3b/relu_3x3_reduce"
  type: "ReLU"
  bottom: "inception_3b/3x3_reduce"
  top: "inception_3b/3x3_reduce"
}
layer {
  name: "inception_3b/3x3"
  type: "Convolution"
  bottom: "inception_3b/3x3_reduce"
  top: "inception_3b/3x3"
  param {
    lr_mult: 1
    decay_mult: 1
  }
  param {
    lr_mult: 2
    decay_mult: 0
  }
  convolution_param {
    num_output: 192
    pad: 1
    kernel_size: 3
    weight_filler {
      type: "xavier"
      std: 0.03
    }
    bias_filler {
      type: "constant"
      value: 0.2
    }
  }
}
layer {
  name: "inception_3b/relu_3x3"
  type: "ReLU"
  bottom: "inception_3b/3x3"
  top: "inception_3b/3x3"
}
layer {
  name: "inception_3b/5x5_reduce"
  type: "Convolution"
  bottom: "inception_3a/output"
  top: "inception_3b/5x5_reduce"
  param {
    lr_mult: 1
    decay_mult: 1
  }
  param {
    lr_mult: 2
    decay_mult: 0
  }
  convolution_param {
    num_output: 32
    kernel_size: 1
    weight_filler {
      type: "xavier"
      std: 0.2
    }
    bias_filler {
      type: "constant"
      value: 0.2
    }
  }
}
layer {
  name: "inception_3b/relu_5x5_reduce"
  type: "ReLU"
  bottom: "inception_3b/5x5_reduce"
  top: "inception_3b/5x5_reduce"
}
layer {
  name: "inception_3b/5x5"
  type: "Convolution"
  bottom: "inception_3b/5x5_reduce"
  top: "inception_3b/5x5"
  param {
    lr_mult: 1
    decay_mult: 1
  }
  param {
    lr_mult: 2
    decay_mult: 0
  }
  convolution_param {
    num_output: 96
    pad: 2
    kernel_size: 5
    weight_filler {
      type: "xavier"
      std: 0.03
    }
    bias_filler {
      type: "constant"
      value: 0.2
    }
  }
}
layer {
  name: "inception_3b/relu_5x5"
  type: "ReLU"
  bottom: "inception_3b/5x5"
  top: "inception_3b/5x5"
}
layer {
  name: "inception_3b/pool"
  type: "Pooling"
  bottom: "inception_3a/output"
  top: "inception_3b/pool"
  pooling_param {
    pool: MAX
    kernel_size: 3
    stride: 1
    pad: 1
  }
}
layer {
  name: "inception_3b/pool_proj"
  type: "Convolution"
  bottom: "inception_3b/pool"
  top: "inception_3b/pool_proj"
  param {
    lr_mult: 1
    decay_mult: 1
  }
  param {
    lr_mult: 2
    decay_mult: 0
  }
  convolution_param {
    num_output: 64
    kernel_size: 1
    weight_filler {
      type: "xavier"
      std: 0.1
    }
    bias_filler {
      type: "constant"
      value: 0.2
    }
  }
}
layer {
  name: "inception_3b/relu_pool_proj"
  type: "ReLU"
  bottom: "inception_3b/pool_proj"
  top: "inception_3b/pool_proj"
}
layer {
  name: "inception_3b/output"
  type: "Concat"
  bottom: "inception_3b/1x1"
  bottom: "inception_3b/3x3"
  bottom: "inception_3b/5x5"
  bottom: "inception_3b/pool_proj"
  top: "inception_3b/output"
}
layer {
  name: "pool3/3x3_s2"
  type: "Pooling"
  bottom: "inception_3b/output"
  top: "pool3/3x3_s2"
  pooling_param {
    pool: MAX
    kernel_size: 3
    stride: 2
  }
}
layer {
  name: "inception_4a/1x1"
  type: "Convolution"
  bottom: "pool3/3x3_s2"
  top: "inception_4a/1x1"
  param {
    lr_mult: 1
    decay_mult: 1
  }
  param {
    lr_mult: 2
    decay_mult: 0
  }
  convolution_param {
    num_output: 192
    kernel_size: 1
    weight_filler {
      type: "xavier"
      std: 0.03
    }
    bias_filler {
      type: "constant"
      value: 0.2
    }
  }
}
layer {
  name: "inception_4a/relu_1x1"
  type: "ReLU"
  bottom: "inception_4a/1x1"
  top: "inception_4a/1x1"
}
layer {
  name: "inception_4a/3x3_reduce"
  type: "Convolution"
  bottom: "pool3/3x3_s2"
  top: "inception_4a/3x3_reduce"
  param {
    lr_mult: 1
    decay_mult: 1
  }
  param {
    lr_mult: 2
    decay_mult: 0
  }
  convolution_param {
    num_output: 96
    kernel_size: 1
    weight_filler {
      type: "xavier"
      std: 0.09
    }
    bias_filler {
      type: "constant"
      value: 0.2
    }
  }
}
layer {
  name: "inception_4a/relu_3x3_reduce"
  type: "ReLU"
  bottom: "inception_4a/3x3_reduce"
  top: "inception_4a/3x3_reduce"
}
layer {
  name: "inception_4a/3x3"
  type: "Convolution"
  bottom: "inception_4a/3x3_reduce"
  top: "inception_4a/3x3"
  param {
    lr_mult: 1
    decay_mult: 1
  }
  param {
    lr_mult: 2
    decay_mult: 0
  }
  convolution_param {
    num_output: 208
    pad: 1
    kernel_size: 3
    weight_filler {
      type: "xavier"
      std: 0.03
    }
    bias_filler {
      type: "constant"
      value: 0.2
    }
  }
}
layer {
  name: "inception_4a/relu_3x3"
  type: "ReLU"
  bottom: "inception_4a/3x3"
  top: "inception_4a/3x3"
}
layer {
  name: "inception_4a/5x5_reduce"
  type: "Convolution"
  bottom: "pool3/3x3_s2"
  top: "inception_4a/5x5_reduce"
  param {
    lr_mult: 1
    decay_mult: 1
  }
  param {
    lr_mult: 2
    decay_mult: 0
  }
  convolution_param {
    num_output: 16
    kernel_size: 1
    weight_filler {
      type: "xavier"
      std: 0.2
    }
    bias_filler {
      type: "constant"
      value: 0.2
    }
  }
}
layer {
  name: "inception_4a/relu_5x5_reduce"
  type: "ReLU"
  bottom: "inception_4a/5x5_reduce"
  top: "inception_4a/5x5_reduce"
}
layer {
  name: "inception_4a/5x5"
  type: "Convolution"
  bottom: "inception_4a/5x5_reduce"
  top: "inception_4a/5x5"
  param {
    lr_mult: 1
    decay_mult: 1
  }
  param {
    lr_mult: 2
    decay_mult: 0
  }
  convolution_param {
    num_output: 48
    pad: 2
    kernel_size: 5
    weight_filler {
      type: "xavier"
      std: 0.03
    }
    bias_filler {
      type: "constant"
      value: 0.2
    }
  }
}
layer {
  name: "inception_4a/relu_5x5"
  type: "ReLU"
  bottom: "inception_4a/5x5"
  top: "inception_4a/5x5"
}
layer {
  name: "inception_4a/pool"
  type: "Pooling"
  bottom: "pool3/3x3_s2"
  top: "inception_4a/pool"
  pooling_param {
    pool: MAX
    kernel_size: 3
    stride: 1
    pad: 1
  }
}
layer {
  name: "inception_4a/pool_proj"
  type: "Convolution"
  bottom: "inception_4a/pool"
  top: "inception_4a/pool_proj"
  param {
    lr_mult: 1
    decay_mult: 1
  }
  param {
    lr_mult: 2
    decay_mult: 0
  }
  convolution_param {
    num_output: 64
    kernel_size: 1
    weight_filler {
      type: "xavier"
      std: 0.1
    }
    bias_filler {
      type: "constant"
      value: 0.2
    }
  }
}
layer {
  name: "inception_4a/relu_pool_proj"
  type: "ReLU"
  bottom: "inception_4a/pool_proj"
  top: "inception_4a/pool_proj"
}
layer {
  name: "inception_4a/output"
  type: "Concat"
  bottom: "inception_4a/1x1"
  bottom: "inception_4a/3x3"
  bottom: "inception_4a/5x5"
  bottom: "inception_4a/pool_proj"
  top: "inception_4a/output"
}
layer {
  name: "inception_4b/1x1"
  type: "Convolution"
  bottom: "inception_4a/output"
  top: "inception_4b/1x1"
  param {
    lr_mult: 1
    decay_mult: 1
  }
  param {
    lr_mult: 2
    decay_mult: 0
  }
  convolution_param {
    num_output: 160
    kernel_size: 1
    weight_filler {
      type: "xavier"
      std: 0.03
    }
    bias_filler {
      type: "constant"
      value: 0.2
    }
  }
}
layer {
  name: "inception_4b/relu_1x1"
  type: "ReLU"
  bottom: "inception_4b/1x1"
  top: "inception_4b/1x1"
}
layer {
  name: "inception_4b/3x3_reduce"
  type: "Convolution"
  bottom: "inception_4a/output"
  top: "inception_4b/3x3_reduce"
  param {
    lr_mult: 1
    decay_mult: 1
  }
  param {
    lr_mult: 2
    decay_mult: 0
  }
  convolution_param {
    num_output: 112
    kernel_size: 1
    weight_filler {
      type: "xavier"
      std: 0.09
    }
    bias_filler {
      type: "constant"
      value: 0.2
    }
  }
}
layer {
  name: "inception_4b/relu_3x3_reduce"
  type: "ReLU"
  bottom: "inception_4b/3x3_reduce"
  top: "inception_4b/3x3_reduce"
}
layer {
  name: "inception_4b/3x3"
  type: "Convolution"
  bottom: "inception_4b/3x3_reduce"
  top: "inception_4b/3x3"
  param {
    lr_mult: 1
    decay_mult: 1
  }
  param {
    lr_mult: 2
    decay_mult: 0
  }
  convolution_param {
    num_output: 224
    pad: 1
    kernel_size: 3
    weight_filler {
      type: "xavier"
      std: 0.03
    }
    bias_filler {
      type: "constant"
      value: 0.2
    }
  }
}
layer {
  name: "inception_4b/relu_3x3"
  type: "ReLU"
  bottom: "inception_4b/3x3"
  top: "inception_4b/3x3"
}
layer {
  name: "inception_4b/5x5_reduce"
  type: "Convolution"
  bottom: "inception_4a/output"
  top: "inception_4b/5x5_reduce"
  param {
    lr_mult: 1
    decay_mult: 1
  }
  param {
    lr_mult: 2
    decay_mult: 0
  }
  convolution_param {
    num_output: 24
    kernel_size: 1
    weight_filler {
      type: "xavier"
      std: 0.2
    }
    bias_filler {
      type: "constant"
      value: 0.2
    }
  }
}
layer {
  name: "inception_4b/relu_5x5_reduce"
  type: "ReLU"
  bottom: "inception_4b/5x5_reduce"
  top: "inception_4b/5x5_reduce"
}
layer {
  name: "inception_4b/5x5"
  type: "Convolution"
  bottom: "inception_4b/5x5_reduce"
  top: "inception_4b/5x5"
  param {
    lr_mult: 1
    decay_mult: 1
  }
  param {
    lr_mult: 2
    decay_mult: 0
  }
  convolution_param {
    num_output: 64
    pad: 2
    kernel_size: 5
    weight_filler {
      type: "xavier"
      std: 0.03
    }
    bias_filler {
      type: "constant"
      value: 0.2
    }
  }
}
layer {
  name: "inception_4b/relu_5x5"
  type: "ReLU"
  bottom: "inception_4b/5x5"
  top: "inception_4b/5x5"
}
layer {
  name: "inception_4b/pool"
  type: "Pooling"
  bottom: "inception_4a/output"
  top: "inception_4b/pool"
  pooling_param {
    pool: MAX
    kernel_size: 3
    stride: 1
    pad: 1
  }
}
layer {
  name: "inception_4b/pool_proj"
  type: "Convolution"
  bottom: "inception_4b/pool"
  top: "inception_4b/pool_proj"
  param {
    lr_mult: 1
    decay_mult: 1
  }
  param {
    lr_mult: 2
    decay_mult: 0
  }
  convolution_param {
    num_output: 64
    kernel_size: 1
    weight_filler {
      type: "xavier"
      std: 0.1
    }
    bias_filler {
      type: "constant"
      value: 0.2
    }
  }
}
layer {
  name: "inception_4b/relu_pool_proj"
  type: "ReLU"
  bottom: "inception_4b/pool_proj"
  top: "inception_4b/pool_proj"
}
layer {
  name: "inception_4b/output"
  type: "Concat"
  bottom: "inception_4b/1x1"
  bottom: "inception_4b/3x3"
  bottom: "inception_4b/5x5"
  bottom: "inception_4b/pool_proj"
  top: "inception_4b/output"
}
layer {
  name: "inception_4c/1x1"
  type: "Convolution"
  bottom: "inception_4b/output"
  top: "inception_4c/1x1"
  param {
    lr_mult: 1
    decay_mult: 1
  }
  param {
    lr_mult: 2
    decay_mult: 0
  }
  convolution_param {
    num_output: 128
    kernel_size: 1
    weight_filler {
      type: "xavier"
      std: 0.03
    }
    bias_filler {
      type: "constant"
      value: 0.2
    }
  }
}
layer {
  name: "inception_4c/relu_1x1"
  type: "ReLU"
  bottom: "inception_4c/1x1"
  top: "inception_4c/1x1"
}
layer {
  name: "inception_4c/3x3_reduce"
  type: "Convolution"
  bottom: "inception_4b/output"
  top: "inception_4c/3x3_reduce"
  param {
    lr_mult: 1
    decay_mult: 1
  }
  param {
    lr_mult: 2
    decay_mult: 0
  }
  convolution_param {
    num_output: 128
    kernel_size: 1
    weight_filler {
      type: "xavier"
      std: 0.09
    }
    bias_filler {
      type: "constant"
      value: 0.2
    }
  }
}
layer {
  name: "inception_4c/relu_3x3_reduce"
  type: "ReLU"
  bottom: "inception_4c/3x3_reduce"
  top: "inception_4c/3x3_reduce"
}
layer {
  name: "inception_4c/3x3"
  type: "Convolution"
  bottom: "inception_4c/3x3_reduce"
  top: "inception_4c/3x3"
  param {
    lr_mult: 1
    decay_mult: 1
  }
  param {
    lr_mult: 2
    decay_mult: 0
  }
  convolution_param {
    num_output: 256
    pad: 1
    kernel_size: 3
    weight_filler {
      type: "xavier"
      std: 0.03
    }
    bias_filler {
      type: "constant"
      value: 0.2
    }
  }
}
layer {
  name: "inception_4c/relu_3x3"
  type: "ReLU"
  bottom: "inception_4c/3x3"
  top: "inception_4c/3x3"
}
layer {
  name: "inception_4c/5x5_reduce"
  type: "Convolution"
  bottom: "inception_4b/output"
  top: "inception_4c/5x5_reduce"
  param {
    lr_mult: 1
    decay_mult: 1
  }
  param {
    lr_mult: 2
    decay_mult: 0
  }
  convolution_param {
    num_output: 24
    kernel_size: 1
    weight_filler {
      type: "xavier"
      std: 0.2
    }
    bias_filler {
      type: "constant"
      value: 0.2
    }
  }
}
layer {
  name: "inception_4c/relu_5x5_reduce"
  type: "ReLU"
  bottom: "inception_4c/5x5_reduce"
  top: "inception_4c/5x5_reduce"
}
layer {
  name: "inception_4c/5x5"
  type: "Convolution"
  bottom: "inception_4c/5x5_reduce"
  top: "inception_4c/5x5"
  param {
    lr_mult: 1
    decay_mult: 1
  }
  param {
    lr_mult: 2
    decay_mult: 0
  }
  convolution_param {
    num_output: 64
    pad: 2
    kernel_size: 5
    weight_filler {
      type: "xavier"
      std: 0.03
    }
    bias_filler {
      type: "constant"
      value: 0.2
    }
  }
}
layer {
  name: "inception_4c/relu_5x5"
  type: "ReLU"
  bottom: "inception_4c/5x5"
  top: "inception_4c/5x5"
}
layer {
  name: "inception_4c/pool"
  type: "Pooling"
  bottom: "inception_4b/output"
  top: "inception_4c/pool"
  pooling_param {
    pool: MAX
    kernel_size: 3
    stride: 1
    pad: 1
  }
}
layer {
  name: "inception_4c/pool_proj"
  type: "Convolution"
  bottom: "inception_4c/pool"
  top: "inception_4c/pool_proj"
  param {
    lr_mult: 1
    decay_mult: 1
  }
  param {
    lr_mult: 2
    decay_mult: 0
  }
  convolution_param {
    num_output: 64
    kernel_size: 1
    weight_filler {
      type: "xavier"
      std: 0.1
    }
    bias_filler {
      type: "constant"
      value: 0.2
    }
  }
}
layer {
  name: "inception_4c/relu_pool_proj"
  type: "ReLU"
  bottom: "inception_4c/pool_proj"
  top: "inception_4c/pool_proj"
}
layer {
  name: "inception_4c/output"
  type: "Concat"
  bottom: "inception_4c/1x1"
  bottom: "inception_4c/3x3"
  bottom: "inception_4c/5x5"
  bottom: "inception_4c/pool_proj"
  top: "inception_4c/output"
}
layer {
  name: "inception_4d/1x1"
  type: "Convolution"
  bottom: "inception_4c/output"
  top: "inception_4d/1x1"
  param {
    lr_mult: 1
    decay_mult: 1
  }
  param {
    lr_mult: 2
    decay_mult: 0
  }
  convolution_param {
    num_output: 112
    kernel_size: 1
    weight_filler {
      type: "xavier"
      std: 0.03
    }
    bias_filler {
      type: "constant"
      value: 0.2
    }
  }
}
layer {
  name: "inception_4d/relu_1x1"
  type: "ReLU"
  bottom: "inception_4d/1x1"
  top: "inception_4d/1x1"
}
layer {
  name: "inception_4d/3x3_reduce"
  type: "Convolution"
  bottom: "inception_4c/output"
  top: "inception_4d/3x3_reduce"
  param {
    lr_mult: 1
    decay_mult: 1
  }
  param {
    lr_mult: 2
    decay_mult: 0
  }
  convolution_param {
    num_output: 144
    kernel_size: 1
    weight_filler {
      type: "xavier"
      std: 0.09
    }
    bias_filler {
      type: "constant"
      value: 0.2
    }
  }
}
layer {
  name: "inception_4d/relu_3x3_reduce"
  type: "ReLU"
  bottom: "inception_4d/3x3_reduce"
  top: "inception_4d/3x3_reduce"
}
layer {
  name: "inception_4d/3x3"
  type: "Convolution"
  bottom: "inception_4d/3x3_reduce"
  top: "inception_4d/3x3"
  param {
    lr_mult: 1
    decay_mult: 1
  }
  param {
    lr_mult: 2
    decay_mult: 0
  }
  convolution_param {
    num_output: 288
    pad: 1
    kernel_size: 3
    weight_filler {
      type: "xavier"
      std: 0.03
    }
    bias_filler {
      type: "constant"
      value: 0.2
    }
  }
}
layer {
  name: "inception_4d/relu_3x3"
  type: "ReLU"
  bottom: "inception_4d/3x3"
  top: "inception_4d/3x3"
}
layer {
  name: "inception_4d/5x5_reduce"
  type: "Convolution"
  bottom: "inception_4c/output"
  top: "inception_4d/5x5_reduce"
  param {
    lr_mult: 1
    decay_mult: 1
  }
  param {
    lr_mult: 2
    decay_mult: 0
  }
  convolution_param {
    num_output: 32
    kernel_size: 1
    weight_filler {
      type: "xavier"
      std: 0.2
    }
    bias_filler {
      type: "constant"
      value: 0.2
    }
  }
}
layer {
  name: "inception_4d/relu_5x5_reduce"
  type: "ReLU"
  bottom: "inception_4d/5x5_reduce"
  top: "inception_4d/5x5_reduce"
}
layer {
  name: "inception_4d/5x5"
  type: "Convolution"
  bottom: "inception_4d/5x5_reduce"
  top: "inception_4d/5x5"
  param {
    lr_mult: 1
    decay_mult: 1
  }
  param {
    lr_mult: 2
    decay_mult: 0
  }
  convolution_param {
    num_output: 64
    pad: 2
    kernel_size: 5
    weight_filler {
      type: "xavier"
      std: 0.03
    }
    bias_filler {
      type: "constant"
      value: 0.2
    }
  }
}
layer {
  name: "inception_4d/relu_5x5"
  type: "ReLU"
  bottom: "inception_4d/5x5"
  top: "inception_4d/5x5"
}
layer {
  name: "inception_4d/pool"
  type: "Pooling"
  bottom: "inception_4c/output"
  top: "inception_4d/pool"
  pooling_param {
    pool: MAX
    kernel_size: 3
    stride: 1
    pad: 1
  }
}
layer {
  name: "inception_4d/pool_proj"
  type: "Convolution"
  bottom: "inception_4d/pool"
  top: "inception_4d/pool_proj"
  param {
    lr_mult: 1
    decay_mult: 1
  }
  param {
    lr_mult: 2
    decay_mult: 0
  }
  convolution_param {
    num_output: 64
    kernel_size: 1
    weight_filler {
      type: "xavier"
      std: 0.1
    }
    bias_filler {
      type: "constant"
      value: 0.2
    }
  }
}
layer {
  name: "inception_4d/relu_pool_proj"
  type: "ReLU"
  bottom: "inception_4d/pool_proj"
  top: "inception_4d/pool_proj"
}
layer {
  name: "inception_4d/output"
  type: "Concat"
  bottom: "inception_4d/1x1"
  bottom: "inception_4d/3x3"
  bottom: "inception_4d/5x5"
  bottom: "inception_4d/pool_proj"
  top: "inception_4d/output"
}
layer {
  name: "inception_4e/1x1"
  type: "Convolution"
  bottom: "inception_4d/output"
  top: "inception_4e/1x1"
  param {
    lr_mult: 1
    decay_mult: 1
  }
  param {
    lr_mult: 2
    decay_mult: 0
  }
  convolution_param {
    num_output: 256
    kernel_size: 1
    weight_filler {
      type: "xavier"
      std: 0.03
    }
    bias_filler {
      type: "constant"
      value: 0.2
    }
  }
}
layer {
  name: "inception_4e/relu_1x1"
  type: "ReLU"
  bottom: "inception_4e/1x1"
  top: "inception_4e/1x1"
}
layer {
  name: "inception_4e/3x3_reduce"
  type: "Convolution"
  bottom: "inception_4d/output"
  top: "inception_4e/3x3_reduce"
  param {
    lr_mult: 1
    decay_mult: 1
  }
  param {
    lr_mult: 2
    decay_mult: 0
  }
  convolution_param {
    num_output: 160
    kernel_size: 1
    weight_filler {
      type: "xavier"
      std: 0.09
    }
    bias_filler {
      type: "constant"
      value: 0.2
    }
  }
}
layer {
  name: "inception_4e/relu_3x3_reduce"
  type: "ReLU"
  bottom: "inception_4e/3x3_reduce"
  top: "inception_4e/3x3_reduce"
}
layer {
  name: "inception_4e/3x3"
  type: "Convolution"
  bottom: "inception_4e/3x3_reduce"
  top: "inception_4e/3x3"
  param {
    lr_mult: 1
    decay_mult: 1
  }
  param {
    lr_mult: 2
    decay_mult: 0
  }
  convolution_param {
    num_output: 320
    pad: 1
    kernel_size: 3
    weight_filler {
      type: "xavier"
      std: 0.03
    }
    bias_filler {
      type: "constant"
      value: 0.2
    }
  }
}
layer {
  name: "inception_4e/relu_3x3"
  type: "ReLU"
  bottom: "inception_4e/3x3"
  top: "inception_4e/3x3"
}
layer {
  name: "inception_4e/5x5_reduce"
  type: "Convolution"
  bottom: "inception_4d/output"
  top: "inception_4e/5x5_reduce"
  param {
    lr_mult: 1
    decay_mult: 1
  }
  param {
    lr_mult: 2
    decay_mult: 0
  }
  convolution_param {
    num_output: 32
    kernel_size: 1
    weight_filler {
      type: "xavier"
      std: 0.2
    }
    bias_filler {
      type: "constant"
      value: 0.2
    }
  }
}
layer {
  name: "inception_4e/relu_5x5_reduce"
  type: "ReLU"
  bottom: "inception_4e/5x5_reduce"
  top: "inception_4e/5x5_reduce"
}
layer {
  name: "inception_4e/5x5"
  type: "Convolution"
  bottom: "inception_4e/5x5_reduce"
  top: "inception_4e/5x5"
  param {
    lr_mult: 1
    decay_mult: 1
  }
  param {
    lr_mult: 2
    decay_mult: 0
  }
  convolution_param {
    num_output: 128
    pad: 2
    kernel_size: 5
    weight_filler {
      type: "xavier"
      std: 0.03
    }
    bias_filler {
      type: "constant"
      value: 0.2
    }
  }
}
layer {
  name: "inception_4e/relu_5x5"
  type: "ReLU"
  bottom: "inception_4e/5x5"
  top: "inception_4e/5x5"
}
layer {
  name: "inception_4e/pool"
  type: "Pooling"
  bottom: "inception_4d/output"
  top: "inception_4e/pool"
  pooling_param {
    pool: MAX
    kernel_size: 3
    stride: 1
    pad: 1
  }
}
layer {
  name: "inception_4e/pool_proj"
  type: "Convolution"
  bottom: "inception_4e/pool"
  top: "inception_4e/pool_proj"
  param {
    lr_mult: 1
    decay_mult: 1
  }
  param {
    lr_mult: 2
    decay_mult: 0
  }
  convolution_param {
    num_output: 128
    kernel_size: 1
    weight_filler {
      type: "xavier"
      std: 0.1
    }
    bias_filler {
      type: "constant"
      value: 0.2
    }
  }
}
layer {
  name: "inception_4e/relu_pool_proj"
  type: "ReLU"
  bottom: "inception_4e/pool_proj"
  top: "inception_4e/pool_proj"
}
layer {
  name: "inception_4e/output"
  type: "Concat"
  bottom: "inception_4e/1x1"
  bottom: "inception_4e/3x3"
  bottom: "inception_4e/5x5"
  bottom: "inception_4e/pool_proj"
  top: "inception_4e/output"
}
layer {
  name: "pool4/3x3_s2"
  type: "Pooling"
  bottom: "inception_4e/output"
  top: "pool4/3x3_s2"
  pooling_param {
    pool: MAX
    kernel_size: 3
    stride: 2
  }
}
layer {
  name: "inception_5a/1x1"
  type: "Convolution"
  bottom: "pool4/3x3_s2"
  top: "inception_5a/1x1"
  param {
    lr_mult: 1
    decay_mult: 1
  }
  param {
    lr_mult: 2
    decay_mult: 0
  }
  convolution_param {
    num_output: 256
    kernel_size: 1
    weight_filler {
      type: "xavier"
      std: 0.03
    }
    bias_filler {
      type: "constant"
      value: 0.2
    }
  }
}
layer {
  name: "inception_5a/relu_1x1"
  type: "ReLU"
  bottom: "inception_5a/1x1"
  top: "inception_5a/1x1"
}
layer {
  name: "inception_5a/3x3_reduce"
  type: "Convolution"
  bottom: "pool4/3x3_s2"
  top: "inception_5a/3x3_reduce"
  param {
    lr_mult: 1
    decay_mult: 1
  }
  param {
    lr_mult: 2
    decay_mult: 0
  }
  convolution_param {
    num_output: 160
    kernel_size: 1
    weight_filler {
      type: "xavier"
      std: 0.09
    }
    bias_filler {
      type: "constant"
      value: 0.2
    }
  }
}
layer {
  name: "inception_5a/relu_3x3_reduce"
  type: "ReLU"
  bottom: "inception_5a/3x3_reduce"
  top: "inception_5a/3x3_reduce"
}
layer {
  name: "inception_5a/3x3"
  type: "Convolution"
  bottom: "inception_5a/3x3_reduce"
  top: "inception_5a/3x3"
  param {
    lr_mult: 1
    decay_mult: 1
  }
  param {
    lr_mult: 2
    decay_mult: 0
  }
  convolution_param {
    num_output: 320
    pad: 1
    kernel_size: 3
    weight_filler {
      type: "xavier"
      std: 0.03
    }
    bias_filler {
      type: "constant"
      value: 0.2
    }
  }
}
layer {
  name: "inception_5a/relu_3x3"
  type: "ReLU"
  bottom: "inception_5a/3x3"
  top: "inception_5a/3x3"
}
layer {
  name: "inception_5a/5x5_reduce"
  type: "Convolution"
  bottom: "pool4/3x3_s2"
  top: "inception_5a/5x5_reduce"
  param {
    lr_mult: 1
    decay_mult: 1
  }
  param {
    lr_mult: 2
    decay_mult: 0
  }
  convolution_param {
    num_output: 32
    kernel_size: 1
    weight_filler {
      type: "xavier"
      std: 0.2
    }
    bias_filler {
      type: "constant"
      value: 0.2
    }
  }
}
layer {
  name: "inception_5a/relu_5x5_reduce"
  type: "ReLU"
  bo
I0823 09:38:47.499140  1613 net.cpp:434] Input 0 -> data
I0823 09:38:47.499939  1613 layer_factory.hpp:75] Creating layer conv1/7x7_s2
I0823 09:38:47.499954  1613 net.cpp:110] Creating Layer conv1/7x7_s2
I0823 09:38:47.499958  1613 net.cpp:476] conv1/7x7_s2 <- data
I0823 09:38:47.499964  1613 net.cpp:432] conv1/7x7_s2 -> conv1/7x7_s2
I0823 09:38:47.501916  1613 net.cpp:155] Setting up conv1/7x7_s2
I0823 09:38:47.501931  1613 net.cpp:163] Top shape: 1 64 112 112 (802816)
I0823 09:38:47.501941  1613 layer_factory.hpp:75] Creating layer conv1/relu_7x7
I0823 09:38:47.501948  1613 net.cpp:110] Creating Layer conv1/relu_7x7
I0823 09:38:47.501951  1613 net.cpp:476] conv1/relu_7x7 <- conv1/7x7_s2
I0823 09:38:47.501955  1613 net.cpp:419] conv1/relu_7x7 -> conv1/7x7_s2 (in-place)
I0823 09:38:47.502634  1613 net.cpp:155] Setting up conv1/relu_7x7
I0823 09:38:47.502642  1613 net.cpp:163] Top shape: 1 64 112 112 (802816)
I0823 09:38:47.502646  1613 layer_factory.hpp:75] Creating layer pool1/3x3_s2
I0823 09:38:47.502652  1613 net.cpp:110] Creating Layer pool1/3x3_s2
I0823 09:38:47.502655  1613 net.cpp:476] pool1/3x3_s2 <- conv1/7x7_s2
I0823 09:38:47.502660  1613 net.cpp:432] pool1/3x3_s2 -> pool1/3x3_s2
I0823 09:38:47.503345  1613 net.cpp:155] Setting up pool1/3x3_s2
I0823 09:38:47.503355  1613 net.cpp:163] Top shape: 1 64 56 56 (200704)
I0823 09:38:47.503358  1613 layer_factory.hpp:75] Creating layer pool1/norm1
I0823 09:38:47.503365  1613 net.cpp:110] Creating Layer pool1/norm1
I0823 09:38:47.503368  1613 net.cpp:476] pool1/norm1 <- pool1/3x3_s2
I0823 09:38:47.503372  1613 net.cpp:432] pool1/norm1 -> pool1/norm1
I0823 09:38:47.503381  1613 net.cpp:155] Setting up pool1/norm1
I0823 09:38:47.503384  1613 net.cpp:163] Top shape: 1 64 56 56 (200704)
I0823 09:38:47.503387  1613 layer_factory.hpp:75] Creating layer conv2/3x3_reduce
I0823 09:38:47.503393  1613 net.cpp:110] Creating Layer conv2/3x3_reduce
I0823 09:38:47.503396  1613 net.cpp:476] conv2/3x3_reduce <- pool1/norm1
I0823 09:38:47.503401  1613 net.cpp:432] conv2/3x3_reduce -> conv2/3x3_reduce
I0823 09:38:47.503448  1613 net.cpp:155] Setting up conv2/3x3_reduce
I0823 09:38:47.503453  1613 net.cpp:163] Top shape: 1 64 56 56 (200704)
I0823 09:38:47.503459  1613 layer_factory.hpp:75] Creating layer conv2/relu_3x3_reduce
I0823 09:38:47.503463  1613 net.cpp:110] Creating Layer conv2/relu_3x3_reduce
I0823 09:38:47.503466  1613 net.cpp:476] conv2/relu_3x3_reduce <- conv2/3x3_reduce
I0823 09:38:47.503470  1613 net.cpp:419] conv2/relu_3x3_reduce -> conv2/3x3_reduce (in-place)
I0823 09:38:47.503474  1613 net.cpp:155] Setting up conv2/relu_3x3_reduce
I0823 09:38:47.503479  1613 net.cpp:163] Top shape: 1 64 56 56 (200704)
I0823 09:38:47.503486  1613 layer_factory.hpp:75] Creating layer conv2/3x3
I0823 09:38:47.503491  1613 net.cpp:110] Creating Layer conv2/3x3
I0823 09:38:47.503494  1613 net.cpp:476] conv2/3x3 <- conv2/3x3_reduce
I0823 09:38:47.503499  1613 net.cpp:432] conv2/3x3 -> conv2/3x3
I0823 09:38:47.504537  1613 net.cpp:155] Setting up conv2/3x3
I0823 09:38:47.504559  1613 net.cpp:163] Top shape: 1 192 56 56 (602112)
I0823 09:38:47.504571  1613 layer_factory.hpp:75] Creating layer conv2/relu_3x3
I0823 09:38:47.504578  1613 net.cpp:110] Creating Layer conv2/relu_3x3
I0823 09:38:47.504586  1613 net.cpp:476] conv2/relu_3x3 <- conv2/3x3
I0823 09:38:47.504593  1613 net.cpp:419] conv2/relu_3x3 -> conv2/3x3 (in-place)
I0823 09:38:47.504601  1613 net.cpp:155] Setting up conv2/relu_3x3
I0823 09:38:47.504608  1613 net.cpp:163] Top shape: 1 192 56 56 (602112)
I0823 09:38:47.504616  1613 layer_factory.hpp:75] Creating layer conv2/norm2
I0823 09:38:47.504633  1613 net.cpp:110] Creating Layer conv2/norm2
I0823 09:38:47.504647  1613 net.cpp:476] conv2/norm2 <- conv2/3x3
I0823 09:38:47.504653  1613 net.cpp:432] conv2/norm2 -> conv2/norm2
I0823 09:38:47.504662  1613 net.cpp:155] Setting up conv2/norm2
I0823 09:38:47.504669  1613 net.cpp:163] Top shape: 1 192 56 56 (602112)
I0823 09:38:47.504674  1613 layer_factory.hpp:75] Creating layer pool2/3x3_s2
I0823 09:38:47.504683  1613 net.cpp:110] Creating Layer pool2/3x3_s2
I0823 09:38:47.504688  1613 net.cpp:476] pool2/3x3_s2 <- conv2/norm2
I0823 09:38:47.504694  1613 net.cpp:432] pool2/3x3_s2 -> pool2/3x3_s2
I0823 09:38:47.504703  1613 net.cpp:155] Setting up pool2/3x3_s2
I0823 09:38:47.504709  1613 net.cpp:163] Top shape: 1 192 28 28 (150528)
I0823 09:38:47.504714  1613 layer_factory.hpp:75] Creating layer pool2/3x3_s2_pool2/3x3_s2_0_split
I0823 09:38:47.505138  1613 net.cpp:110] Creating Layer pool2/3x3_s2_pool2/3x3_s2_0_split
I0823 09:38:47.505152  1613 net.cpp:476] pool2/3x3_s2_pool2/3x3_s2_0_split <- pool2/3x3_s2
I0823 09:38:47.505163  1613 net.cpp:432] pool2/3x3_s2_pool2/3x3_s2_0_split -> pool2/3x3_s2_pool2/3x3_s2_0_split_0
I0823 09:38:47.505170  1613 net.cpp:432] pool2/3x3_s2_pool2/3x3_s2_0_split -> pool2/3x3_s2_pool2/3x3_s2_0_split_1
I0823 09:38:47.505175  1613 net.cpp:432] pool2/3x3_s2_pool2/3x3_s2_0_split -> pool2/3x3_s2_pool2/3x3_s2_0_split_2
I0823 09:38:47.505179  1613 net.cpp:432] pool2/3x3_s2_pool2/3x3_s2_0_split -> pool2/3x3_s2_pool2/3x3_s2_0_split_3
I0823 09:38:47.505188  1613 net.cpp:155] Setting up pool2/3x3_s2_pool2/3x3_s2_0_split
I0823 09:38:47.505193  1613 net.cpp:163] Top shape: 1 192 28 28 (150528)
I0823 09:38:47.505198  1613 net.cpp:163] Top shape: 1 192 28 28 (150528)
I0823 09:38:47.505200  1613 net.cpp:163] Top shape: 1 192 28 28 (150528)
I0823 09:38:47.505204  1613 net.cpp:163] Top shape: 1 192 28 28 (150528)
I0823 09:38:47.505208  1613 layer_factory.hpp:75] Creating layer inception_3a/1x1
I0823 09:38:47.505213  1613 net.cpp:110] Creating Layer inception_3a/1x1
I0823 09:38:47.505216  1613 net.cpp:476] inception_3a/1x1 <- pool2/3x3_s2_pool2/3x3_s2_0_split_0
I0823 09:38:47.505223  1613 net.cpp:432] inception_3a/1x1 -> inception_3a/1x1
I0823 09:38:47.505321  1613 net.cpp:155] Setting up inception_3a/1x1
I0823 09:38:47.505326  1613 net.cpp:163] Top shape: 1 64 28 28 (50176)
I0823 09:38:47.505331  1613 layer_factory.hpp:75] Creating layer inception_3a/relu_1x1
I0823 09:38:47.505336  1613 net.cpp:110] Creating Layer inception_3a/relu_1x1
I0823 09:38:47.505338  1613 net.cpp:476] inception_3a/relu_1x1 <- inception_3a/1x1
I0823 09:38:47.505344  1613 net.cpp:419] inception_3a/relu_1x1 -> inception_3a/1x1 (in-place)
I0823 09:38:47.505349  1613 net.cpp:155] Setting up inception_3a/relu_1x1
I0823 09:38:47.505353  1613 net.cpp:163] Top shape: 1 64 28 28 (50176)
I0823 09:38:47.505357  1613 layer_factory.hpp:75] Creating layer inception_3a/3x3_reduce
I0823 09:38:47.505360  1613 net.cpp:110] Creating Layer inception_3a/3x3_reduce
I0823 09:38:47.505363  1613 net.cpp:476] inception_3a/3x3_reduce <- pool2/3x3_s2_pool2/3x3_s2_0_split_1
I0823 09:38:47.505369  1613 net.cpp:432] inception_3a/3x3_reduce -> inception_3a/3x3_reduce
I0823 09:38:47.505519  1613 net.cpp:155] Setting up inception_3a/3x3_reduce
I0823 09:38:47.505525  1613 net.cpp:163] Top shape: 1 96 28 28 (75264)
I0823 09:38:47.505533  1613 layer_factory.hpp:75] Creating layer inception_3a/relu_3x3_reduce
I0823 09:38:47.505537  1613 net.cpp:110] Creating Layer inception_3a/relu_3x3_reduce
I0823 09:38:47.505540  1613 net.cpp:476] inception_3a/relu_3x3_reduce <- inception_3a/3x3_reduce
I0823 09:38:47.505544  1613 net.cpp:419] inception_3a/relu_3x3_reduce -> inception_3a/3x3_reduce (in-place)
I0823 09:38:47.505549  1613 net.cpp:155] Setting up inception_3a/relu_3x3_reduce
I0823 09:38:47.505553  1613 net.cpp:163] Top shape: 1 96 28 28 (75264)
I0823 09:38:47.505556  1613 layer_factory.hpp:75] Creating layer inception_3a/3x3
I0823 09:38:47.505560  1613 net.cpp:110] Creating Layer inception_3a/3x3
I0823 09:38:47.505563  1613 net.cpp:476] inception_3a/3x3 <- inception_3a/3x3_reduce
I0823 09:38:47.505569  1613 net.cpp:432] inception_3a/3x3 -> inception_3a/3x3
I0823 09:38:47.506366  1613 net.cpp:155] Setting up inception_3a/3x3
I0823 09:38:47.506372  1613 net.cpp:163] Top shape: 1 128 28 28 (100352)
I0823 09:38:47.506377  1613 layer_factory.hpp:75] Creating layer inception_3a/relu_3x3
I0823 09:38:47.506383  1613 net.cpp:110] Creating Layer inception_3a/relu_3x3
I0823 09:38:47.506387  1613 net.cpp:476] inception_3a/relu_3x3 <- inception_3a/3x3
I0823 09:38:47.506392  1613 net.cpp:419] inception_3a/relu_3x3 -> inception_3a/3x3 (in-place)
I0823 09:38:47.506395  1613 net.cpp:155] Setting up inception_3a/relu_3x3
I0823 09:38:47.506399  1613 net.cpp:163] Top shape: 1 128 28 28 (100352)
I0823 09:38:47.506402  1613 layer_factory.hpp:75] Creating layer inception_3a/5x5_reduce
I0823 09:38:47.506408  1613 net.cpp:110] Creating Layer inception_3a/5x5_reduce
I0823 09:38:47.506412  1613 net.cpp:476] inception_3a/5x5_reduce <- pool2/3x3_s2_pool2/3x3_s2_0_split_2
I0823 09:38:47.506415  1613 net.cpp:432] inception_3a/5x5_reduce -> inception_3a/5x5_reduce
I0823 09:38:47.506449  1613 net.cpp:155] Setting up inception_3a/5x5_reduce
I0823 09:38:47.506454  1613 net.cpp:163] Top shape: 1 16 28 28 (12544)
I0823 09:38:47.506459  1613 layer_factory.hpp:75] Creating layer inception_3a/relu_5x5_reduce
I0823 09:38:47.506464  1613 net.cpp:110] Creating Layer inception_3a/relu_5x5_reduce
I0823 09:38:47.506467  1613 net.cpp:476] inception_3a/relu_5x5_reduce <- inception_3a/5x5_reduce
I0823 09:38:47.506471  1613 net.cpp:419] inception_3a/relu_5x5_reduce -> inception_3a/5x5_reduce (in-place)
I0823 09:38:47.506475  1613 net.cpp:155] Setting up inception_3a/relu_5x5_reduce
I0823 09:38:47.506479  1613 net.cpp:163] Top shape: 1 16 28 28 (12544)
I0823 09:38:47.506482  1613 layer_factory.hpp:75] Creating layer inception_3a/5x5
I0823 09:38:47.506486  1613 net.cpp:110] Creating Layer inception_3a/5x5
I0823 09:38:47.506489  1613 net.cpp:476] inception_3a/5x5 <- inception_3a/5x5_reduce
I0823 09:38:47.506495  1613 net.cpp:432] inception_3a/5x5 -> inception_3a/5x5
I0823 09:38:47.506593  1613 net.cpp:155] Setting up inception_3a/5x5
I0823 09:38:47.506598  1613 net.cpp:163] Top shape: 1 32 28 28 (25088)
I0823 09:38:47.506603  1613 layer_factory.hpp:75] Creating layer inception_3a/relu_5x5
I0823 09:38:47.506608  1613 net.cpp:110] Creating Layer inception_3a/relu_5x5
I0823 09:38:47.506611  1613 net.cpp:476] inception_3a/relu_5x5 <- inception_3a/5x5
I0823 09:38:47.506615  1613 net.cpp:419] inception_3a/relu_5x5 -> inception_3a/5x5 (in-place)
I0823 09:38:47.506619  1613 net.cpp:155] Setting up inception_3a/relu_5x5
I0823 09:38:47.506623  1613 net.cpp:163] Top shape: 1 32 28 28 (25088)
I0823 09:38:47.506625  1613 layer_factory.hpp:75] Creating layer inception_3a/pool
I0823 09:38:47.506630  1613 net.cpp:110] Creating Layer inception_3a/pool
I0823 09:38:47.506633  1613 net.cpp:476] inception_3a/pool <- pool2/3x3_s2_pool2/3x3_s2_0_split_3
I0823 09:38:47.506639  1613 net.cpp:432] inception_3a/pool -> inception_3a/pool
I0823 09:38:47.506645  1613 net.cpp:155] Setting up inception_3a/pool
I0823 09:38:47.506654  1613 net.cpp:163] Top shape: 1 192 28 28 (150528)
I0823 09:38:47.506657  1613 layer_factory.hpp:75] Creating layer inception_3a/pool_proj
I0823 09:38:47.506661  1613 net.cpp:110] Creating Layer inception_3a/pool_proj
I0823 09:38:47.506664  1613 net.cpp:476] inception_3a/pool_proj <- inception_3a/pool
I0823 09:38:47.506670  1613 net.cpp:432] inception_3a/pool_proj -> inception_3a/pool_proj
I0823 09:38:47.506724  1613 net.cpp:155] Setting up inception_3a/pool_proj
I0823 09:38:47.506729  1613 net.cpp:163] Top shape: 1 32 28 28 (25088)
I0823 09:38:47.506736  1613 layer_factory.hpp:75] Creating layer inception_3a/relu_pool_proj
I0823 09:38:47.506741  1613 net.cpp:110] Creating Layer inception_3a/relu_pool_proj
I0823 09:38:47.506743  1613 net.cpp:476] inception_3a/relu_pool_proj <- inception_3a/pool_proj
I0823 09:38:47.506747  1613 net.cpp:419] inception_3a/relu_pool_proj -> inception_3a/pool_proj (in-place)
I0823 09:38:47.506752  1613 net.cpp:155] Setting up inception_3a/relu_pool_proj
I0823 09:38:47.506755  1613 net.cpp:163] Top shape: 1 32 28 28 (25088)
I0823 09:38:47.506758  1613 layer_factory.hpp:75] Creating layer inception_3a/output
I0823 09:38:47.506764  1613 net.cpp:110] Creating Layer inception_3a/output
I0823 09:38:47.506767  1613 net.cpp:476] inception_3a/output <- inception_3a/1x1
I0823 09:38:47.506770  1613 net.cpp:476] inception_3a/output <- inception_3a/3x3
I0823 09:38:47.506774  1613 net.cpp:476] inception_3a/output <- inception_3a/5x5
I0823 09:38:47.506778  1613 net.cpp:476] inception_3a/output <- inception_3a/pool_proj
I0823 09:38:47.506783  1613 net.cpp:432] inception_3a/output -> inception_3a/output
I0823 09:38:47.506790  1613 net.cpp:155] Setting up inception_3a/output
I0823 09:38:47.506794  1613 net.cpp:163] Top shape: 1 256 28 28 (200704)
I0823 09:38:47.506798  1613 layer_factory.hpp:75] Creating layer inception_3a/output_inception_3a/output_0_split
I0823 09:38:47.506801  1613 net.cpp:110] Creating Layer inception_3a/output_inception_3a/output_0_split
I0823 09:38:47.506804  1613 net.cpp:476] inception_3a/output_inception_3a/output_0_split <- inception_3a/output
I0823 09:38:47.506810  1613 net.cpp:432] inception_3a/output_inception_3a/output_0_split -> inception_3a/output_inception_3a/output_0_split_0
I0823 09:38:47.506815  1613 net.cpp:432] inception_3a/output_inception_3a/output_0_split -> inception_3a/output_inception_3a/output_0_split_1
I0823 09:38:47.506820  1613 net.cpp:432] inception_3a/output_inception_3a/output_0_split -> inception_3a/output_inception_3a/output_0_split_2
I0823 09:38:47.506824  1613 net.cpp:432] inception_3a/output_inception_3a/output_0_split -> inception_3a/output_inception_3a/output_0_split_3
I0823 09:38:47.506829  1613 net.cpp:155] Setting up inception_3a/output_inception_3a/output_0_split
I0823 09:38:47.506834  1613 net.cpp:163] Top shape: 1 256 28 28 (200704)
I0823 09:38:47.506837  1613 net.cpp:163] Top shape: 1 256 28 28 (200704)
I0823 09:38:47.506840  1613 net.cpp:163] Top shape: 1 256 28 28 (200704)
I0823 09:38:47.506844  1613 net.cpp:163] Top shape: 1 256 28 28 (200704)
I0823 09:38:47.506847  1613 layer_factory.hpp:75] Creating layer inception_3b/1x1
I0823 09:38:47.506852  1613 net.cpp:110] Creating Layer inception_3b/1x1
I0823 09:38:47.506856  1613 net.cpp:476] inception_3b/1x1 <- inception_3a/output_inception_3a/output_0_split_0
I0823 09:38:47.506861  1613 net.cpp:432] inception_3b/1x1 -> inception_3b/1x1
I0823 09:38:47.507105  1613 net.cpp:155] Setting up inception_3b/1x1
I0823 09:38:47.507110  1613 net.cpp:163] Top shape: 1 128 28 28 (100352)
I0823 09:38:47.507115  1613 layer_factory.hpp:75] Creating layer inception_3b/relu_1x1
I0823 09:38:47.507119  1613 net.cpp:110] Creating Layer inception_3b/relu_1x1
I0823 09:38:47.507123  1613 net.cpp:476] inception_3b/relu_1x1 <- inception_3b/1x1
I0823 09:38:47.507128  1613 net.cpp:419] inception_3b/relu_1x1 -> inception_3b/1x1 (in-place)
I0823 09:38:47.507132  1613 net.cpp:155] Setting up inception_3b/relu_1x1
I0823 09:38:47.507135  1613 net.cpp:163] Top shape: 1 128 28 28 (100352)
I0823 09:38:47.507138  1613 layer_factory.hpp:75] Creating layer inception_3b/3x3_reduce
I0823 09:38:47.507148  1613 net.cpp:110] Creating Layer inception_3b/3x3_reduce
I0823 09:38:47.507151  1613 net.cpp:476] inception_3b/3x3_reduce <- inception_3a/output_inception_3a/output_0_split_1
I0823 09:38:47.507158  1613 net.cpp:432] inception_3b/3x3_reduce -> inception_3b/3x3_reduce
I0823 09:38:47.507422  1613 net.cpp:155] Setting up inception_3b/3x3_reduce
I0823 09:38:47.507432  1613 net.cpp:163] Top shape: 1 128 28 28 (100352)
I0823 09:38:47.507437  1613 layer_factory.hpp:75] Creating layer inception_3b/relu_3x3_reduce
I0823 09:38:47.507441  1613 net.cpp:110] Creating Layer inception_3b/relu_3x3_reduce
I0823 09:38:47.507446  1613 net.cpp:476] inception_3b/relu_3x3_reduce <- inception_3b/3x3_reduce
I0823 09:38:47.507449  1613 net.cpp:419] inception_3b/relu_3x3_reduce -> inception_3b/3x3_reduce (in-place)
I0823 09:38:47.507454  1613 net.cpp:155] Setting up inception_3b/relu_3x3_reduce
I0823 09:38:47.507458  1613 net.cpp:163] Top shape: 1 128 28 28 (100352)
I0823 09:38:47.507462  1613 layer_factory.hpp:75] Creating layer inception_3b/3x3
I0823 09:38:47.507467  1613 net.cpp:110] Creating Layer inception_3b/3x3
I0823 09:38:47.507470  1613 net.cpp:476] inception_3b/3x3 <- inception_3b/3x3_reduce
I0823 09:38:47.507477  1613 net.cpp:432] inception_3b/3x3 -> inception_3b/3x3
I0823 09:38:47.509089  1613 net.cpp:155] Setting up inception_3b/3x3
I0823 09:38:47.509099  1613 net.cpp:163] Top shape: 1 192 28 28 (150528)
I0823 09:38:47.509105  1613 layer_factory.hpp:75] Creating layer inception_3b/relu_3x3
I0823 09:38:47.509109  1613 net.cpp:110] Creating Layer inception_3b/relu_3x3
I0823 09:38:47.509114  1613 net.cpp:476] inception_3b/relu_3x3 <- inception_3b/3x3
I0823 09:38:47.509117  1613 net.cpp:419] inception_3b/relu_3x3 -> inception_3b/3x3 (in-place)
I0823 09:38:47.509122  1613 net.cpp:155] Setting up inception_3b/relu_3x3
I0823 09:38:47.509126  1613 net.cpp:163] Top shape: 1 192 28 28 (150528)
I0823 09:38:47.509130  1613 layer_factory.hpp:75] Creating layer inception_3b/5x5_reduce
I0823 09:38:47.509138  1613 net.cpp:110] Creating Layer inception_3b/5x5_reduce
I0823 09:38:47.509142  1613 net.cpp:476] inception_3b/5x5_reduce <- inception_3a/output_inception_3a/output_0_split_2
I0823 09:38:47.509146  1613 net.cpp:432] inception_3b/5x5_reduce -> inception_3b/5x5_reduce
I0823 09:38:47.509212  1613 net.cpp:155] Setting up inception_3b/5x5_reduce
I0823 09:38:47.509217  1613 net.cpp:163] Top shape: 1 32 28 28 (25088)
I0823 09:38:47.509222  1613 layer_factory.hpp:75] Creating layer inception_3b/relu_5x5_reduce
I0823 09:38:47.509225  1613 net.cpp:110] Creating Layer inception_3b/relu_5x5_reduce
I0823 09:38:47.509228  1613 net.cpp:476] inception_3b/relu_5x5_reduce <- inception_3b/5x5_reduce
I0823 09:38:47.509234  1613 net.cpp:419] inception_3b/relu_5x5_reduce -> inception_3b/5x5_reduce (in-place)
I0823 09:38:47.509238  1613 net.cpp:155] Setting up inception_3b/relu_5x5_reduce
I0823 09:38:47.509243  1613 net.cpp:163] Top shape: 1 32 28 28 (25088)
I0823 09:38:47.509245  1613 layer_factory.hpp:75] Creating layer inception_3b/5x5
I0823 09:38:47.509249  1613 net.cpp:110] Creating Layer inception_3b/5x5
I0823 09:38:47.509253  1613 net.cpp:476] inception_3b/5x5 <- inception_3b/5x5_reduce
I0823 09:38:47.509258  1613 net.cpp:432] inception_3b/5x5 -> inception_3b/5x5
I0823 09:38:47.509816  1613 net.cpp:155] Setting up inception_3b/5x5
I0823 09:38:47.509822  1613 net.cpp:163] Top shape: 1 96 28 28 (75264)
I0823 09:38:47.509827  1613 layer_factory.hpp:75] Creating layer inception_3b/relu_5x5
I0823 09:38:47.509831  1613 net.cpp:110] Creating Layer inception_3b/relu_5x5
I0823 09:38:47.509835  1613 net.cpp:476] inception_3b/relu_5x5 <- inception_3b/5x5
I0823 09:38:47.509840  1613 net.cpp:419] inception_3b/relu_5x5 -> inception_3b/5x5 (in-place)
I0823 09:38:47.509845  1613 net.cpp:155] Setting up inception_3b/relu_5x5
I0823 09:38:47.509848  1613 net.cpp:163] Top shape: 1 96 28 28 (75264)
I0823 09:38:47.509851  1613 layer_factory.hpp:75] Creating layer inception_3b/pool
I0823 09:38:47.509855  1613 net.cpp:110] Creating Layer inception_3b/pool
I0823 09:38:47.509863  1613 net.cpp:476] inception_3b/pool <- inception_3a/output_inception_3a/output_0_split_3
I0823 09:38:47.509870  1613 net.cpp:432] inception_3b/pool -> inception_3b/pool
I0823 09:38:47.509876  1613 net.cpp:155] Setting up inception_3b/pool
I0823 09:38:47.509879  1613 net.cpp:163] Top shape: 1 256 28 28 (200704)
I0823 09:38:47.509882  1613 layer_factory.hpp:75] Creating layer inception_3b/pool_proj
I0823 09:38:47.509887  1613 net.cpp:110] Creating Layer inception_3b/pool_proj
I0823 09:38:47.509891  1613 net.cpp:476] inception_3b/pool_proj <- inception_3b/pool
I0823 09:38:47.509896  1613 net.cpp:432] inception_3b/pool_proj -> inception_3b/pool_proj
I0823 09:38:47.510020  1613 net.cpp:155] Setting up inception_3b/pool_proj
I0823 09:38:47.510025  1613 net.cpp:163] Top shape: 1 64 28 28 (50176)
I0823 09:38:47.510030  1613 layer_factory.hpp:75] Creating layer inception_3b/relu_pool_proj
I0823 09:38:47.510035  1613 net.cpp:110] Creating Layer inception_3b/relu_pool_proj
I0823 09:38:47.510037  1613 net.cpp:476] inception_3b/relu_pool_proj <- inception_3b/pool_proj
I0823 09:38:47.510042  1613 net.cpp:419] inception_3b/relu_pool_proj -> inception_3b/pool_proj (in-place)
I0823 09:38:47.510047  1613 net.cpp:155] Setting up inception_3b/relu_pool_proj
I0823 09:38:47.510051  1613 net.cpp:163] Top shape: 1 64 28 28 (50176)
I0823 09:38:47.510054  1613 layer_factory.hpp:75] Creating layer inception_3b/output
I0823 09:38:47.510058  1613 net.cpp:110] Creating Layer inception_3b/output
I0823 09:38:47.510061  1613 net.cpp:476] inception_3b/output <- inception_3b/1x1
I0823 09:38:47.510064  1613 net.cpp:476] inception_3b/output <- inception_3b/3x3
I0823 09:38:47.510068  1613 net.cpp:476] inception_3b/output <- inception_3b/5x5
I0823 09:38:47.510071  1613 net.cpp:476] inception_3b/output <- inception_3b/pool_proj
I0823 09:38:47.510076  1613 net.cpp:432] inception_3b/output -> inception_3b/output
I0823 09:38:47.510081  1613 net.cpp:155] Setting up inception_3b/output
I0823 09:38:47.510084  1613 net.cpp:163] Top shape: 1 480 28 28 (376320)
I0823 09:38:47.510087  1613 layer_factory.hpp:75] Creating layer pool3/3x3_s2
I0823 09:38:47.510093  1613 net.cpp:110] Creating Layer pool3/3x3_s2
I0823 09:38:47.510097  1613 net.cpp:476] pool3/3x3_s2 <- inception_3b/output
I0823 09:38:47.510100  1613 net.cpp:432] pool3/3x3_s2 -> pool3/3x3_s2
I0823 09:38:47.510109  1613 net.cpp:155] Setting up pool3/3x3_s2
I0823 09:38:47.510113  1613 net.cpp:163] Top shape: 1 480 14 14 (94080)
I0823 09:38:47.510117  1613 layer_factory.hpp:75] Creating layer pool3/3x3_s2_pool3/3x3_s2_0_split
I0823 09:38:47.510120  1613 net.cpp:110] Creating Layer pool3/3x3_s2_pool3/3x3_s2_0_split
I0823 09:38:47.510123  1613 net.cpp:476] pool3/3x3_s2_pool3/3x3_s2_0_split <- pool3/3x3_s2
I0823 09:38:47.510128  1613 net.cpp:432] pool3/3x3_s2_pool3/3x3_s2_0_split -> pool3/3x3_s2_pool3/3x3_s2_0_split_0
I0823 09:38:47.510133  1613 net.cpp:432] pool3/3x3_s2_pool3/3x3_s2_0_split -> pool3/3x3_s2_pool3/3x3_s2_0_split_1
I0823 09:38:47.510138  1613 net.cpp:432] pool3/3x3_s2_pool3/3x3_s2_0_split -> pool3/3x3_s2_pool3/3x3_s2_0_split_2
I0823 09:38:47.510143  1613 net.cpp:432] pool3/3x3_s2_pool3/3x3_s2_0_split -> pool3/3x3_s2_pool3/3x3_s2_0_split_3
I0823 09:38:47.510149  1613 net.cpp:155] Setting up pool3/3x3_s2_pool3/3x3_s2_0_split
I0823 09:38:47.510152  1613 net.cpp:163] Top shape: 1 480 14 14 (94080)
I0823 09:38:47.510155  1613 net.cpp:163] Top shape: 1 480 14 14 (94080)
I0823 09:38:47.510159  1613 net.cpp:163] Top shape: 1 480 14 14 (94080)
I0823 09:38:47.510162  1613 net.cpp:163] Top shape: 1 480 14 14 (94080)
I0823 09:38:47.510165  1613 layer_factory.hpp:75] Creating layer inception_4a/1x1
I0823 09:38:47.510170  1613 net.cpp:110] Creating Layer inception_4a/1x1
I0823 09:38:47.510174  1613 net.cpp:476] inception_4a/1x1 <- pool3/3x3_s2_pool3/3x3_s2_0_split_0
I0823 09:38:47.510179  1613 net.cpp:432] inception_4a/1x1 -> inception_4a/1x1
I0823 09:38:47.510844  1613 net.cpp:155] Setting up inception_4a/1x1
I0823 09:38:47.510851  1613 net.cpp:163] Top shape: 1 192 14 14 (37632)
I0823 09:38:47.510859  1613 layer_factory.hpp:75] Creating layer inception_4a/relu_1x1
I0823 09:38:47.510864  1613 net.cpp:110] Creating Layer inception_4a/relu_1x1
I0823 09:38:47.510867  1613 net.cpp:476] inception_4a/relu_1x1 <- inception_4a/1x1
I0823 09:38:47.510871  1613 net.cpp:419] inception_4a/relu_1x1 -> inception_4a/1x1 (in-place)
I0823 09:38:47.510875  1613 net.cpp:155] Setting up inception_4a/relu_1x1
I0823 09:38:47.510879  1613 net.cpp:163] Top shape: 1 192 14 14 (37632)
I0823 09:38:47.510882  1613 layer_factory.hpp:75] Creating layer inception_4a/3x3_reduce
I0823 09:38:47.510889  1613 net.cpp:110] Creating Layer inception_4a/3x3_reduce
I0823 09:38:47.510892  1613 net.cpp:476] inception_4a/3x3_reduce <- pool3/3x3_s2_pool3/3x3_s2_0_split_1
I0823 09:38:47.510896  1613 net.cpp:432] inception_4a/3x3_reduce -> inception_4a/3x3_reduce
I0823 09:38:47.511239  1613 net.cpp:155] Setting up inception_4a/3x3_reduce
I0823 09:38:47.511245  1613 net.cpp:163] Top shape: 1 96 14 14 (18816)
I0823 09:38:47.511255  1613 layer_factory.hpp:75] Creating layer inception_4a/relu_3x3_reduce
I0823 09:38:47.511260  1613 net.cpp:110] Creating Layer inception_4a/relu_3x3_reduce
I0823 09:38:47.511262  1613 net.cpp:476] inception_4a/relu_3x3_reduce <- inception_4a/3x3_reduce
I0823 09:38:47.511266  1613 net.cpp:419] inception_4a/relu_3x3_reduce -> inception_4a/3x3_reduce (in-place)
I0823 09:38:47.511271  1613 net.cpp:155] Setting up inception_4a/relu_3x3_reduce
I0823 09:38:47.511276  1613 net.cpp:163] Top shape: 1 96 14 14 (18816)
I0823 09:38:47.511278  1613 layer_factory.hpp:75] Creating layer inception_4a/3x3
I0823 09:38:47.511282  1613 net.cpp:110] Creating Layer inception_4a/3x3
I0823 09:38:47.511286  1613 net.cpp:476] inception_4a/3x3 <- inception_4a/3x3_reduce
I0823 09:38:47.511291  1613 net.cpp:432] inception_4a/3x3 -> inception_4a/3x3
I0823 09:38:47.512578  1613 net.cpp:155] Setting up inception_4a/3x3
I0823 09:38:47.512585  1613 net.cpp:163] Top shape: 1 208 14 14 (40768)
I0823 09:38:47.512590  1613 layer_factory.hpp:75] Creating layer inception_4a/relu_3x3
I0823 09:38:47.512595  1613 net.cpp:110] Creating Layer inception_4a/relu_3x3
I0823 09:38:47.512598  1613 net.cpp:476] inception_4a/relu_3x3 <- inception_4a/3x3
I0823 09:38:47.512603  1613 net.cpp:419] inception_4a/relu_3x3 -> inception_4a/3x3 (in-place)
I0823 09:38:47.512608  1613 net.cpp:155] Setting up inception_4a/relu_3x3
I0823 09:38:47.512611  1613 net.cpp:163] Top shape: 1 208 14 14 (40768)
I0823 09:38:47.512614  1613 layer_factory.hpp:75] Creating layer inception_4a/5x5_reduce
I0823 09:38:47.512619  1613 net.cpp:110] Creating Layer inception_4a/5x5_reduce
I0823 09:38:47.512621  1613 net.cpp:476] inception_4a/5x5_reduce <- pool3/3x3_s2_pool3/3x3_s2_0_split_2
I0823 09:38:47.512627  1613 net.cpp:432] inception_4a/5x5_reduce -> inception_4a/5x5_reduce
I0823 09:38:47.512691  1613 net.cpp:155] Setting up inception_4a/5x5_reduce
I0823 09:38:47.512696  1613 net.cpp:163] Top shape: 1 16 14 14 (3136)
I0823 09:38:47.512701  1613 layer_factory.hpp:75] Creating layer inception_4a/relu_5x5_reduce
I0823 09:38:47.512703  1613 net.cpp:110] Creating Layer inception_4a/relu_5x5_reduce
I0823 09:38:47.512707  1613 net.cpp:476] inception_4a/relu_5x5_reduce <- inception_4a/5x5_reduce
I0823 09:38:47.512712  1613 net.cpp:419] inception_4a/relu_5x5_reduce -> inception_4a/5x5_reduce (in-place)
I0823 09:38:47.512717  1613 net.cpp:155] Setting up inception_4a/relu_5x5_reduce
I0823 09:38:47.512720  1613 net.cpp:163] Top shape: 1 16 14 14 (3136)
I0823 09:38:47.512723  1613 layer_factory.hpp:75] Creating layer inception_4a/5x5
I0823 09:38:47.512727  1613 net.cpp:110] Creating Layer inception_4a/5x5
I0823 09:38:47.512730  1613 net.cpp:476] inception_4a/5x5 <- inception_4a/5x5_reduce
I0823 09:38:47.512735  1613 net.cpp:432] inception_4a/5x5 -> inception_4a/5x5
I0823 09:38:47.512881  1613 net.cpp:155] Setting up inception_4a/5x5
I0823 09:38:47.512887  1613 net.cpp:163] Top shape: 1 48 14 14 (9408)
I0823 09:38:47.512890  1613 layer_factory.hpp:75] Creating layer inception_4a/relu_5x5
I0823 09:38:47.512898  1613 net.cpp:110] Creating Layer inception_4a/relu_5x5
I0823 09:38:47.512902  1613 net.cpp:476] inception_4a/relu_5x5 <- inception_4a/5x5
I0823 09:38:47.512907  1613 net.cpp:419] inception_4a/relu_5x5 -> inception_4a/5x5 (in-place)
I0823 09:38:47.512912  1613 net.cpp:155] Setting up inception_4a/relu_5x5
I0823 09:38:47.512915  1613 net.cpp:163] Top shape: 1 48 14 14 (9408)
I0823 09:38:47.512918  1613 layer_factory.hpp:75] Creating layer inception_4a/pool
I0823 09:38:47.512922  1613 net.cpp:110] Creating Layer inception_4a/pool
I0823 09:38:47.512925  1613 net.cpp:476] inception_4a/pool <- pool3/3x3_s2_pool3/3x3_s2_0_split_3
I0823 09:38:47.512929  1613 net.cpp:432] inception_4a/pool -> inception_4a/pool
I0823 09:38:47.512935  1613 net.cpp:155] Setting up inception_4a/pool
I0823 09:38:47.512939  1613 net.cpp:163] Top shape: 1 480 14 14 (94080)
I0823 09:38:47.512943  1613 layer_factory.hpp:75] Creating layer inception_4a/pool_proj
I0823 09:38:47.512948  1613 net.cpp:110] Creating Layer inception_4a/pool_proj
I0823 09:38:47.512950  1613 net.cpp:476] inception_4a/pool_proj <- inception_4a/pool
I0823 09:38:47.512956  1613 net.cpp:432] inception_4a/pool_proj -> inception_4a/pool_proj
I0823 09:38:47.513211  1613 net.cpp:155] Setting up inception_4a/pool_proj
I0823 09:38:47.513221  1613 net.cpp:163] Top shape: 1 64 14 14 (12544)
I0823 09:38:47.513226  1613 layer_factory.hpp:75] Creating layer inception_4a/relu_pool_proj
I0823 09:38:47.513231  1613 net.cpp:110] Creating Layer inception_4a/relu_pool_proj
I0823 09:38:47.513233  1613 net.cpp:476] inception_4a/relu_pool_proj <- inception_4a/pool_proj
I0823 09:38:47.513239  1613 net.cpp:419] inception_4a/relu_pool_proj -> inception_4a/pool_proj (in-place)
I0823 09:38:47.513244  1613 net.cpp:155] Setting up inception_4a/relu_pool_proj
I0823 09:38:47.513248  1613 net.cpp:163] Top shape: 1 64 14 14 (12544)
I0823 09:38:47.513250  1613 layer_factory.hpp:75] Creating layer inception_4a/output
I0823 09:38:47.513254  1613 net.cpp:110] Creating Layer inception_4a/output
I0823 09:38:47.513257  1613 net.cpp:476] inception_4a/output <- inception_4a/1x1
I0823 09:38:47.513262  1613 net.cpp:476] inception_4a/output <- inception_4a/3x3
I0823 09:38:47.513264  1613 net.cpp:476] inception_4a/output <- inception_4a/5x5
I0823 09:38:47.513268  1613 net.cpp:476] inception_4a/output <- inception_4a/pool_proj
I0823 09:38:47.513273  1613 net.cpp:432] inception_4a/output -> inception_4a/output
I0823 09:38:47.513278  1613 net.cpp:155] Setting up inception_4a/output
I0823 09:38:47.513281  1613 net.cpp:163] Top shape: 1 512 14 14 (100352)
I0823 09:38:47.513284  1613 layer_factory.hpp:75] Creating layer inception_4a/output_inception_4a/output_0_split
I0823 09:38:47.513288  1613 net.cpp:110] Creating Layer inception_4a/output_inception_4a/output_0_split
I0823 09:38:47.513291  1613 net.cpp:476] inception_4a/output_inception_4a/output_0_split <- inception_4a/output
I0823 09:38:47.513299  1613 net.cpp:432] inception_4a/output_inception_4a/output_0_split -> inception_4a/output_inception_4a/output_0_split_0
I0823 09:38:47.513305  1613 net.cpp:432] inception_4a/output_inception_4a/output_0_split -> inception_4a/output_inception_4a/output_0_split_1
I0823 09:38:47.513309  1613 net.cpp:432] inception_4a/output_inception_4a/output_0_split -> inception_4a/output_inception_4a/output_0_split_2
I0823 09:38:47.513314  1613 net.cpp:432] inception_4a/output_inception_4a/output_0_split -> inception_4a/output_inception_4a/output_0_split_3
I0823 09:38:47.513319  1613 net.cpp:155] Setting up inception_4a/output_inception_4a/output_0_split
I0823 09:38:47.513324  1613 net.cpp:163] Top shape: 1 512 14 14 (100352)
I0823 09:38:47.513327  1613 net.cpp:163] Top shape: 1 512 14 14 (100352)
I0823 09:38:47.513331  1613 net.cpp:163] Top shape: 1 512 14 14 (100352)
I0823 09:38:47.513334  1613 net.cpp:163] Top shape: 1 512 14 14 (100352)
I0823 09:38:47.513337  1613 layer_factory.hpp:75] Creating layer inception_4b/1x1
I0823 09:38:47.513342  1613 net.cpp:110] Creating Layer inception_4b/1x1
I0823 09:38:47.513345  1613 net.cpp:476] inception_4b/1x1 <- inception_4a/output_inception_4a/output_0_split_0
I0823 09:38:47.513355  1613 net.cpp:432] inception_4b/1x1 -> inception_4b/1x1
I0823 09:38:47.513947  1613 net.cpp:155] Setting up inception_4b/1x1
I0823 09:38:47.513953  1613 net.cpp:163] Top shape: 1 160 14 14 (31360)
I0823 09:38:47.513958  1613 layer_factory.hpp:75] Creating layer inception_4b/relu_1x1
I0823 09:38:47.513962  1613 net.cpp:110] Creating Layer inception_4b/relu_1x1
I0823 09:38:47.513965  1613 net.cpp:476] inception_4b/relu_1x1 <- inception_4b/1x1
I0823 09:38:47.513969  1613 net.cpp:419] inception_4b/relu_1x1 -> inception_4b/1x1 (in-place)
I0823 09:38:47.513974  1613 net.cpp:155] Setting up inception_4b/relu_1x1
I0823 09:38:47.513978  1613 net.cpp:163] Top shape: 1 160 14 14 (31360)
I0823 09:38:47.513981  1613 layer_factory.hpp:75] Creating layer inception_4b/3x3_reduce
I0823 09:38:47.513986  1613 net.cpp:110] Creating Layer inception_4b/3x3_reduce
I0823 09:38:47.513989  1613 net.cpp:476] inception_4b/3x3_reduce <- inception_4a/output_inception_4a/output_0_split_1
I0823 09:38:47.513996  1613 net.cpp:432] inception_4b/3x3_reduce -> inception_4b/3x3_reduce
I0823 09:38:47.514415  1613 net.cpp:155] Setting up inception_4b/3x3_reduce
I0823 09:38:47.514420  1613 net.cpp:163] Top shape: 1 112 14 14 (21952)
I0823 09:38:47.514425  1613 layer_factory.hpp:75] Creating layer inception_4b/relu_3x3_reduce
I0823 09:38:47.514430  1613 net.cpp:110] Creating Layer inception_4b/relu_3x3_reduce
I0823 09:38:47.514432  1613 net.cpp:476] inception_4b/relu_3x3_reduce <- inception_4b/3x3_reduce
I0823 09:38:47.514436  1613 net.cpp:419] inception_4b/relu_3x3_reduce -> inception_4b/3x3_reduce (in-place)
I0823 09:38:47.514442  1613 net.cpp:155] Setting up inception_4b/relu_3x3_reduce
I0823 09:38:47.514446  1613 net.cpp:163] Top shape: 1 112 14 14 (21952)
I0823 09:38:47.514449  1613 layer_factory.hpp:75] Creating layer inception_4b/3x3
I0823 09:38:47.514453  1613 net.cpp:110] Creating Layer inception_4b/3x3
I0823 09:38:47.514456  1613 net.cpp:476] inception_4b/3x3 <- inception_4b/3x3_reduce
I0823 09:38:47.514461  1613 net.cpp:432] inception_4b/3x3 -> inception_4b/3x3
I0823 09:38:47.516096  1613 net.cpp:155] Setting up inception_4b/3x3
I0823 09:38:47.516105  1613 net.cpp:163] Top shape: 1 224 14 14 (43904)
I0823 09:38:47.516111  1613 layer_factory.hpp:75] Creating layer inception_4b/relu_3x3
I0823 09:38:47.516115  1613 net.cpp:110] Creating Layer inception_4b/relu_3x3
I0823 09:38:47.516119  1613 net.cpp:476] inception_4b/relu_3x3 <- inception_4b/3x3
I0823 09:38:47.516122  1613 net.cpp:419] inception_4b/relu_3x3 -> inception_4b/3x3 (in-place)
I0823 09:38:47.516127  1613 net.cpp:155] Setting up inception_4b/relu_3x3
I0823 09:38:47.516131  1613 net.cpp:163] Top shape: 1 224 14 14 (43904)
I0823 09:38:47.516134  1613 layer_factory.hpp:75] Creating layer inception_4b/5x5_reduce
I0823 09:38:47.516140  1613 net.cpp:110] Creating Layer inception_4b/5x5_reduce
I0823 09:38:47.516144  1613 net.cpp:476] inception_4b/5x5_reduce <- inception_4a/output_inception_4a/output_0_split_2
I0823 09:38:47.516149  1613 net.cpp:432] inception_4b/5x5_reduce -> inception_4b/5x5_reduce
I0823 09:38:47.516242  1613 net.cpp:155] Setting up inception_4b/5x5_reduce
I0823 09:38:47.516247  1613 net.cpp:163] Top shape: 1 24 14 14 (4704)
I0823 09:38:47.516252  1613 layer_factory.hpp:75] Creating layer inception_4b/relu_5x5_reduce
I0823 09:38:47.516261  1613 net.cpp:110] Creating Layer inception_4b/relu_5x5_reduce
I0823 09:38:47.516265  1613 net.cpp:476] inception_4b/relu_5x5_reduce <- inception_4b/5x5_reduce
I0823 09:38:47.516269  1613 net.cpp:419] inception_4b/relu_5x5_reduce -> inception_4b/5x5_reduce (in-place)
I0823 09:38:47.516274  1613 net.cpp:155] Setting up inception_4b/relu_5x5_reduce
I0823 09:38:47.516278  1613 net.cpp:163] Top shape: 1 24 14 14 (4704)
I0823 09:38:47.516281  1613 layer_factory.hpp:75] Creating layer inception_4b/5x5
I0823 09:38:47.516285  1613 net.cpp:110] Creating Layer inception_4b/5x5
I0823 09:38:47.516288  1613 net.cpp:476] inception_4b/5x5 <- inception_4b/5x5_reduce
I0823 09:38:47.516300  1613 net.cpp:432] inception_4b/5x5 -> inception_4b/5x5
I0823 09:38:47.516582  1613 net.cpp:155] Setting up inception_4b/5x5
I0823 09:38:47.516587  1613 net.cpp:163] Top shape: 1 64 14 14 (12544)
I0823 09:38:47.516592  1613 layer_factory.hpp:75] Creating layer inception_4b/relu_5x5
I0823 09:38:47.516597  1613 net.cpp:110] Creating Layer inception_4b/relu_5x5
I0823 09:38:47.516599  1613 net.cpp:476] inception_4b/relu_5x5 <- inception_4b/5x5
I0823 09:38:47.516604  1613 net.cpp:419] inception_4b/relu_5x5 -> inception_4b/5x5 (in-place)
I0823 09:38:47.516609  1613 net.cpp:155] Setting up inception_4b/relu_5x5
I0823 09:38:47.516613  1613 net.cpp:163] Top shape: 1 64 14 14 (12544)
I0823 09:38:47.516616  1613 layer_factory.hpp:75] Creating layer inception_4b/pool
I0823 09:38:47.516620  1613 net.cpp:110] Creating Layer inception_4b/pool
I0823 09:38:47.516623  1613 net.cpp:476] inception_4b/pool <- inception_4a/output_inception_4a/output_0_split_3
I0823 09:38:47.516628  1613 net.cpp:432] inception_4b/pool -> inception_4b/pool
I0823 09:38:47.516633  1613 net.cpp:155] Setting up inception_4b/pool
I0823 09:38:47.516638  1613 net.cpp:163] Top shape: 1 512 14 14 (100352)
I0823 09:38:47.516640  1613 layer_factory.hpp:75] Creating layer inception_4b/pool_proj
I0823 09:38:47.516645  1613 net.cpp:110] Creating Layer inception_4b/pool_proj
I0823 09:38:47.516649  1613 net.cpp:476] inception_4b/pool_proj <- inception_4b/pool
I0823 09:38:47.516654  1613 net.cpp:432] inception_4b/pool_proj -> inception_4b/pool_proj
I0823 09:38:47.516898  1613 net.cpp:155] Setting up inception_4b/pool_proj
I0823 09:38:47.516904  1613 net.cpp:163] Top shape: 1 64 14 14 (12544)
I0823 09:38:47.516909  1613 layer_factory.hpp:75] Creating layer inception_4b/relu_pool_proj
I0823 09:38:47.516913  1613 net.cpp:110] Creating Layer inception_4b/relu_pool_proj
I0823 09:38:47.516916  1613 net.cpp:476] inception_4b/relu_pool_proj <- inception_4b/pool_proj
I0823 09:38:47.516921  1613 net.cpp:419] inception_4b/relu_pool_proj -> inception_4b/pool_proj (in-place)
I0823 09:38:47.516927  1613 net.cpp:155] Setting up inception_4b/relu_pool_proj
I0823 09:38:47.516930  1613 net.cpp:163] Top shape: 1 64 14 14 (12544)
I0823 09:38:47.516933  1613 layer_factory.hpp:75] Creating layer inception_4b/output
I0823 09:38:47.516937  1613 net.cpp:110] Creating Layer inception_4b/output
I0823 09:38:47.516940  1613 net.cpp:476] inception_4b/output <- inception_4b/1x1
I0823 09:38:47.516943  1613 net.cpp:476] inception_4b/output <- inception_4b/3x3
I0823 09:38:47.516947  1613 net.cpp:476] inception_4b/output <- inception_4b/5x5
I0823 09:38:47.516950  1613 net.cpp:476] inception_4b/output <- inception_4b/pool_proj
I0823 09:38:47.516954  1613 net.cpp:432] inception_4b/output -> inception_4b/output
I0823 09:38:47.516959  1613 net.cpp:155] Setting up inception_4b/output
I0823 09:38:47.516963  1613 net.cpp:163] Top shape: 1 512 14 14 (100352)
I0823 09:38:47.516966  1613 layer_factory.hpp:75] Creating layer inception_4b/output_inception_4b/output_0_split
I0823 09:38:47.516970  1613 net.cpp:110] Creating Layer inception_4b/output_inception_4b/output_0_split
I0823 09:38:47.516973  1613 net.cpp:476] inception_4b/output_inception_4b/output_0_split <- inception_4b/output
I0823 09:38:47.516979  1613 net.cpp:432] inception_4b/output_inception_4b/output_0_split -> inception_4b/output_inception_4b/output_0_split_0
I0823 09:38:47.516984  1613 net.cpp:432] inception_4b/output_inception_4b/output_0_split -> inception_4b/output_inception_4b/output_0_split_1
I0823 09:38:47.516988  1613 net.cpp:432] inception_4b/output_inception_4b/output_0_split -> inception_4b/output_inception_4b/output_0_split_2
I0823 09:38:47.517005  1613 net.cpp:432] inception_4b/output_inception_4b/output_0_split -> inception_4b/output_inception_4b/output_0_split_3
I0823 09:38:47.517012  1613 net.cpp:155] Setting up inception_4b/output_inception_4b/output_0_split
I0823 09:38:47.517019  1613 net.cpp:163] Top shape: 1 512 14 14 (100352)
I0823 09:38:47.517021  1613 net.cpp:163] Top shape: 1 512 14 14 (100352)
I0823 09:38:47.517029  1613 net.cpp:163] Top shape: 1 512 14 14 (100352)
I0823 09:38:47.517032  1613 net.cpp:163] Top shape: 1 512 14 14 (100352)
I0823 09:38:47.517035  1613 layer_factory.hpp:75] Creating layer inception_4c/1x1
I0823 09:38:47.517040  1613 net.cpp:110] Creating Layer inception_4c/1x1
I0823 09:38:47.517043  1613 net.cpp:476] inception_4c/1x1 <- inception_4b/output_inception_4b/output_0_split_0
I0823 09:38:47.517050  1613 net.cpp:432] inception_4c/1x1 -> inception_4c/1x1
I0823 09:38:47.517525  1613 net.cpp:155] Setting up inception_4c/1x1
I0823 09:38:47.517532  1613 net.cpp:163] Top shape: 1 128 14 14 (25088)
I0823 09:38:47.517537  1613 layer_factory.hpp:75] Creating layer inception_4c/relu_1x1
I0823 09:38:47.517541  1613 net.cpp:110] Creating Layer inception_4c/relu_1x1
I0823 09:38:47.517544  1613 net.cpp:476] inception_4c/relu_1x1 <- inception_4c/1x1
I0823 09:38:47.517549  1613 net.cpp:419] inception_4c/relu_1x1 -> inception_4c/1x1 (in-place)
I0823 09:38:47.517552  1613 net.cpp:155] Setting up inception_4c/relu_1x1
I0823 09:38:47.517556  1613 net.cpp:163] Top shape: 1 128 14 14 (25088)
I0823 09:38:47.517560  1613 layer_factory.hpp:75] Creating layer inception_4c/3x3_reduce
I0823 09:38:47.517566  1613 net.cpp:110] Creating Layer inception_4c/3x3_reduce
I0823 09:38:47.517570  1613 net.cpp:476] inception_4c/3x3_reduce <- inception_4b/output_inception_4b/output_0_split_1
I0823 09:38:47.517575  1613 net.cpp:432] inception_4c/3x3_reduce -> inception_4c/3x3_reduce
I0823 09:38:47.518049  1613 net.cpp:155] Setting up inception_4c/3x3_reduce
I0823 09:38:47.518055  1613 net.cpp:163] Top shape: 1 128 14 14 (25088)
I0823 09:38:47.518060  1613 layer_factory.hpp:75] Creating layer inception_4c/relu_3x3_reduce
I0823 09:38:47.518065  1613 net.cpp:110] Creating Layer inception_4c/relu_3x3_reduce
I0823 09:38:47.518069  1613 net.cpp:476] inception_4c/relu_3x3_reduce <- inception_4c/3x3_reduce
I0823 09:38:47.518072  1613 net.cpp:419] inception_4c/relu_3x3_reduce -> inception_4c/3x3_reduce (in-place)
I0823 09:38:47.518077  1613 net.cpp:155] Setting up inception_4c/relu_3x3_reduce
I0823 09:38:47.518081  1613 net.cpp:163] Top shape: 1 128 14 14 (25088)
I0823 09:38:47.518085  1613 layer_factory.hpp:75] Creating layer inception_4c/3x3
I0823 09:38:47.518090  1613 net.cpp:110] Creating Layer inception_4c/3x3
I0823 09:38:47.518093  1613 net.cpp:476] inception_4c/3x3 <- inception_4c/3x3_reduce
I0823 09:38:47.518097  1613 net.cpp:432] inception_4c/3x3 -> inception_4c/3x3
I0823 09:38:47.520206  1613 net.cpp:155] Setting up inception_4c/3x3
I0823 09:38:47.520212  1613 net.cpp:163] Top shape: 1 256 14 14 (50176)
I0823 09:38:47.520217  1613 layer_factory.hpp:75] Creating layer inception_4c/relu_3x3
I0823 09:38:47.520221  1613 net.cpp:110] Creating Layer inception_4c/relu_3x3
I0823 09:38:47.520225  1613 net.cpp:476] inception_4c/relu_3x3 <- inception_4c/3x3
I0823 09:38:47.520228  1613 net.cpp:419] inception_4c/relu_3x3 -> inception_4c/3x3 (in-place)
I0823 09:38:47.520233  1613 net.cpp:155] Setting up inception_4c/relu_3x3
I0823 09:38:47.520236  1613 net.cpp:163] Top shape: 1 256 14 14 (50176)
I0823 09:38:47.520239  1613 layer_factory.hpp:75] Creating layer inception_4c/5x5_reduce
I0823 09:38:47.520246  1613 net.cpp:110] Creating Layer inception_4c/5x5_reduce
I0823 09:38:47.520248  1613 net.cpp:476] inception_4c/5x5_reduce <- inception_4b/output_inception_4b/output_0_split_2
I0823 09:38:47.520254  1613 net.cpp:432] inception_4c/5x5_reduce -> inception_4c/5x5_reduce
I0823 09:38:47.520351  1613 net.cpp:155] Setting up inception_4c/5x5_reduce
I0823 09:38:47.520359  1613 net.cpp:163] Top shape: 1 24 14 14 (4704)
I0823 09:38:47.520362  1613 layer_factory.hpp:75] Creating layer inception_4c/relu_5x5_reduce
I0823 09:38:47.520366  1613 net.cpp:110] Creating Layer inception_4c/relu_5x5_reduce
I0823 09:38:47.520370  1613 net.cpp:476] inception_4c/relu_5x5_reduce <- inception_4c/5x5_reduce
I0823 09:38:47.520373  1613 net.cpp:419] inception_4c/relu_5x5_reduce -> inception_4c/5x5_reduce (in-place)
I0823 09:38:47.520378  1613 net.cpp:155] Setting up inception_4c/relu_5x5_reduce
I0823 09:38:47.520385  1613 net.cpp:163] Top shape: 1 24 14 14 (4704)
I0823 09:38:47.520390  1613 layer_factory.hpp:75] Creating layer inception_4c/5x5
I0823 09:38:47.520393  1613 net.cpp:110] Creating Layer inception_4c/5x5
I0823 09:38:47.520396  1613 net.cpp:476] inception_4c/5x5 <- inception_4c/5x5_reduce
I0823 09:38:47.520402  1613 net.cpp:432] inception_4c/5x5 -> inception_4c/5x5
I0823 09:38:47.520685  1613 net.cpp:155] Setting up inception_4c/5x5
I0823 09:38:47.520691  1613 net.cpp:163] Top shape: 1 64 14 14 (12544)
I0823 09:38:47.520696  1613 layer_factory.hpp:75] Creating layer inception_4c/relu_5x5
I0823 09:38:47.520699  1613 net.cpp:110] Creating Layer inception_4c/relu_5x5
I0823 09:38:47.520704  1613 net.cpp:476] inception_4c/relu_5x5 <- inception_4c/5x5
I0823 09:38:47.520709  1613 net.cpp:419] inception_4c/relu_5x5 -> inception_4c/5x5 (in-place)
I0823 09:38:47.520712  1613 net.cpp:155] Setting up inception_4c/relu_5x5
I0823 09:38:47.520716  1613 net.cpp:163] Top shape: 1 64 14 14 (12544)
I0823 09:38:47.520720  1613 layer_factory.hpp:75] Creating layer inception_4c/pool
I0823 09:38:47.520723  1613 net.cpp:110] Creating Layer inception_4c/pool
I0823 09:38:47.520726  1613 net.cpp:476] inception_4c/pool <- inception_4b/output_inception_4b/output_0_split_3
I0823 09:38:47.520730  1613 net.cpp:432] inception_4c/pool -> inception_4c/pool
I0823 09:38:47.520736  1613 net.cpp:155] Setting up inception_4c/pool
I0823 09:38:47.520740  1613 net.cpp:163] Top shape: 1 512 14 14 (100352)
I0823 09:38:47.520743  1613 layer_factory.hpp:75] Creating layer inception_4c/pool_proj
I0823 09:38:47.520750  1613 net.cpp:110] Creating Layer inception_4c/pool_proj
I0823 09:38:47.520752  1613 net.cpp:476] inception_4c/pool_proj <- inception_4c/pool
I0823 09:38:47.520757  1613 net.cpp:432] inception_4c/pool_proj -> inception_4c/pool_proj
I0823 09:38:47.521011  1613 net.cpp:155] Setting up inception_4c/pool_proj
I0823 09:38:47.521018  1613 net.cpp:163] Top shape: 1 64 14 14 (12544)
I0823 09:38:47.521033  1613 layer_factory.hpp:75] Creating layer inception_4c/relu_pool_proj
I0823 09:38:47.521037  1613 net.cpp:110] Creating Layer inception_4c/relu_pool_proj
I0823 09:38:47.521040  1613 net.cpp:476] inception_4c/relu_pool_proj <- inception_4c/pool_proj
I0823 09:38:47.521044  1613 net.cpp:419] inception_4c/relu_pool_proj -> inception_4c/pool_proj (in-place)
I0823 09:38:47.521049  1613 net.cpp:155] Setting up inception_4c/relu_pool_proj
I0823 09:38:47.521054  1613 net.cpp:163] Top shape: 1 64 14 14 (12544)
I0823 09:38:47.521056  1613 layer_factory.hpp:75] Creating layer inception_4c/output
I0823 09:38:47.521062  1613 net.cpp:110] Creating Layer inception_4c/output
I0823 09:38:47.521065  1613 net.cpp:476] inception_4c/output <- inception_4c/1x1
I0823 09:38:47.521070  1613 net.cpp:476] inception_4c/output <- inception_4c/3x3
I0823 09:38:47.521073  1613 net.cpp:476] inception_4c/output <- inception_4c/5x5
I0823 09:38:47.521076  1613 net.cpp:476] inception_4c/output <- inception_4c/pool_proj
I0823 09:38:47.521080  1613 net.cpp:432] inception_4c/output -> inception_4c/output
I0823 09:38:47.521085  1613 net.cpp:155] Setting up inception_4c/output
I0823 09:38:47.521090  1613 net.cpp:163] Top shape: 1 512 14 14 (100352)
I0823 09:38:47.521092  1613 layer_factory.hpp:75] Creating layer inception_4c/output_inception_4c/output_0_split
I0823 09:38:47.521096  1613 net.cpp:110] Creating Layer inception_4c/output_inception_4c/output_0_split
I0823 09:38:47.521100  1613 net.cpp:476] inception_4c/output_inception_4c/output_0_split <- inception_4c/output
I0823 09:38:47.521105  1613 net.cpp:432] inception_4c/output_inception_4c/output_0_split -> inception_4c/output_inception_4c/output_0_split_0
I0823 09:38:47.521111  1613 net.cpp:432] inception_4c/output_inception_4c/output_0_split -> inception_4c/output_inception_4c/output_0_split_1
I0823 09:38:47.521114  1613 net.cpp:432] inception_4c/output_inception_4c/output_0_split -> inception_4c/output_inception_4c/output_0_split_2
I0823 09:38:47.521119  1613 net.cpp:432] inception_4c/output_inception_4c/output_0_split -> inception_4c/output_inception_4c/output_0_split_3
I0823 09:38:47.521128  1613 net.cpp:155] Setting up inception_4c/output_inception_4c/output_0_split
I0823 09:38:47.521133  1613 net.cpp:163] Top shape: 1 512 14 14 (100352)
I0823 09:38:47.521136  1613 net.cpp:163] Top shape: 1 512 14 14 (100352)
I0823 09:38:47.521141  1613 net.cpp:163] Top shape: 1 512 14 14 (100352)
I0823 09:38:47.521143  1613 net.cpp:163] Top shape: 1 512 14 14 (100352)
I0823 09:38:47.521147  1613 layer_factory.hpp:75] Creating layer inception_4d/1x1
I0823 09:38:47.521153  1613 net.cpp:110] Creating Layer inception_4d/1x1
I0823 09:38:47.521157  1613 net.cpp:476] inception_4d/1x1 <- inception_4c/output_inception_4c/output_0_split_0
I0823 09:38:47.521162  1613 net.cpp:432] inception_4d/1x1 -> inception_4d/1x1
I0823 09:38:47.521579  1613 net.cpp:155] Setting up inception_4d/1x1
I0823 09:38:47.521585  1613 net.cpp:163] Top shape: 1 112 14 14 (21952)
I0823 09:38:47.521589  1613 layer_factory.hpp:75] Creating layer inception_4d/relu_1x1
I0823 09:38:47.521594  1613 net.cpp:110] Creating Layer inception_4d/relu_1x1
I0823 09:38:47.521597  1613 net.cpp:476] inception_4d/relu_1x1 <- inception_4d/1x1
I0823 09:38:47.521601  1613 net.cpp:419] inception_4d/relu_1x1 -> inception_4d/1x1 (in-place)
I0823 09:38:47.521605  1613 net.cpp:155] Setting up inception_4d/relu_1x1
I0823 09:38:47.521610  1613 net.cpp:163] Top shape: 1 112 14 14 (21952)
I0823 09:38:47.521612  1613 layer_factory.hpp:75] Creating layer inception_4d/3x3_reduce
I0823 09:38:47.521620  1613 net.cpp:110] Creating Layer inception_4d/3x3_reduce
I0823 09:38:47.521622  1613 net.cpp:476] inception_4d/3x3_reduce <- inception_4c/output_inception_4c/output_0_split_1
I0823 09:38:47.521626  1613 net.cpp:432] inception_4d/3x3_reduce -> inception_4d/3x3_reduce
I0823 09:38:47.522161  1613 net.cpp:155] Setting up inception_4d/3x3_reduce
I0823 09:38:47.522168  1613 net.cpp:163] Top shape: 1 144 14 14 (28224)
I0823 09:38:47.522172  1613 layer_factory.hpp:75] Creating layer inception_4d/relu_3x3_reduce
I0823 09:38:47.522178  1613 net.cpp:110] Creating Layer inception_4d/relu_3x3_reduce
I0823 09:38:47.522181  1613 net.cpp:476] inception_4d/relu_3x3_reduce <- inception_4d/3x3_reduce
I0823 09:38:47.522186  1613 net.cpp:419] inception_4d/relu_3x3_reduce -> inception_4d/3x3_reduce (in-place)
I0823 09:38:47.522191  1613 net.cpp:155] Setting up inception_4d/relu_3x3_reduce
I0823 09:38:47.522193  1613 net.cpp:163] Top shape: 1 144 14 14 (28224)
I0823 09:38:47.522197  1613 layer_factory.hpp:75] Creating layer inception_4d/3x3
I0823 09:38:47.522202  1613 net.cpp:110] Creating Layer inception_4d/3x3
I0823 09:38:47.522205  1613 net.cpp:476] inception_4d/3x3 <- inception_4d/3x3_reduce
I0823 09:38:47.522209  1613 net.cpp:432] inception_4d/3x3 -> inception_4d/3x3
I0823 09:38:47.524873  1613 net.cpp:155] Setting up inception_4d/3x3
I0823 09:38:47.524879  1613 net.cpp:163] Top shape: 1 288 14 14 (56448)
I0823 09:38:47.524884  1613 layer_factory.hpp:75] Creating layer inception_4d/relu_3x3
I0823 09:38:47.524888  1613 net.cpp:110] Creating Layer inception_4d/relu_3x3
I0823 09:38:47.524891  1613 net.cpp:476] inception_4d/relu_3x3 <- inception_4d/3x3
I0823 09:38:47.524895  1613 net.cpp:419] inception_4d/relu_3x3 -> inception_4d/3x3 (in-place)
I0823 09:38:47.524900  1613 net.cpp:155] Setting up inception_4d/relu_3x3
I0823 09:38:47.524904  1613 net.cpp:163] Top shape: 1 288 14 14 (56448)
I0823 09:38:47.524906  1613 layer_factory.hpp:75] Creating layer inception_4d/5x5_reduce
I0823 09:38:47.524912  1613 net.cpp:110] Creating Layer inception_4d/5x5_reduce
I0823 09:38:47.524916  1613 net.cpp:476] inception_4d/5x5_reduce <- inception_4c/output_inception_4c/output_0_split_2
I0823 09:38:47.524921  1613 net.cpp:432] inception_4d/5x5_reduce -> inception_4d/5x5_reduce
I0823 09:38:47.525053  1613 net.cpp:155] Setting up inception_4d/5x5_reduce
I0823 09:38:47.525060  1613 net.cpp:163] Top shape: 1 32 14 14 (6272)
I0823 09:38:47.525065  1613 layer_factory.hpp:75] Creating layer inception_4d/relu_5x5_reduce
I0823 09:38:47.525069  1613 net.cpp:110] Creating Layer inception_4d/relu_5x5_reduce
I0823 09:38:47.525077  1613 net.cpp:476] inception_4d/relu_5x5_reduce <- inception_4d/5x5_reduce
I0823 09:38:47.525082  1613 net.cpp:419] inception_4d/relu_5x5_reduce -> inception_4d/5x5_reduce (in-place)
I0823 09:38:47.525087  1613 net.cpp:155] Setting up inception_4d/relu_5x5_reduce
I0823 09:38:47.525091  1613 net.cpp:163] Top shape: 1 32 14 14 (6272)
I0823 09:38:47.525094  1613 layer_factory.hpp:75] Creating layer inception_4d/5x5
I0823 09:38:47.525100  1613 net.cpp:110] Creating Layer inception_4d/5x5
I0823 09:38:47.525104  1613 net.cpp:476] inception_4d/5x5 <- inception_4d/5x5_reduce
I0823 09:38:47.525109  1613 net.cpp:432] inception_4d/5x5 -> inception_4d/5x5
I0823 09:38:47.525492  1613 net.cpp:155] Setting up inception_4d/5x5
I0823 09:38:47.525501  1613 net.cpp:163] Top shape: 1 64 14 14 (12544)
I0823 09:38:47.525506  1613 layer_factory.hpp:75] Creating layer inception_4d/relu_5x5
I0823 09:38:47.525511  1613 net.cpp:110] Creating Layer inception_4d/relu_5x5
I0823 09:38:47.525514  1613 net.cpp:476] inception_4d/relu_5x5 <- inception_4d/5x5
I0823 09:38:47.525521  1613 net.cpp:419] inception_4d/relu_5x5 -> inception_4d/5x5 (in-place)
I0823 09:38:47.525524  1613 net.cpp:155] Setting up inception_4d/relu_5x5
I0823 09:38:47.525528  1613 net.cpp:163] Top shape: 1 64 14 14 (12544)
I0823 09:38:47.525532  1613 layer_factory.hpp:75] Creating layer inception_4d/pool
I0823 09:38:47.525537  1613 net.cpp:110] Creating Layer inception_4d/pool
I0823 09:38:47.525539  1613 net.cpp:476] inception_4d/pool <- inception_4c/output_inception_4c/output_0_split_3
I0823 09:38:47.525543  1613 net.cpp:432] inception_4d/pool -> inception_4d/pool
I0823 09:38:47.525549  1613 net.cpp:155] Setting up inception_4d/pool
I0823 09:38:47.525553  1613 net.cpp:163] Top shape: 1 512 14 14 (100352)
I0823 09:38:47.525557  1613 layer_factory.hpp:75] Creating layer inception_4d/pool_proj
I0823 09:38:47.525563  1613 net.cpp:110] Creating Layer inception_4d/pool_proj
I0823 09:38:47.525565  1613 net.cpp:476] inception_4d/pool_proj <- inception_4d/pool
I0823 09:38:47.525571  1613 net.cpp:432] inception_4d/pool_proj -> inception_4d/pool_proj
I0823 09:38:47.525815  1613 net.cpp:155] Setting up inception_4d/pool_proj
I0823 09:38:47.525820  1613 net.cpp:163] Top shape: 1 64 14 14 (12544)
I0823 09:38:47.525825  1613 layer_factory.hpp:75] Creating layer inception_4d/relu_pool_proj
I0823 09:38:47.525830  1613 net.cpp:110] Creating Layer inception_4d/relu_pool_proj
I0823 09:38:47.525832  1613 net.cpp:476] inception_4d/relu_pool_proj <- inception_4d/pool_proj
I0823 09:38:47.525838  1613 net.cpp:419] inception_4d/relu_pool_proj -> inception_4d/pool_proj (in-place)
I0823 09:38:47.525843  1613 net.cpp:155] Setting up inception_4d/relu_pool_proj
I0823 09:38:47.525846  1613 net.cpp:163] Top shape: 1 64 14 14 (12544)
I0823 09:38:47.525851  1613 layer_factory.hpp:75] Creating layer inception_4d/output
I0823 09:38:47.525854  1613 net.cpp:110] Creating Layer inception_4d/output
I0823 09:38:47.525857  1613 net.cpp:476] inception_4d/output <- inception_4d/1x1
I0823 09:38:47.525861  1613 net.cpp:476] inception_4d/output <- inception_4d/3x3
I0823 09:38:47.525864  1613 net.cpp:476] inception_4d/output <- inception_4d/5x5
I0823 09:38:47.525867  1613 net.cpp:476] inception_4d/output <- inception_4d/pool_proj
I0823 09:38:47.525871  1613 net.cpp:432] inception_4d/output -> inception_4d/output
I0823 09:38:47.525876  1613 net.cpp:155] Setting up inception_4d/output
I0823 09:38:47.525881  1613 net.cpp:163] Top shape: 1 528 14 14 (103488)
I0823 09:38:47.525883  1613 layer_factory.hpp:75] Creating layer inception_4d/output_inception_4d/output_0_split
I0823 09:38:47.525887  1613 net.cpp:110] Creating Layer inception_4d/output_inception_4d/output_0_split
I0823 09:38:47.525890  1613 net.cpp:476] inception_4d/output_inception_4d/output_0_split <- inception_4d/output
I0823 09:38:47.525897  1613 net.cpp:432] inception_4d/output_inception_4d/output_0_split -> inception_4d/output_inception_4d/output_0_split_0
I0823 09:38:47.525902  1613 net.cpp:432] inception_4d/output_inception_4d/output_0_split -> inception_4d/output_inception_4d/output_0_split_1
I0823 09:38:47.525912  1613 net.cpp:432] inception_4d/output_inception_4d/output_0_split -> inception_4d/output_inception_4d/output_0_split_2
I0823 09:38:47.525915  1613 net.cpp:432] inception_4d/output_inception_4d/output_0_split -> inception_4d/output_inception_4d/output_0_split_3
I0823 09:38:47.525920  1613 net.cpp:155] Setting up inception_4d/output_inception_4d/output_0_split
I0823 09:38:47.525926  1613 net.cpp:163] Top shape: 1 528 14 14 (103488)
I0823 09:38:47.525929  1613 net.cpp:163] Top shape: 1 528 14 14 (103488)
I0823 09:38:47.525933  1613 net.cpp:163] Top shape: 1 528 14 14 (103488)
I0823 09:38:47.525936  1613 net.cpp:163] Top shape: 1 528 14 14 (103488)
I0823 09:38:47.525939  1613 layer_factory.hpp:75] Creating layer inception_4e/1x1
I0823 09:38:47.525944  1613 net.cpp:110] Creating Layer inception_4e/1x1
I0823 09:38:47.525948  1613 net.cpp:476] inception_4e/1x1 <- inception_4d/output_inception_4d/output_0_split_0
I0823 09:38:47.525954  1613 net.cpp:432] inception_4e/1x1 -> inception_4e/1x1
I0823 09:38:47.526923  1613 net.cpp:155] Setting up inception_4e/1x1
I0823 09:38:47.526929  1613 net.cpp:163] Top shape: 1 256 14 14 (50176)
I0823 09:38:47.526934  1613 layer_factory.hpp:75] Creating layer inception_4e/relu_1x1
I0823 09:38:47.526938  1613 net.cpp:110] Creating Layer inception_4e/relu_1x1
I0823 09:38:47.526942  1613 net.cpp:476] inception_4e/relu_1x1 <- inception_4e/1x1
I0823 09:38:47.526947  1613 net.cpp:419] inception_4e/relu_1x1 -> inception_4e/1x1 (in-place)
I0823 09:38:47.526952  1613 net.cpp:155] Setting up inception_4e/relu_1x1
I0823 09:38:47.526957  1613 net.cpp:163] Top shape: 1 256 14 14 (50176)
I0823 09:38:47.526959  1613 layer_factory.hpp:75] Creating layer inception_4e/3x3_reduce
I0823 09:38:47.526963  1613 net.cpp:110] Creating Layer inception_4e/3x3_reduce
I0823 09:38:47.526967  1613 net.cpp:476] inception_4e/3x3_reduce <- inception_4d/output_inception_4d/output_0_split_1
I0823 09:38:47.526973  1613 net.cpp:432] inception_4e/3x3_reduce -> inception_4e/3x3_reduce
I0823 09:38:47.527583  1613 net.cpp:155] Setting up inception_4e/3x3_reduce
I0823 09:38:47.527590  1613 net.cpp:163] Top shape: 1 160 14 14 (31360)
I0823 09:38:47.527595  1613 layer_factory.hpp:75] Creating layer inception_4e/relu_3x3_reduce
I0823 09:38:47.527598  1613 net.cpp:110] Creating Layer inception_4e/relu_3x3_reduce
I0823 09:38:47.527602  1613 net.cpp:476] inception_4e/relu_3x3_reduce <- inception_4e/3x3_reduce
I0823 09:38:47.527607  1613 net.cpp:419] inception_4e/relu_3x3_reduce -> inception_4e/3x3_reduce (in-place)
I0823 09:38:47.527612  1613 net.cpp:155] Setting up inception_4e/relu_3x3_reduce
I0823 09:38:47.527616  1613 net.cpp:163] Top shape: 1 160 14 14 (31360)
I0823 09:38:47.527619  1613 layer_factory.hpp:75] Creating layer inception_4e/3x3
I0823 09:38:47.527624  1613 net.cpp:110] Creating Layer inception_4e/3x3
I0823 09:38:47.527627  1613 net.cpp:476] inception_4e/3x3 <- inception_4e/3x3_reduce
I0823 09:38:47.527632  1613 net.cpp:432] inception_4e/3x3 -> inception_4e/3x3
I0823 09:38:47.531687  1613 net.cpp:155] Setting up inception_4e/3x3
I0823 09:38:47.531700  1613 net.cpp:163] Top shape: 1 320 14 14 (62720)
I0823 09:38:47.531707  1613 layer_factory.hpp:75] Creating layer inception_4e/relu_3x3
I0823 09:38:47.531713  1613 net.cpp:110] Creating Layer inception_4e/relu_3x3
I0823 09:38:47.531718  1613 net.cpp:476] inception_4e/relu_3x3 <- inception_4e/3x3
I0823 09:38:47.531723  1613 net.cpp:419] inception_4e/relu_3x3 -> inception_4e/3x3 (in-place)
I0823 09:38:47.531728  1613 net.cpp:155] Setting up inception_4e/relu_3x3
I0823 09:38:47.531733  1613 net.cpp:163] Top shape: 1 320 14 14 (62720)
I0823 09:38:47.531735  1613 layer_factory.hpp:75] Creating layer inception_4e/5x5_reduce
I0823 09:38:47.531740  1613 net.cpp:110] Creating Layer inception_4e/5x5_reduce
I0823 09:38:47.531744  1613 net.cpp:476] inception_4e/5x5_reduce <- inception_4d/output_inception_4d/output_0_split_2
I0823 09:38:47.531751  1613 net.cpp:432] inception_4e/5x5_reduce -> inception_4e/5x5_reduce
I0823 09:38:47.531883  1613 net.cpp:155] Setting up inception_4e/5x5_reduce
I0823 09:38:47.531889  1613 net.cpp:163] Top shape: 1 32 14 14 (6272)
I0823 09:38:47.531894  1613 layer_factory.hpp:75] Creating layer inception_4e/relu_5x5_reduce
I0823 09:38:47.531898  1613 net.cpp:110] Creating Layer inception_4e/relu_5x5_reduce
I0823 09:38:47.531903  1613 net.cpp:476] inception_4e/relu_5x5_reduce <- inception_4e/5x5_reduce
I0823 09:38:47.531908  1613 net.cpp:419] inception_4e/relu_5x5_reduce -> inception_4e/5x5_reduce (in-place)
I0823 09:38:47.531913  1613 net.cpp:155] Setting up inception_4e/relu_5x5_reduce
I0823 09:38:47.531916  1613 net.cpp:163] Top shape: 1 32 14 14 (6272)
I0823 09:38:47.531919  1613 layer_factory.hpp:75] Creating layer inception_4e/5x5
I0823 09:38:47.531924  1613 net.cpp:110] Creating Layer inception_4e/5x5
I0823 09:38:47.531927  1613 net.cpp:476] inception_4e/5x5 <- inception_4e/5x5_reduce
I0823 09:38:47.531932  1613 net.cpp:432] inception_4e/5x5 -> inception_4e/5x5
I0823 09:38:47.532671  1613 net.cpp:155] Setting up inception_4e/5x5
I0823 09:38:47.532678  1613 net.cpp:163] Top shape: 1 128 14 14 (25088)
I0823 09:38:47.532683  1613 layer_factory.hpp:75] Creating layer inception_4e/relu_5x5
I0823 09:38:47.532687  1613 net.cpp:110] Creating Layer inception_4e/relu_5x5
I0823 09:38:47.532691  1613 net.cpp:476] inception_4e/relu_5x5 <- inception_4e/5x5
I0823 09:38:47.532696  1613 net.cpp:419] inception_4e/relu_5x5 -> inception_4e/5x5 (in-place)
I0823 09:38:47.532699  1613 net.cpp:155] Setting up inception_4e/relu_5x5
I0823 09:38:47.532703  1613 net.cpp:163] Top shape: 1 128 14 14 (25088)
I0823 09:38:47.532706  1613 layer_factory.hpp:75] Creating layer inception_4e/pool
I0823 09:38:47.532712  1613 net.cpp:110] Creating Layer inception_4e/pool
I0823 09:38:47.532716  1613 net.cpp:476] inception_4e/pool <- inception_4d/output_inception_4d/output_0_split_3
I0823 09:38:47.532721  1613 net.cpp:432] inception_4e/pool -> inception_4e/pool
I0823 09:38:47.532727  1613 net.cpp:155] Setting up inception_4e/pool
I0823 09:38:47.532732  1613 net.cpp:163] Top shape: 1 528 14 14 (103488)
I0823 09:38:47.532735  1613 layer_factory.hpp:75] Creating layer inception_4e/pool_proj
I0823 09:38:47.532740  1613 net.cpp:110] Creating Layer inception_4e/pool_proj
I0823 09:38:47.532743  1613 net.cpp:476] inception_4e/pool_proj <- inception_4e/pool
I0823 09:38:47.532748  1613 net.cpp:432] inception_4e/pool_proj -> inception_4e/pool_proj
I0823 09:38:47.533267  1613 net.cpp:155] Setting up inception_4e/pool_proj
I0823 09:38:47.533277  1613 net.cpp:163] Top shape: 1 128 14 14 (25088)
I0823 09:38:47.533282  1613 layer_factory.hpp:75] Creating layer inception_4e/relu_pool_proj
I0823 09:38:47.533288  1613 net.cpp:110] Creating Layer inception_4e/relu_pool_proj
I0823 09:38:47.533290  1613 net.cpp:476] inception_4e/relu_pool_proj <- inception_4e/pool_proj
I0823 09:38:47.533294  1613 net.cpp:419] inception_4e/relu_pool_proj -> inception_4e/pool_proj (in-place)
I0823 09:38:47.533299  1613 net.cpp:155] Setting up inception_4e/relu_pool_proj
I0823 09:38:47.533303  1613 net.cpp:163] Top shape: 1 128 14 14 (25088)
I0823 09:38:47.533306  1613 layer_factory.hpp:75] Creating layer inception_4e/output
I0823 09:38:47.533311  1613 net.cpp:110] Creating Layer inception_4e/output
I0823 09:38:47.533314  1613 net.cpp:476] inception_4e/output <- inception_4e/1x1
I0823 09:38:47.533318  1613 net.cpp:476] inception_4e/output <- inception_4e/3x3
I0823 09:38:47.533321  1613 net.cpp:476] inception_4e/output <- inception_4e/5x5
I0823 09:38:47.533324  1613 net.cpp:476] inception_4e/output <- inception_4e/pool_proj
I0823 09:38:47.533330  1613 net.cpp:432] inception_4e/output -> inception_4e/output
I0823 09:38:47.533336  1613 net.cpp:155] Setting up inception_4e/output
I0823 09:38:47.533340  1613 net.cpp:163] Top shape: 1 832 14 14 (163072)
I0823 09:38:47.533344  1613 layer_factory.hpp:75] Creating layer pool4/3x3_s2
I0823 09:38:47.533347  1613 net.cpp:110] Creating Layer pool4/3x3_s2
I0823 09:38:47.533351  1613 net.cpp:476] pool4/3x3_s2 <- inception_4e/output
I0823 09:38:47.533361  1613 net.cpp:432] pool4/3x3_s2 -> pool4/3x3_s2
I0823 09:38:47.533367  1613 net.cpp:155] Setting up pool4/3x3_s2
I0823 09:38:47.533371  1613 net.cpp:163] Top shape: 1 832 7 7 (40768)
I0823 09:38:47.533375  1613 layer_factory.hpp:75] Creating layer pool4/3x3_s2_pool4/3x3_s2_0_split
I0823 09:38:47.533380  1613 net.cpp:110] Creating Layer pool4/3x3_s2_pool4/3x3_s2_0_split
I0823 09:38:47.533382  1613 net.cpp:476] pool4/3x3_s2_pool4/3x3_s2_0_split <- pool4/3x3_s2
I0823 09:38:47.533387  1613 net.cpp:432] pool4/3x3_s2_pool4/3x3_s2_0_split -> pool4/3x3_s2_pool4/3x3_s2_0_split_0
I0823 09:38:47.533392  1613 net.cpp:432] pool4/3x3_s2_pool4/3x3_s2_0_split -> pool4/3x3_s2_pool4/3x3_s2_0_split_1
I0823 09:38:47.533397  1613 net.cpp:432] pool4/3x3_s2_pool4/3x3_s2_0_split -> pool4/3x3_s2_pool4/3x3_s2_0_split_2
I0823 09:38:47.533401  1613 net.cpp:432] pool4/3x3_s2_pool4/3x3_s2_0_split -> pool4/3x3_s2_pool4/3x3_s2_0_split_3
I0823 09:38:47.533406  1613 net.cpp:155] Setting up pool4/3x3_s2_pool4/3x3_s2_0_split
I0823 09:38:47.533411  1613 net.cpp:163] Top shape: 1 832 7 7 (40768)
I0823 09:38:47.533413  1613 net.cpp:163] Top shape: 1 832 7 7 (40768)
I0823 09:38:47.533417  1613 net.cpp:163] Top shape: 1 832 7 7 (40768)
I0823 09:38:47.533421  1613 net.cpp:163] Top shape: 1 832 7 7 (40768)
I0823 09:38:47.533423  1613 layer_factory.hpp:75] Creating layer inception_5a/1x1
I0823 09:38:47.533431  1613 net.cpp:110] Creating Layer inception_5a/1x1
I0823 09:38:47.533433  1613 net.cpp:476] inception_5a/1x1 <- pool4/3x3_s2_pool4/3x3_s2_0_split_0
I0823 09:38:47.533437  1613 net.cpp:432] inception_5a/1x1 -> inception_5a/1x1
I0823 09:38:47.534967  1613 net.cpp:155] Setting up inception_5a/1x1
I0823 09:38:47.534975  1613 net.cpp:163] Top shape: 1 256 7 7 (12544)
I0823 09:38:47.534979  1613 layer_factory.hpp:75] Creating layer inception_5a/relu_1x1
I0823 09:38:47.534984  1613 net.cpp:110] Creating Layer inception_5a/relu_1x1
I0823 09:38:47.534987  1613 net.cpp:476] inception_5a/relu_1x1 <- inception_5a/1x1
I0823 09:38:47.534991  1613 net.cpp:419] inception_5a/relu_1x1 -> inception_5a/1x1 (in-place)
I0823 09:38:47.534996  1613 net.cpp:155] Setting up inception_5a/relu_1x1
I0823 09:38:47.535001  1613 net.cpp:163] Top shape: 1 256 7 7 (12544)
I0823 09:38:47.535003  1613 layer_factory.hpp:75] Creating layer inception_5a/3x3_reduce
I0823 09:38:47.535009  1613 net.cpp:110] Creating Layer inception_5a/3x3_reduce
I0823 09:38:47.535013  1613 net.cpp:476] inception_5a/3x3_reduce <- pool4/3x3_s2_pool4/3x3_s2_0_split_1
I0823 09:38:47.535017  1613 net.cpp:432] inception_5a/3x3_reduce -> inception_5a/3x3_reduce
I0823 09:38:47.535981  1613 net.cpp:155] Setting up inception_5a/3x3_reduce
I0823 09:38:47.535990  1613 net.cpp:163] Top shape: 1 160 7 7 (7840)
I0823 09:38:47.535995  1613 layer_factory.hpp:75] Creating layer inception_5a/relu_3x3_reduce
I0823 09:38:47.536000  1613 net.cpp:110] Creating Layer inception_5a/relu_3x3_reduce
I0823 09:38:47.536003  1613 net.cpp:476] inception_5a/relu_3x3_reduce <- inception_5a/3x3_reduce
I0823 09:38:47.536010  1613 net.cpp:419] inception_5a/relu_3x3_reduce -> inception_5a/3x3_reduce (in-place)
I0823 09:38:47.536015  1613 net.cpp:155] Setting up inception_5a/relu_3x3_reduce
I0823 09:38:47.536018  1613 net.cpp:163] Top shape: 1 160 7 7 (7840)
I0823 09:38:47.536021  1613 layer_factory.hpp:75] Creating layer inception_5a/3x3
I0823 09:38:47.536026  1613 net.cpp:110] Creating Layer inception_5a/3x3
I0823 09:38:47.536029  1613 net.cpp:476] inception_5a/3x3 <- inception_5a/3x3_reduce
I0823 09:38:47.536036  1613 net.cpp:432] inception_5a/3x3 -> inception_5a/3x3
I0823 09:38:47.539330  1613 net.cpp:155] Setting up inception_5a/3x3
I0823 09:38:47.539338  1613 net.cpp:163] Top shape: 1 320 7 7 (15680)
I0823 09:38:47.539343  1613 layer_factory.hpp:75] Creating layer inception_5a/relu_3x3
I0823 09:38:47.539350  1613 net.cpp:110] Creating Layer inception_5a/relu_3x3
I0823 09:38:47.539353  1613 net.cpp:476] inception_5a/relu_3x3 <- inception_5a/3x3
I0823 09:38:47.539357  1613 net.cpp:419] inception_5a/relu_3x3 -> inception_5a/3x3 (in-place)
I0823 09:38:47.539367  1613 net.cpp:155] Setting up inception_5a/relu_3x3
I0823 09:38:47.539371  1613 net.cpp:163] Top shape: 1 320 7 7 (15680)
I0823 09:38:47.539374  1613 layer_factory.hpp:75] Creating layer inception_5a/5x5_reduce
I0823 09:38:47.539379  1613 net.cpp:110] Creating Layer inception_5a/5x5_reduce
I0823 09:38:47.539383  1613 net.cpp:476] inception_5a/5x5_reduce <- pool4/3x3_s2_pool4/3x3_s2_0_split_2
I0823 09:38:47.539389  1613 net.cpp:432] inception_5a/5x5_reduce -> inception_5a/5x5_reduce
I0823 09:38:47.539588  1613 net.cpp:155] Setting up inception_5a/5x5_reduce
I0823 09:38:47.539594  1613 net.cpp:163] Top shape: 1 32 7 7 (1568)
I0823 09:38:47.539599  1613 layer_factory.hpp:75] Creating layer inception_5a/relu_5x5_reduce
I0823 09:38:47.539603  1613 net.cpp:110] Creating Layer inception_5a/relu_5x5_reduce
I0823 09:38:47.539607  1613 net.cpp:476] inception_5a/relu_5x5_reduce <- inception_5a/5x5_reduce
I0823 09:38:47.539610  1613 net.cpp:419] inception_5a/relu_5x5_reduce -> inception_5a/5x5_reduce (in-place)
I0823 09:38:47.539615  1613 net.cpp:155] Setting up inception_5a/relu_5x5_reduce
I0823 09:38:47.539619  1613 net.cpp:163] Top shape: 1 32 7 7 (1568)
I0823 09:38:47.539623  1613 layer_factory.hpp:75] Creating layer inception_5a/5x5
I0823 09:38:47.539628  1613 net.cpp:110] Creating Layer inception_5a/5x5
I0823 09:38:47.539631  1613 net.cpp:476] inception_5a/5x5 <- inception_5a/5x5_reduce
I0823 09:38:47.539636  1613 net.cpp:432] inception_5a/5x5 -> inception_5a/5x5
I0823 09:38:47.540374  1613 net.cpp:155] Setting up inception_5a/5x5
I0823 09:38:47.540381  1613 net.cpp:163] Top shape: 1 128 7 7 (6272)
I0823 09:38:47.540385  1613 layer_factory.hpp:75] Creating layer inception_5a/relu_5x5
I0823 09:38:47.540390  1613 net.cpp:110] Creating Layer inception_5a/relu_5x5
I0823 09:38:47.540393  1613 net.cpp:476] inception_5a/relu_5x5 <- inception_5a/5x5
I0823 09:38:47.540400  1613 net.cpp:419] inception_5a/relu_5x5 -> inception_5a/5x5 (in-place)
I0823 09:38:47.540403  1613 net.cpp:155] Setting up inception_5a/relu_5x5
I0823 09:38:47.540407  1613 net.cpp:163] Top shape: 1 128 7 7 (6272)
I0823 09:38:47.540410  1613 layer_factory.hpp:75] Creating layer inception_5a/pool
I0823 09:38:47.540429  1613 net.cpp:110] Creating Layer inception_5a/pool
I0823 09:38:47.540433  1613 net.cpp:476] inception_5a/pool <- pool4/3x3_s2_pool4/3x3_s2_0_split_3
I0823 09:38:47.540437  1613 net.cpp:432] inception_5a/pool -> inception_5a/pool
I0823 09:38:47.540444  1613 net.cpp:155] Setting up inception_5a/pool
I0823 09:38:47.540451  1613 net.cpp:163] Top shape: 1 832 7 7 (40768)
I0823 09:38:47.540453  1613 layer_factory.hpp:75] Creating layer inception_5a/pool_proj
I0823 09:38:47.540459  1613 net.cpp:110] Creating Layer inception_5a/pool_proj
I0823 09:38:47.540462  1613 net.cpp:476] inception_5a/pool_proj <- inception_5a/pool
I0823 09:38:47.540467  1613 net.cpp:432] inception_5a/pool_proj -> inception_5a/pool_proj
I0823 09:38:47.541241  1613 net.cpp:155] Setting up inception_5a/pool_proj
I0823 09:38:47.541249  1613 net.cpp:163] Top shape: 1 128 7 7 (6272)
I0823 09:38:47.541254  1613 layer_factory.hpp:75] Creating layer inception_5a/relu_pool_proj
I0823 09:38:47.541261  1613 net.cpp:110] Creating Layer inception_5a/relu_pool_proj
I0823 09:38:47.541265  1613 net.cpp:476] inception_5a/relu_pool_proj <- inception_5a/pool_proj
I0823 09:38:47.541268  1613 net.cpp:419] inception_5a/relu_pool_proj -> inception_5a/pool_proj (in-place)
I0823 09:38:47.541273  1613 net.cpp:155] Setting up inception_5a/relu_pool_proj
I0823 09:38:47.541277  1613 net.cpp:163] Top shape: 1 128 7 7 (6272)
I0823 09:38:47.541280  1613 layer_factory.hpp:75] Creating layer inception_5a/output
I0823 09:38:47.541285  1613 net.cpp:110] Creating Layer inception_5a/output
I0823 09:38:47.541288  1613 net.cpp:476] inception_5a/output <- inception_5a/1x1
I0823 09:38:47.541291  1613 net.cpp:476] inception_5a/output <- inception_5a/3x3
I0823 09:38:47.541296  1613 net.cpp:476] inception_5a/output <- inception_5a/5x5
I0823 09:38:47.541298  1613 net.cpp:476] inception_5a/output <- inception_5a/pool_proj
I0823 09:38:47.541306  1613 net.cpp:432] inception_5a/output -> inception_5a/output
I0823 09:38:47.541312  1613 net.cpp:155] Setting up inception_5a/output
I0823 09:38:47.541316  1613 net.cpp:163] Top shape: 1 832 7 7 (40768)
I0823 09:38:47.541321  1613 layer_factory.hpp:75] Creating layer inception_5a/output_inception_5a/output_0_split
I0823 09:38:47.541326  1613 net.cpp:110] Creating Layer inception_5a/output_inception_5a/output_0_split
I0823 09:38:47.541329  1613 net.cpp:476] inception_5a/output_inception_5a/output_0_split <- inception_5a/output
I0823 09:38:47.541334  1613 net.cpp:432] inception_5a/output_inception_5a/output_0_split -> inception_5a/output_inception_5a/output_0_split_0
I0823 09:38:47.541339  1613 net.cpp:432] inception_5a/output_inception_5a/output_0_split -> inception_5a/output_inception_5a/output_0_split_1
I0823 09:38:47.541345  1613 net.cpp:432] inception_5a/output_inception_5a/output_0_split -> inception_5a/output_inception_5a/output_0_split_2
I0823 09:38:47.541350  1613 net.cpp:432] inception_5a/output_inception_5a/output_0_split -> inception_5a/output_inception_5a/output_0_split_3
I0823 09:38:47.541355  1613 net.cpp:155] Setting up inception_5a/output_inception_5a/output_0_split
I0823 09:38:47.541359  1613 net.cpp:163] Top shape: 1 832 7 7 (40768)
I0823 09:38:47.541363  1613 net.cpp:163] Top shape: 1 832 7 7 (40768)
I0823 09:38:47.541367  1613 net.cpp:163] Top shape: 1 832 7 7 (40768)
I0823 09:38:47.541373  1613 net.cpp:163] Top shape: 1 832 7 7 (40768)
I0823 09:38:47.541378  1613 layer_factory.hpp:75] Creating layer inception_5b/1x1
I0823 09:38:47.541385  1613 net.cpp:110] Creating Layer inception_5b/1x1
I0823 09:38:47.541391  1613 net.cpp:476] inception_5b/1x1 <- inception_5a/output_inception_5a/output_0_split_0
I0823 09:38:47.541401  1613 net.cpp:432] inception_5b/1x1 -> inception_5b/1x1
I0823 09:38:47.543696  1613 net.cpp:155] Setting up inception_5b/1x1
I0823 09:38:47.543705  1613 net.cpp:163] Top shape: 1 384 7 7 (18816)
I0823 09:38:47.543711  1613 layer_factory.hpp:75] Creating layer inception_5b/relu_1x1
I0823 09:38:47.543717  1613 net.cpp:110] Creating Layer inception_5b/relu_1x1
I0823 09:38:47.543721  1613 net.cpp:476] inception_5b/relu_1x1 <- inception_5b/1x1
I0823 09:38:47.543725  1613 net.cpp:419] inception_5b/relu_1x1 -> inception_5b/1x1 (in-place)
I0823 09:38:47.543730  1613 net.cpp:155] Setting up inception_5b/relu_1x1
I0823 09:38:47.543735  1613 net.cpp:163] Top shape: 1 384 7 7 (18816)
I0823 09:38:47.543737  1613 layer_factory.hpp:75] Creating layer inception_5b/3x3_reduce
I0823 09:38:47.543745  1613 net.cpp:110] Creating Layer inception_5b/3x3_reduce
I0823 09:38:47.543747  1613 net.cpp:476] inception_5b/3x3_reduce <- inception_5a/output_inception_5a/output_0_split_1
I0823 09:38:47.543752  1613 net.cpp:432] inception_5b/3x3_reduce -> inception_5b/3x3_reduce
I0823 09:38:47.544894  1613 net.cpp:155] Setting up inception_5b/3x3_reduce
I0823 09:38:47.544900  1613 net.cpp:163] Top shape: 1 192 7 7 (9408)
I0823 09:38:47.544905  1613 layer_factory.hpp:75] Creating layer inception_5b/relu_3x3_reduce
I0823 09:38:47.544910  1613 net.cpp:110] Creating Layer inception_5b/relu_3x3_reduce
I0823 09:38:47.544915  1613 net.cpp:476] inception_5b/relu_3x3_reduce <- inception_5b/3x3_reduce
I0823 09:38:47.544919  1613 net.cpp:419] inception_5b/relu_3x3_reduce -> inception_5b/3x3_reduce (in-place)
I0823 09:38:47.544924  1613 net.cpp:155] Setting up inception_5b/relu_3x3_reduce
I0823 09:38:47.544927  1613 net.cpp:163] Top shape: 1 192 7 7 (9408)
I0823 09:38:47.544930  1613 layer_factory.hpp:75] Creating layer inception_5b/3x3
I0823 09:38:47.544935  1613 net.cpp:110] Creating Layer inception_5b/3x3
I0823 09:38:47.544939  1613 net.cpp:476] inception_5b/3x3 <- inception_5b/3x3_reduce
I0823 09:38:47.544945  1613 net.cpp:432] inception_5b/3x3 -> inception_5b/3x3
I0823 09:38:47.549695  1613 net.cpp:155] Setting up inception_5b/3x3
I0823 09:38:47.549705  1613 net.cpp:163] Top shape: 1 384 7 7 (18816)
I0823 09:38:47.549710  1613 layer_factory.hpp:75] Creating layer inception_5b/relu_3x3
I0823 09:38:47.549720  1613 net.cpp:110] Creating Layer inception_5b/relu_3x3
I0823 09:38:47.549723  1613 net.cpp:476] inception_5b/relu_3x3 <- inception_5b/3x3
I0823 09:38:47.549729  1613 net.cpp:419] inception_5b/relu_3x3 -> inception_5b/3x3 (in-place)
I0823 09:38:47.549736  1613 net.cpp:155] Setting up inception_5b/relu_3x3
I0823 09:38:47.549739  1613 net.cpp:163] Top shape: 1 384 7 7 (18816)
I0823 09:38:47.549742  1613 layer_factory.hpp:75] Creating layer inception_5b/5x5_reduce
I0823 09:38:47.549747  1613 net.cpp:110] Creating Layer inception_5b/5x5_reduce
I0823 09:38:47.549752  1613 net.cpp:476] inception_5b/5x5_reduce <- inception_5a/output_inception_5a/output_0_split_2
I0823 09:38:47.549757  1613 net.cpp:432] inception_5b/5x5_reduce -> inception_5b/5x5_reduce
I0823 09:38:47.550051  1613 net.cpp:155] Setting up inception_5b/5x5_reduce
I0823 09:38:47.550057  1613 net.cpp:163] Top shape: 1 48 7 7 (2352)
I0823 09:38:47.550062  1613 layer_factory.hpp:75] Creating layer inception_5b/relu_5x5_reduce
I0823 09:38:47.550066  1613 net.cpp:110] Creating Layer inception_5b/relu_5x5_reduce
I0823 09:38:47.550071  1613 net.cpp:476] inception_5b/relu_5x5_reduce <- inception_5b/5x5_reduce
I0823 09:38:47.550073  1613 net.cpp:419] inception_5b/relu_5x5_reduce -> inception_5b/5x5_reduce (in-place)
I0823 09:38:47.550078  1613 net.cpp:155] Setting up inception_5b/relu_5x5_reduce
I0823 09:38:47.550082  1613 net.cpp:163] Top shape: 1 48 7 7 (2352)
I0823 09:38:47.550086  1613 layer_factory.hpp:75] Creating layer inception_5b/5x5
I0823 09:38:47.550092  1613 net.cpp:110] Creating Layer inception_5b/5x5
I0823 09:38:47.550096  1613 net.cpp:476] inception_5b/5x5 <- inception_5b/5x5_reduce
I0823 09:38:47.550099  1613 net.cpp:432] inception_5b/5x5 -> inception_5b/5x5
I0823 09:38:47.551203  1613 net.cpp:155] Setting up inception_5b/5x5
I0823 09:38:47.551209  1613 net.cpp:163] Top shape: 1 128 7 7 (6272)
I0823 09:38:47.551214  1613 layer_factory.hpp:75] Creating layer inception_5b/relu_5x5
I0823 09:38:47.551220  1613 net.cpp:110] Creating Layer inception_5b/relu_5x5
I0823 09:38:47.551223  1613 net.cpp:476] inception_5b/relu_5x5 <- inception_5b/5x5
I0823 09:38:47.551228  1613 net.cpp:419] inception_5b/relu_5x5 -> inception_5b/5x5 (in-place)
I0823 09:38:47.551231  1613 net.cpp:155] Setting up inception_5b/relu_5x5
I0823 09:38:47.551235  1613 net.cpp:163] Top shape: 1 128 7 7 (6272)
I0823 09:38:47.551239  1613 layer_factory.hpp:75] Creating layer inception_5b/pool
I0823 09:38:47.551242  1613 net.cpp:110] Creating Layer inception_5b/pool
I0823 09:38:47.551246  1613 net.cpp:476] inception_5b/pool <- inception_5a/output_inception_5a/output_0_split_3
I0823 09:38:47.551252  1613 net.cpp:432] inception_5b/pool -> inception_5b/pool
I0823 09:38:47.551259  1613 net.cpp:155] Setting up inception_5b/pool
I0823 09:38:47.551262  1613 net.cpp:163] Top shape: 1 832 7 7 (40768)
I0823 09:38:47.551265  1613 layer_factory.hpp:75] Creating layer inception_5b/pool_proj
I0823 09:38:47.551271  1613 net.cpp:110] Creating Layer inception_5b/pool_proj
I0823 09:38:47.551275  1613 net.cpp:476] inception_5b/pool_proj <- inception_5b/pool
I0823 09:38:47.551280  1613 net.cpp:432] inception_5b/pool_proj -> inception_5b/pool_proj
I0823 09:38:47.552059  1613 net.cpp:155] Setting up inception_5b/pool_proj
I0823 09:38:47.552069  1613 net.cpp:163] Top shape: 1 128 7 7 (6272)
I0823 09:38:47.552074  1613 layer_factory.hpp:75] Creating layer inception_5b/relu_pool_proj
I0823 09:38:47.552079  1613 net.cpp:110] Creating Layer inception_5b/relu_pool_proj
I0823 09:38:47.552083  1613 net.cpp:476] inception_5b/relu_pool_proj <- inception_5b/pool_proj
I0823 09:38:47.552088  1613 net.cpp:419] inception_5b/relu_pool_proj -> inception_5b/pool_proj (in-place)
I0823 09:38:47.552093  1613 net.cpp:155] Setting up inception_5b/relu_pool_proj
I0823 09:38:47.552098  1613 net.cpp:163] Top shape: 1 128 7 7 (6272)
I0823 09:38:47.552100  1613 layer_factory.hpp:75] Creating layer inception_5b/output
I0823 09:38:47.552104  1613 net.cpp:110] Creating Layer inception_5b/output
I0823 09:38:47.552108  1613 net.cpp:476] inception_5b/output <- inception_5b/1x1
I0823 09:38:47.552115  1613 net.cpp:476] inception_5b/output <- inception_5b/3x3
I0823 09:38:47.552119  1613 net.cpp:476] inception_5b/output <- inception_5b/5x5
I0823 09:38:47.552122  1613 net.cpp:476] inception_5b/output <- inception_5b/pool_proj
I0823 09:38:47.552127  1613 net.cpp:432] inception_5b/output -> inception_5b/output
I0823 09:38:47.552132  1613 net.cpp:155] Setting up inception_5b/output
I0823 09:38:47.552137  1613 net.cpp:163] Top shape: 1 1024 7 7 (50176)
I0823 09:38:47.552140  1613 layer_factory.hpp:75] Creating layer pool5/7x7_s1
I0823 09:38:47.552145  1613 net.cpp:110] Creating Layer pool5/7x7_s1
I0823 09:38:47.552148  1613 net.cpp:476] pool5/7x7_s1 <- inception_5b/output
I0823 09:38:47.552153  1613 net.cpp:432] pool5/7x7_s1 -> pool5/7x7_s1
I0823 09:38:47.552160  1613 net.cpp:155] Setting up pool5/7x7_s1
I0823 09:38:47.552163  1613 net.cpp:163] Top shape: 1 1024 1 1 (1024)
I0823 09:38:47.552166  1613 layer_factory.hpp:75] Creating layer pool5/drop_7x7_s1
I0823 09:38:47.552175  1613 net.cpp:110] Creating Layer pool5/drop_7x7_s1
I0823 09:38:47.552177  1613 net.cpp:476] pool5/drop_7x7_s1 <- pool5/7x7_s1
I0823 09:38:47.552183  1613 net.cpp:419] pool5/drop_7x7_s1 -> pool5/7x7_s1 (in-place)
I0823 09:38:47.552189  1613 net.cpp:155] Setting up pool5/drop_7x7_s1
I0823 09:38:47.552193  1613 net.cpp:163] Top shape: 1 1024 1 1 (1024)
I0823 09:38:47.552197  1613 layer_factory.hpp:75] Creating layer loss3/classifier_g_ft
I0823 09:38:47.552203  1613 net.cpp:110] Creating Layer loss3/classifier_g_ft
I0823 09:38:47.552206  1613 net.cpp:476] loss3/classifier_g_ft <- pool5/7x7_s1
I0823 09:38:47.552212  1613 net.cpp:432] loss3/classifier_g_ft -> loss3/classifier_g_ft
I0823 09:38:47.552240  1613 net.cpp:155] Setting up loss3/classifier_g_ft
I0823 09:38:47.552244  1613 net.cpp:163] Top shape: 1 2 (2)
I0823 09:38:47.552249  1613 layer_factory.hpp:75] Creating layer prob
I0823 09:38:47.552255  1613 net.cpp:110] Creating Layer prob
I0823 09:38:47.552259  1613 net.cpp:476] prob <- loss3/classifier_g_ft
I0823 09:38:47.552263  1613 net.cpp:432] prob -> prob
I0823 09:38:47.552269  1613 net.cpp:155] Setting up prob
I0823 09:38:47.552273  1613 net.cpp:163] Top shape: 1 2 (2)
I0823 09:38:47.552278  1613 net.cpp:240] prob does not need backward computation.
I0823 09:38:47.552280  1613 net.cpp:240] loss3/classifier_g_ft does not need backward computation.
I0823 09:38:47.552284  1613 net.cpp:240] pool5/drop_7x7_s1 does not need backward computation.
I0823 09:38:47.552286  1613 net.cpp:240] pool5/7x7_s1 does not need backward computation.
I0823 09:38:47.552289  1613 net.cpp:240] inception_5b/output does not need backward computation.
…
